thelittleprince/model.onnx (onnx, 245360 bytes, 70 tensors)

first_layer.norm.weight f4 [55]
000000 02 66 56 3f ee 13 62 3f 92 12 63 3f bb 13 76 3f
       0.837494 0.8831166 0.8870021 0.96123856
000010 c0 92 50 3f c9 60 79 3f c9 73 5f 3f ac b4 80 3f
       0.8147392 0.9741331 0.8728605 1.0055137
000020 4f 7c 6b 3f 32 b2 5d 3f 6e 04 59 3f 41 8d 81 3f
       0.91986555 0.8660003 0.84772384 1.0121232
000030 b4 4b 5c 3f 89 52 68 3f 1e a7 62 3f d0 7b 5b 3f
       0.86053014 0.9075094 0.8853625 0.857358
000040 68 25 6c 3f f9 77 6a 3f a8 82 62 3f 3b 69 59 3f
       0.9224458 0.91589314 0.88480616 0.84926194
000050 2f 5e 51 3f 87 24 5d 3f 5f 9c 5c 3f ce 1c 53 3f
       0.8178434 0.8638386 0.86176103 0.8246583
000060 a9 fc 51 3f 11 ef 6f 3f 49 e5 5c 3f 62 e8 6d 3f
       0.82026154 0.9372416 0.8628736 0.92932713
000070 60 64 5f 3f a1 cc 67 3f 93 c9 6f 3f e6 ed 60 3f
       0.87262535 0.90546614 0.9366695 0.87863004
000080 09 f5 86 3f d7 df 5c 3f e8 2d 63 3f 04 ee 68 3f
       1.0543529 0.8627905 0.8874192 0.90988183
000090 69 12 6a 3f 5f ca 54 3f ab 29 61 3f 6d cb 55 3f
       0.9143434 0.83121294 0.87954205 0.8351353
0000a0 a5 5e 67 3f 4b 1b 71 3f 79 66 71 3f 05 04 66 3f
       0.9037879 0.9418227 0.94296986 0.89849883
0000b0 12 31 64 3f b0 62 51 3f 4d 40 69 3f 1b f7 58 3f
       0.89137375 0.8179121 0.9111374 0.84752053
0000c0 fc e4 53 3f 3e 56 79 3f 66 fd 54 3f fc 66 59 3f
       0.8277128 0.9739722 0.83199155 0.84922767
0000d0 ce e0 5c 3f e7 ce 52 3f 9f 99 54 3f
       0.86280525 0.8234696 0.8304691

first_layer.norm.bias f4 [55]
000000 d9 8c 0f 3c a7 2c ba 3a 86 98 db bc 1d bc a5 3b
       0.008761608 0.0014203981 -0.026806127 0.0050578252
000010 f2 a1 bb 3c 0d 93 93 bc 35 13 0e 3c 93 17 dc bb
       0.02290437 -0.018014455 0.0086715715 -0.0067166775
000020 dd 2f bf 3c 50 79 80 3c a1 1f 23 3d 2c a1 84 bb
       0.023338253 0.015682846 0.039825086 -0.0040475335
000030 1c 6f 27 3c 37 b5 b2 3c aa 0c 18 bc 02 7f f0 bc
       0.010219362 0.021814926 -0.009280363 -0.029357437
000040 bb c1 38 ba 5b da eb bb 67 c5 94 3b c7 d7 ea 3b
       -0.0007047911 -0.007197661 0.0045401338 0.007166836
000050 e6 ce cd 3c 69 7e 26 3d 81 4a 91 bc 9c c6 83 3c
       0.02512307 0.040647898 -0.017735722 0.016085915
000060 1c 58 07 bd 2e 47 82 3c 9f c5 09 bd 83 eb 6b bd
       -0.033043012 0.015903082 -0.03363573 -0.05759765
000070 7c db 48 3d 92 ef f2 bc e5 54 a6 bb 92 26 e6 3c
       0.04903744 -0.029655252 -0.005076038 0.028094564
000080 71 8e 5d 3d 2e b9 19 3d 19 86 8f 3c f5 b6 83 bc
       0.05409092 0.037530117 0.017519997 -0.016078452
000090 73 21 1c bd be 9e c9 bc 0e 79 7b bb 38 31 1d 3a
       -0.038117837 -0.024611827 -0.0038371715 0.0005996409
0000a0 a7 e4 e3 3c 38 93 1e bd 2b 8a c3 3b 97 fc 3f 3d
       0.02781899 -0.038714617 0.0059673986 0.046871748
0000b0 7a 2a 40 3d 44 2a 87 bb 85 3f 23 bd f0 29 a5 3c
       0.04691551 -0.0041249115 -0.0398555 0.020161599
0000c0 6f 17 aa bc b8 8a 1b 3c b0 41 0b 3d 57 da 84 bb
       -0.020763127 0.009493522 0.03399819 -0.0040543485
0000d0 8e 48 f4 bc 0a 53 3d 3d 14 52 1f 3d
       -0.029819753 0.04622177 0.038896635

first_layer.norm.running_mean f4 [55]
000000 64 3a f6 be a7 4c 8f 40 41 c5 cc 40 1a 9f d4 3e
       -0.48091424 4.478107 6.399079 0.41527635
000010 83 f1 e2 40 f8 50 96 3e a2 81 84 40 f5 58 d3 be
       7.0919814 0.2935865 4.1408243 -0.41278806
000020 3c 73 a5 bf ea 79 4e 40 38 21 bb 40 71 7f 86 3e
       -1.2925792 3.226191 5.847805 0.26269105
000030 28 d2 93 40 af a1 8e 40 77 7c a5 40 f1 58 27 40
       4.619404 4.457237 5.1714435 2.6148036
000040 0c aa 7d c0 41 26 54 bf 73 1f 9d 40 f7 68 cf bf
       -3.9635038 -0.8287087 4.910089 -1.6203908
000050 11 c7 c1 c0 74 fb 14 c0 e6 40 85 c0 84 85 96 40
       -6.05555 -2.3278475 -4.164172 4.7037983
000060 55 2c 0b c0 39 47 bd bf 00 8a 3c c0 64 b0 8b bf
       -2.1745808 -1.478736 -2.9459229 -1.0913205
000070 87 10 b3 3f 8a c2 94 c0 e8 f3 01 40 f9 9c ba bf
       1.3989419 -4.6487474 2.0305119 -1.4579154
000080 48 f1 f3 3c 43 87 d7 40 b6 9a 00 c0 85 a4 6e c0
       0.029778138 6.7352614 -2.0094428 -3.7287915
000090 36 05 8e bf 94 d1 0e 3f 51 ba 65 3f a1 56 c3 3f
       -1.109534 0.5578854 0.8973742 1.5260812
0000a0 41 b8 d0 3f 70 aa 41 bf 9e 70 25 bc 9a 17 88 3e
       1.630623 -0.7565069 -0.010097651 0.26580507
0000b0 6b 9b a2 bf 72 eb 3b bf 14 df 3e c0 63 98 88 c0
       -1.270368 -0.73406136 -2.9823656 -4.268602
0000c0 41 8e a2 3f f9 ce b0 bd f4 cc bd 3f 25 83 97 c0
       1.2699662 -0.08633227 1.4828172 -4.734759
0000d0 70 5b cb 40 6b a4 90 c0 c3 91 1e c0
       6.354912 -4.5200706 -2.4776466

first_layer.norm.running_var f4 [55]
000000 16 1d 0c 42 d2 62 aa 43 0a 30 2d 44 0c 6a 05 41
       35.028404 340.77203 692.7506 8.33839
000010 9b 36 55 44 ed 69 92 41 79 f9 9b 43 d0 38 94 41
       852.8532 18.301722 311.949 18.52774
000020 23 f9 6e 42 9d 37 71 43 5c dd 17 44 4f ae b2 40
       59.743298 241.21724 607.45874 5.583778
000030 b0 81 be 43 73 91 ab 43 3b 63 e2 43 10 b4 30 43
       381.01318 343.13632 452.77524 176.70337
000040 d0 d2 86 43 8e 58 33 42 b5 7e b1 43 66 eb e1 42
       269.64697 44.83648 354.9899 112.95976
000050 9f e7 1b 44 bb 92 2d 43 de 32 b5 43 05 5b dc 43
       623.6191 173.57317 362.3974 440.7111
000060 12 d9 1a 43 b9 c8 08 42 78 9c 2b 43 c7 ce 44 42
       154.84793 34.19602 171.6112 49.20193
000070 f3 a1 35 42 ec 14 b7 43 90 1f 7b 42 fe b1 49 42
       45.408154 366.16345 62.780823 50.42382
000080 d0 72 59 40 bb 8a 37 44 d5 6b e8 42 39 66 83 43
       3.3976326 734.16766 116.21061 262.7986
000090 68 cd 3c 42 61 9b 17 42 b8 b3 41 42 bc f8 c8 42
       47.200592 37.901737 48.425507 100.48581
0000a0 8d d9 45 42 9a ad de 41 9e 90 1a 41 bf 63 c6 41
       49.462452 27.834766 9.660307 24.798704
0000b0 60 e7 13 42 00 5a 9d 42 98 ea ed 42 98 8a bc 43
       36.975952 78.67578 118.95819 377.08276
0000c0 cf 7e 48 42 78 3f 1f 40 24 ad a7 42 5e 8f f6 43
       50.123837 2.4882488 83.838165 493.12006
0000d0 a6 46 21 44 99 89 b5 43 3a c1 22 43
       645.1039 363.07498 162.75479

trunk.0.expand.norm.weight f4 [82]
000000 25 85 76 3f 78 77 79 3f 20 33 58 3f 11 c4 4f 3f
       0.9629691 0.9744792 0.8445301 0.8115855
000010 25 40 6f 3f 37 da 69 3f b9 ef 5f 3f 7a fc 70 3f
       0.9345725 0.91348594 0.8747516 0.9413525
000020 6f 00 83 3f 4d 0e 78 3f 4a bf 7a 3f 95 ff 69 3f
       1.0234507 0.9689682 0.97948134 0.9140561
000030 d1 16 85 3f ac 83 60 3f 22 c7 4d 3f 7c 5c 60 3f
       1.0397588 0.87700915 0.8038198 0.8764112
000040 17 9c 77 3f 84 f8 7a 3f a1 3e 74 3f 8c d1 7a 3f
       0.9672255 0.98035455 0.95408064 0.97975993
000050 db 41 7a 3f 78 67 6c 3f 42 77 6c 3f 6e d1 5b 3f
       0.9775674 0.9234538 0.92369473 0.8586644
000060 5d df 60 3f ae 42 5a 3f 09 ed 6d 3f a9 dd 7f 3f
       0.87840825 0.85257995 0.9293981 0.999476
000070 7c 69 6b 3f 42 ba 5d 3f c5 e6 59 3f c8 b0 70 3f
       0.9195783 0.8661233 0.8511775 0.94019747
000080 7e 31 87 3f 2e 94 75 3f 2c 02 82 3f 1d b0 68 3f
       1.0561979 0.9592923 1.0156913 0.9089373
000090 80 89 81 3f 5c 4c 81 3f 7b bd 71 3f 5b e3 5f 3f
       1.0120087 1.0101428 0.9442975 0.8745629
0000a0 58 7e 76 3f 2a dc 73 3f df 6b 86 3f 57 73 75 3f
       0.96286535 0.9525782 1.050167 0.9587912
0000b0 90 9f 6b 3f e0 7a 8a 3f 7a a8 89 3f f8 8d 81 3f
       0.9204035 1.0818748 1.075454 1.012145
0000c0 79 ef 78 3f 76 fe 84 3f 64 65 70 3f ab d1 72 3f
       0.97240406 1.0390155 0.9390471 0.9485118
0000d0 6d d1 68 3f e4 60 5a 3f 55 f6 6e 3f 13 d7 85 3f
       0.9094456 0.85304093 0.9334462 1.045626
0000e0 25 8c 80 3f c9 af 7b 3f 1b ac 7b 3f 85 98 67 3f
       1.0042769 0.983151 0.9830949 0.904671
0000f0 a4 5b 6a 3f dd 47 7f 3f e0 21 64 3f 1a 4b 87 3f
       0.9154608 0.9971903 0.8911419 1.0569794
000100 56 72 85 3f 91 cb 67 3f 5f b7 7a 3f 2a f8 80 3f
       1.0425518 0.9054499 0.9793605 1.0075734
000110 3c d1 79 3f 50 40 76 3f ba 37 55 3f 91 72 71 3f
       0.9758489 0.96191883 0.83288157 0.9431544
000120 dd 70 62 3f 53 ac 78 3f 37 f3 70 3f e9 36 66 3f
       0.88453466 0.97137946 0.94121116 0.89927536
000130 9f 67 4e 3f be a0 6b 3f 1c b0 60 3f 55 d1 58 3f
       0.80626863 0.9204215 0.8776872 0.84694415
000140 f3 5c 84 3f 70 81 6e 3f
       1.0340866 0.93166256

trunk.0.expand.norm.bias f4 [82]
000000 96 44 25 3d da 3b a6 bb bf 0f d8 bd 75 a5 f8 3d
       0.04034861 -0.005073053 -0.10549878 0.121409334
000010 40 ed b5 bc 6d 1e 56 bd fa 7c a5 3d 7b bc d1 bc
       -0.022207856 -0.05227511 0.08080478 -0.02560257
000020 1d a1 6b bc 44 02 f9 3c 1c ab c7 bb c5 dc 2c 3d
       -0.014381674 0.030396588 -0.006093396 0.04220273
000030 52 52 a8 3b 05 b1 7c 3d 31 8b f9 bd e1 6d 87 3d
       0.0051367665 0.061692256 -0.12184752 0.066127546
000040 8f be 06 3d 5e 4d d1 bc 55 12 5c 3c ca c2 b5 bc
       0.032896575 -0.025549587 0.013432105 -0.02218761
000050 81 bc 18 bd dd 00 19 3d 23 2e 12 bd e5 b1 5c bd
       -0.037289146 0.03735434 -0.03568853 -0.05388059
000060 c1 32 8a bd 33 57 c5 3d 98 80 dd bc ad 20 95 bb
       -0.06747962 0.096357726 -0.027038857 -0.0045510144
000070 4e 05 3e bd 6d 35 52 3d 24 f6 c6 bd ed c8 00 bd
       -0.046391778 0.051320482 -0.09714916 -0.031441618
000080 ba 71 37 3c ba f1 7e 3c 95 66 e1 b9 72 ef 15 bd
       0.011196548 0.015560562 -0.00042991774 -0.036605306
000090 a9 9c bb bb e3 2a 53 bc c2 44 a7 bb 78 97 ae bd
       -0.0057254625 -0.012888643 -0.005104632 -0.08524984
0000a0 0b 70 fd bc 3a c2 a0 3c da 73 ff 3b 58 c0 63 bc
       -0.030937215 0.019623864 0.007795793 -0.013900839
0000b0 7c 79 d5 3c 77 fb a3 bb ab 63 9b 3c 60 f4 db ba
       0.026058905 -0.005004342 0.018968424 -0.0016781203
0000c0 f7 0c 98 bb b2 b2 04 3c 23 87 4d 3d 70 67 ef bc
       -0.0046402174 0.008099245 0.050177705 -0.029224128
0000d0 3e 3c 37 3d 0f 57 bd 3d bc 00 e6 3c a4 c6 6f bc
       0.044735186 0.09245121 0.028076522 -0.014634762
0000e0 c7 72 73 bc 6a 8c 92 bc 71 20 55 3b 04 72 64 bd
       -0.014858908 -0.01788922 0.0032520557 -0.055772796
0000f0 e4 de 30 bd ab 89 93 3c d4 2d 31 bd bc 2f 31 b9
       -0.043181315 0.018009981 -0.043256596 -0.00016897818
000100 29 9c bf 3c b1 62 19 bd bb 88 c6 bc 03 6e d2 3a
       0.023389893 -0.037447635 -0.02423512 0.0016054515
000110 5b a8 d3 bc 90 cd 97 bc b4 c1 b3 bd 28 67 08 bd
       -0.025837114 -0.018530637 -0.0877718 -0.033301502
000120 51 e0 59 3d 38 67 c1 bc 31 05 ba 3c f2 37 4d bd
       0.05319244 -0.023608789 0.022707554 -0.05010218
000130 54 19 03 be d6 22 17 bd cb e9 92 bd 42 4c b4 3d
       -0.1280263 -0.036898457 -0.07173499 0.088036075
000140 c2 3e 40 3c ea 02 17 bd
       0.011733713 -0.036868013

trunk.0.expand.norm.running_mean f4 [82]
000000 7c 48 cb 3b 2b 1b 4f bc 7f e5 86 3c fd 37 10 3c
       0.006203709 -0.012640755 0.016466854 0.008802411
000010 4b 49 44 3c ce 52 a7 bc d0 ea 87 bc e1 15 34 bc
       0.011980365 -0.020425227 -0.01659146 -0.010991544
000020 f6 01 a4 bb 9e 9e b7 bb 38 32 90 bc 8f 17 49 bd
       -0.0050051166 -0.0056036254 -0.017602071 -0.049094733
000030 8e 7e c7 bb 67 19 bb 3c 71 1a 31 3c 73 11 5f bb
       -0.0060880845 0.022839261 0.010809527 -0.00340375
000040 54 6f 77 3c 90 dd c8 3a 0f 31 5b bc 79 73 4c 3c
       0.015102226 0.001532482 -0.013378396 0.012478703
000050 28 5f 1d bd 49 80 4a 3c 25 e4 ed bc 0e 3e 0a bd
       -0.038420826 0.012359687 -0.029039452 -0.033750586
000060 cb 24 30 3c fd 4b 0f 3c 65 21 87 3c 13 36 23 bd
       0.01075096 0.008746144 0.016495416 -0.03984649
000070 b0 ee f0 3a 2c da 19 3d b8 d4 9b b9 2a f8 72 bb
       0.0018381681 0.03756158 -0.00029722392 -0.0037074187
000080 a8 84 cb 3b 90 59 b5 bc a9 cf 5a bb 09 b6 55 3c
       0.006210882 -0.022137433 -0.0033387935 0.013043889
000090 3e 74 ae bc c2 c8 93 bc f6 b6 54 bb 20 37 0a 3d
       -0.021295663 -0.018040065 -0.0032457686 0.033743978
0000a0 fa 00 50 3c 51 ac 13 3c 97 cf 30 bc 78 5d c1 bb
       0.012695545 0.009013251 -0.010791681 -0.005901035
0000b0 24 2d bf 3c 22 1a 3a 3c 7e e8 84 bc fa 41 5b bb
       0.023336954 0.01135877 -0.016224142 -0.0033456073
0000c0 4c 6a 08 bd ba ae a8 b9 96 65 97 bc a6 34 12 bc
       -0.033304498 -0.00032173638 -0.018481057 -0.008923685
0000d0 dd 5e 9a bc f3 88 c0 bb f9 cf 7f 3c 13 ef 4f bc
       -0.018844062 -0.0058757006 0.015613549 -0.012691277
0000e0 fc 97 3e bc ff c2 c2 3b a5 e2 b0 bc cb 2e ed bb
       -0.011632916 0.0059436555 -0.021592448 -0.007238244
0000f0 0f 2a 75 bc 23 7c 08 3c 3c 6b 8c bb 72 94 c2 bc
       -0.014963641 0.008330378 -0.0042852443 -0.023752425
000100 3f e3 ba bb e4 55 fe 3b 7e 9d 24 3c 59 ff 81 3b
       -0.0057033594 0.007761704 0.010047315 0.0039672074
000110 3b c7 86 3a ae f3 63 bc 3b 72 4c bc 14 e2 e7 3b
       0.0010282764 -0.013913078 -0.012478407 0.007076511
000120 5a 2b 2d bc 1a 21 9e bc 48 ae b6 bc ca 8b ee 3b
       -0.010569418 -0.019302893 -0.0222999 0.0072798477
000130 af 72 03 3c eb e4 92 3b a3 4a c4 3c 3f 08 98 3c
       0.008022948 0.0044828556 0.02396137 0.01855862
000140 79 94 1b bc b1 58 56 bd
       -0.009495848 -0.052330676

trunk.0.expand.norm.running_var f4 [82]
000000 14 64 66 3e 25 fc 53 3f 2c 3a 26 3e cf a4 85 3e
       0.22499114 0.8280662 0.16233128 0.261023
000010 73 9c bd 3e 1a aa 90 3f 11 18 3b 40 66 13 6b 3f
       0.37033424 1.1301911 2.923344 0.91826475
000020 e3 87 fa 3e ec 6e c3 3f b1 f7 bb 3f 52 2a a5 3f
       0.48931798 1.5268226 1.4684964 1.290354
000030 92 44 3d 3f c3 2b 39 3e 63 c4 51 3f 65 9d 37 3e
       0.73932755 0.180831 0.8194029 0.17931135
000040 0a ce 43 3f 14 67 88 3e b5 42 f2 3f 58 51 ff 3e
       0.76486266 0.26641142 1.8926607 0.49866748
000050 bf 64 a9 3f 30 9d da 3e 47 82 83 3f a0 47 c2 3f
       1.323387 0.4269805 1.0274132 1.5178108
000060 bb db f0 3f 27 a7 79 3e fb 86 89 3e 67 58 39 3f
       1.8817056 0.2438017 0.26860794 0.72400516
000070 2d 1d f0 3e 6c ad 87 3e 5b 08 96 3e 0a 12 83 3e
       0.4689726 0.26499498 0.2930325 0.255997
000080 59 80 b3 3f e4 48 9c 3f 3a 88 08 3f 3b 15 71 3e
       1.4023544 1.2209744 0.53332865 0.23543255
000090 91 ef bd 3e 44 50 52 3f 8e 02 48 3e 12 ce d4 3e
       0.37096837 0.82153726 0.19532225 0.4156347
0000a0 bc b7 0d 3f 2d 19 21 3f c5 cc c6 3f b8 db e0 3e
       0.5535848 0.6292904 1.5531241 0.43917632
0000b0 53 c6 2d 3e 75 61 26 3f 8e 9b 72 3f cf cb 24 3f
       0.16970186 0.6499246 0.9476861 0.6437349
0000c0 86 ee 9b 3e 1b bd 7d 3e 80 30 aa 3f 46 70 05 3f
       0.30455416 0.2477917 1.3296051 0.5212444
0000d0 fb 5b 99 3f 0c 18 ad 3e ea 0b 3b 3e 9c 04 65 3f
       1.1981195 0.3380741 0.18266264 0.8946016
0000e0 64 54 d3 3e f0 fe 8b 3e 08 3d bc 3e 1d 48 dc 3e
       0.41275322 0.2734294 0.36765313 0.43023768
0000f0 74 12 bc 3e 51 97 15 3f cd 96 de 3e c0 4d 53 3f
       0.3673283 0.58434016 0.43474427 0.8254051
000100 f6 8f bf 3f 1c b0 14 3f 8a 3d be 3e df 1d 66 3f
       1.4965808 0.5808122 0.37156326 0.8988933
000110 33 e1 de 3e cc 0e 6a 3f 36 f6 60 3f df 86 68 3e
       0.43531188 0.9142883 0.8787569 0.22707699
000120 5a db 89 3f 52 01 e3 3e cc 50 4a 3f c1 f1 e2 3e
       1.0770066 0.44336945 0.79029536 0.4432507
000130 67 04 66 3f b4 d2 1e 3f 1b 8d d6 3d f0 a0 7b 3f
       0.8985047 0.6204026 0.104761325 0.98292446
000140 39 be 52 3f 0a 29 b7 3f
       0.82321507 1.4309399

trunk.0.depthwise.norm.weight f4 [82]
000000 03 f6 67 3f f1 51 64 3f c5 a2 64 3f 52 61 5a 3f
       0.9060976 0.8918753 0.89310867 0.8530475
000010 fc 97 6d 3f c6 3a 5f 3f 1c c1 76 3f 66 91 80 3f
       0.92810035 0.87199056 0.9638841 1.0044372
000020 2f 54 68 3f 24 53 81 3f a1 01 74 3f f1 76 6e 3f
       0.90753454 1.0103498 0.95314986 0.9315024
000030 0b 51 70 3f cf 3f 65 3f 6f 8a 77 3f 2e 06 66 3f
       0.9387366 0.8955049 0.9669561 0.8985318
000040 8d 45 64 3f 48 15 6d 3f 06 5f 72 3f 02 44 69 3f
       0.89168626 0.926106 0.94676244 0.91119397
000050 80 0e 70 3f ed 0e 5d 3f ad 08 7b 3f 86 13 80 3f
       0.93772125 0.863509 0.98060113 1.0005958
000060 e0 46 58 3f ad 21 60 3f dd 17 74 3f c3 8e 6c 3f
       0.84483147 0.87551385 0.9534891 0.9240534
000070 4f f1 6c 3f 7b 63 69 3f 38 22 71 3f 38 d4 62 3f
       0.9255571 0.9116742 0.9419284 0.8860507
000080 b8 2e 5e 3f 0c 14 72 3f df eb 6d 3f 03 6c 69 3f
       0.8679004 0.9456184 0.92938036 0.9118044
000090 df f5 67 3f 35 0d 72 3f 39 56 66 3f 80 59 71 3f
       0.90609545 0.945514 0.89975315 0.9427719
0000a0 4d 1f 67 3f ab f9 57 3f 9d 88 79 3f 9c 86 75 3f
       0.90282136 0.8436534 0.9747408 0.9590852
0000b0 b3 97 5a 3f af d3 78 3f 14 95 7a 3f 58 a8 6f 3f
       0.85387725 0.97198004 0.97883725 0.9361625
0000c0 81 d9 5f 3f 93 0b 6c 3f 5a 16 70 3f cd 83 7e 3f
       0.8744126 0.9220516 0.93784106 0.9941986
0000d0 d6 01 6f 3f 36 99 67 3f 52 a7 64 3f f1 fc 70 3f
       0.93362176 0.90468156 0.8931781 0.9413596
0000e0 d5 88 59 3f 0a 64 6b 3f 0a 1b 64 3f 4b db 55 3f
       0.84974414 0.9194952 0.8910376 0.8353774
0000f0 f4 4d 7a 3f a8 40 69 3f 87 de 6d 3f 70 65 75 3f
       0.977752 0.9111428 0.92917675 0.95857906
000100 02 02 76 3f 87 61 62 3f ae d1 66 3f d5 52 5a 3f
       0.96096814 0.88430065 0.90163696 0.8528264
000110 e8 62 6b 3f 82 bd 6d 3f e0 25 5c 3f a5 99 73 3f
       0.91947794 0.9286729 0.8599529 0.9515632
000120 08 d1 6c 3f e4 15 70 3f 26 ea 5f 3f 1e 2e 5a 3f
       0.92506456 0.937834 0.8746666 0.8522662
000130 18 57 72 3f 6a 51 80 3f 7f 34 5a 3f 3f bf 5b 3f
       0.94664145 1.0024846 0.8523635 0.85838693
000140 dc 2c 6c 3f e9 38 76 3f
       0.9225595 0.9618059

trunk.0.depthwise.norm.bias f4 [82]
000000 90 bd 3d 3d a9 c8 d3 bc 4b b8 00 bc d4 41 4d 3c
       0.04632336 -0.025852518 -0.007856439 0.012527902
000010 32 17 30 bd d3 d6 18 bd ba 00 bb bc 12 4c 2e 3d
       -0.04299087 -0.037314247 -0.022827495 0.042553015
000020 10 9d ab ba 1a 83 ef bc 4d 62 45 3d dd e4 4b bc
       -0.0013093073 -0.029237319 0.04818945 -0.012444702
000030 23 e3 c4 bc f5 16 32 bd 3b 39 22 3d 70 94 cb bc
       -0.024034088 -0.043478925 0.03960536 -0.024851054
000040 3a a0 55 bd 24 dc 6f bd ed 0e 0b 3d 79 e9 9e 3d
       -0.052154757 -0.05855955 0.03394978 0.07759375
000050 54 9b b0 bc 51 bd f7 bb f5 cd 07 3c 06 e4 c6 3d
       -0.021558441 -0.00756041 0.00828885 0.09711461
000060 56 c3 ee bc b7 5a f4 bc 02 b3 33 bd 34 dc 00 bd
       -0.029145878 -0.029828412 -0.043871887 -0.031460002
000070 3f 0c 2d bc 07 9e 5d bc be 45 03 3c a6 a7 3a 3d
       -0.010562002 -0.013526446 0.008012233 0.04557004
000080 5d 52 e4 bd d1 ac f8 3d e2 27 8a bd 07 41 dc 3c
       -0.11148522 0.12142337 -0.06745888 0.026886476
000090 06 71 b3 3c 2d ef 54 bd 03 ed 01 be 6d 8c e7 bc
       0.02190448 -0.05198591 -0.12688069 -0.028265202
0000a0 fb fa 52 bd 89 19 3a bd b4 74 71 3d ca 84 46 bc
       -0.051508885 -0.04543451 0.058949187 -0.01211662
0000b0 78 d0 ad bd f4 1b 09 3d a6 61 91 3c f2 34 80 bb
       -0.08487028 0.033473924 0.017746758 -0.0039125616
0000c0 5a 13 b4 bd 1c 0b 1e bd b3 2c 6e 3c 3e 41 dd bd
       -0.087927535 -0.038584813 0.014537024 -0.108034596
0000d0 e7 59 c8 bb 3d 91 3e 3d 75 09 85 b9 a8 ce 50 3d
       -0.006114233 0.04652523 -0.00025374783 0.050978333
0000e0 9e ee 13 3d 94 d1 ba bd aa 49 89 bc b9 fa 58 bd
       0.036116235 -0.09122005 -0.016758759 -0.052973483
0000f0 39 81 1f 3d 6d 6e 20 bd 56 0e 82 bb f7 6e 27 3d
       0.038941596 -0.03916781 -0.003968994 0.04087731
000100 29 b9 44 3d c3 43 ee bc 6b 7b 4f bd 9a d2 a1 bc
       0.048028145 -0.029085046 -0.05065481 -0.019753743
000110 fb 4a bf bc 17 90 96 3c fd bf 89 3c 98 7d 8d bb
       -0.023351183 0.018379254 0.01681518 -0.0043179505
000120 4e 62 0c bd 83 fa eb 3b cd 62 8b bb c8 73 3f 3d
       -0.03427344 0.007201494 -0.0042537213 0.046741277
000130 13 b2 ea 3c 03 36 4c bb 13 87 72 3d 1b ee fe bd
       0.028649366 -0.0031160123 0.059210848 -0.12447759
000140 46 80 86 bd cb e4 b0 3d
       -0.06567435 0.08637389

trunk.0.depthwise.norm.running_mean f4 [82]
000000 4e 21 b2 bd 57 0d 5a be 3e 4c 12 be 76 7d 1c be
       -0.086977586 -0.21294151 -0.14286897 -0.15282235
000010 88 a3 8c 3d 03 f7 3b be f6 0c 1c 3e 0e 9d e6 3d
       0.068671286 -0.18355946 0.15239319 0.112604246
000020 85 60 d4 3d d5 eb 0d 3e 62 58 8e 3d f4 97 04 3e
       0.10369972 0.13859494 0.069504514 0.1294859
000030 74 e9 f1 3d 56 19 09 bd 0a 0a 1a be e4 45 0f 3c
       0.11812106 -0.033471428 -0.15042892 0.008744691
000040 3a 9b 5d be da b2 09 be 46 5c 02 3e 31 a5 ef 3d
       -0.21641245 -0.13447133 0.12730512 0.1170143
000050 2d 52 97 3d 54 24 29 be dd 53 d4 3d b0 94 ad 3d
       0.07388721 -0.16517764 0.10367558 0.084756255
000060 42 77 2d be b6 b8 2d bd e9 9a fe 3d b6 d6 13 3e
       -0.16940024 -0.042412482 0.124318905 0.14437374
000070 ee f6 be 3d 40 7f 3b b8 89 f0 ff bd 34 b8 19 3e
       0.09324442 -4.4702785e-05 -0.1249705 0.15011674
000080 2f 67 f0 3d 16 87 f6 3d e6 16 05 be 90 ad 18 be
       0.11738431 0.12037484 -0.12997016 -0.14909959
000090 1c fa 06 3e 32 60 ff 3d 30 24 0d bd 44 ff 10 be
       0.13181347 0.1246952 -0.03445834 -0.14159876
0000a0 c5 a3 43 be ea 2f 53 be 33 0d 11 3e 5b 06 b2 3d
       -0.19105442 -0.20623747 0.14165191 0.086926185
0000b0 50 b2 c8 bd 99 51 07 3e 44 b6 e7 3d 58 ce 06 3e
       -0.097996354 0.13214721 0.11314061 0.13164651
0000c0 75 b0 c0 bd 94 b1 b0 bd 06 3b 05 3e b2 68 83 3d
       -0.094086565 -0.0862762 0.13010797 0.064164534
0000d0 34 aa 14 3e f6 d8 0b be 2b 3f 85 bd 1d e6 a4 3d
       0.14518052 -0.13656983 -0.06506189 0.08051703
0000e0 90 d4 e8 bd 6f a6 ef 3d ae 54 06 3e cf e6 2d be
       -0.11368668 0.117016666 0.1311824 -0.16982578
0000f0 f5 7e dd 3d 3e 59 ec 3d 30 ea 45 3d 18 b2 14 3e
       0.10815231 0.11540459 0.04831904 0.14521062
000100 5f f0 12 3e 0e fb 1c be 7c 0e f0 3d 66 1b 64 be
       0.14349507 -0.15330145 0.11721513 -0.22276077
000110 22 03 be 3d 43 77 e4 3d 35 5d 3d be 50 50 e3 3d
       0.09277941 0.1115556 -0.18492587 0.11099303
000120 9f be 06 3e 4d 79 c0 3d c7 06 1c be eb 19 24 be
       0.13158654 0.09398136 -0.1523696 -0.16025512
000130 aa df 2d be b1 62 ed 3d 72 d1 42 3d 75 6f 43 be
       -0.16979852 0.115910895 0.047563024 -0.19085486
000140 20 d4 0f 3e 1e 56 5f 3d
       0.14045763 0.054525487

trunk.0.depthwise.norm.running_var f4 [82]
000000 99 33 81 3e 22 20 96 3e f1 77 55 3e 82 f6 76 3e
       0.25234678 0.2932139 0.20846535 0.24117473
000010 dc 2d 8e 3d f0 f6 85 3e 9b 43 83 3d c3 a7 49 3d
       0.06942341 0.2616496 0.06409379 0.049232256
000020 44 de 6e 3d f8 aa 7c 3d f6 dd 3f 3d 30 00 6a 3d
       0.058317438 0.061686486 0.046842538 0.057129085
000030 29 22 81 3d 1c a2 5d 3e 34 10 31 3e 5d f1 66 3e
       0.06305344 0.21643871 0.17291337 0.2255301
000040 bc 88 96 3e f5 ca 88 3e ce c7 43 3d 4b 39 7d 3d
       0.29401195 0.26717344 0.04779797 0.061822217
000050 5c b2 14 3d bf 73 91 3e 01 5f 08 3d 7d 85 dc 3c
       0.03630291 0.2840862 0.033293728 0.02691912
000060 41 aa 6c 3e 4b 2d 81 3e c8 cf b0 3d 22 6f ab 3d
       0.23111822 0.25229868 0.08633381 0.08370806
000070 82 d8 37 3d 7e ae 3d 3e fa 0a 50 3e 32 f4 e3 3d
       0.044884212 0.18523595 0.20316687 0.11130561
000080 8f 08 5d 3d 1e 0e 55 3d 12 95 a5 3e 7d 63 81 3e
       0.05396324 0.052015416 0.32340294 0.25271216
000090 39 e6 a2 3d 95 ce 4f 3d ae 80 66 3e b5 c5 5e 3e
       0.07954068 0.05073412 0.22510025 0.21755107
0000a0 b2 c1 8f 3e bf 19 91 3e 10 5b 76 3d ea 29 c1 3d
       0.28077465 0.28339955 0.060145438 0.094318226
0000b0 9b fe 8b 3e 57 09 a2 3d f6 76 70 3d 01 7a 7e 3d
       0.27342686 0.07911938 0.0587072 0.06212807
0000c0 29 59 a3 3e e4 4d b1 3e 4f 7f 63 3d 1d 4c 34 3d
       0.3190396 0.34629738 0.055541333 0.0440179
0000d0 22 f1 79 3d ec a0 84 3e 8b 8a 85 3e 21 b6 4c 3d
       0.061020978 0.25904024 0.26082262 0.04997838
0000e0 14 5d 8d 3e f0 59 97 3d 9c 07 d6 3d 2a 2b 85 3e
       0.27610075 0.07390201 0.1045067 0.26009494
0000f0 e0 28 5d 3d 66 08 d1 3d 18 3e 94 3d ab ea ac 3d
       0.05399406 0.1020668 0.07238406 0.08443197
000100 83 52 84 3d 19 d5 80 3e bd 9c 91 3d 17 b3 9e 3e
       0.0646105 0.2516258 0.071099736 0.3099601
000110 3e 45 59 3d 74 31 3a 3d 58 0b 4b 3e 92 ba 86 3d
       0.05304455 0.04545732 0.19828546 0.06578554
000120 00 04 75 3d 64 6b 4b 3d de 41 99 3e a5 09 7b 3e
       0.059818268 0.049662963 0.29933065 0.24515398
000130 87 05 40 3e ae 17 46 3d c2 26 23 3e 87 9a 6f 3e
       0.18752109 0.048362426 0.15932754 0.23398791
000140 9c 79 7a 3d 18 9c 14 3d
       0.061151132 0.036281675

trunk.0.se.fc1.bias f4 [24]
000000 87 b4 89 3d 50 eb ca bd 77 71 ae 3d 3a a7 6c 3d
       0.06723886 -0.099081635 0.085177355 0.057776667
000010 12 17 9b bc 8a 87 90 bd b2 67 16 3e b1 08 10 3d
       -0.0189319 -0.07057102 0.14687994 0.03516454
000020 8d e8 b6 3d 10 68 30 bc f2 e9 10 3e 9f 9a dc 3d
       0.08931074 -0.010766998 0.14151743 0.10771679
000030 ea 69 c7 bb a8 69 00 bd 72 70 c1 3c 85 f3 32 bc
       -0.006085624 -0.03135076 0.023613188 -0.010922317
000040 eb b1 d7 3d 43 7d 8f bd db 93 10 3e 64 0d af bd
       0.10531982 -0.07006314 0.14118902 -0.08547476
000050 8f cb d2 3c 37 75 9b ba bd 8d db 3c 8a 10 5c 3d
       0.02573183 -0.0011860494 0.026800985 0.05372671

trunk.0.se.fc2.bias f4 [82]
000000 2c 4f 13 3c 75 96 90 3d 1e e7 fa 3d c3 f4 28 3d
       0.008991044 0.070599474 0.12251113 0.041249048
000010 cb 27 34 be 49 22 ba bc af 85 e1 3c 58 84 e4 bd
       -0.17593305 -0.022721427 0.027529566 -0.11158055
000020 2b 5a f3 bc 45 eb 8a bd f7 b2 24 3e fd a4 d4 3d
       -0.029706081 -0.06783155 0.16083895 0.103830315
000030 b7 ef 41 bc a0 83 d6 3d c9 43 c0 3d ce 22 7a bd
       -0.011836938 0.10474324 0.09387929 -0.06106835
000040 84 d9 91 bd 4b 78 f2 3c a5 e4 25 be 06 19 0e be
       -0.07121566 0.029598376 -0.16200502 -0.13876733
000050 89 9d 3e 3d 98 b7 7e bd 7b 65 9e bd ed 36 03 3e
       0.046536956 -0.062186807 -0.077341996 0.12813921
000060 11 e9 d7 bd 4c 3f 6b 3c fb 8e 16 bd 43 a6 58 bd
       -0.10542501 0.014358353 -0.03675745 -0.052892935
000070 d3 b3 06 3b fb 9d 51 be 15 a3 1a 3e 3c 54 65 be
       0.002055396 -0.20470421 0.15101273 -0.22395414
000080 8d be d8 3d 41 3d 08 be 07 b5 98 bc 13 18 0a bd
       0.1058322 -0.13304617 -0.018641008 -0.033714365
000090 49 c3 ca 3c 45 71 0f bc ef fe 12 3e 5d 26 2c be
       0.024751322 -0.008755033 0.14355062 -0.1681151
0000a0 13 78 2c bc d0 a5 7d be 82 71 14 be d8 bd 53 bd
       -0.010526675 -0.24770284 -0.14496425 -0.05169472
0000b0 21 35 26 be 7d 75 46 3d 61 4e 73 bd 9b 14 a7 bd
       -0.16231205 0.04845189 -0.05940092 -0.08158227
0000c0 27 50 4d be f2 9f 25 3e c1 af 04 be b6 2a bf 3b
       -0.20050107 0.16174296 -0.1295767 0.005833949
0000d0 3c 21 ae 3d 07 05 b4 3c f8 e0 aa 3b 70 26 31 be
       0.08502433 0.021975053 0.0052148066 -0.17299819
0000e0 53 90 07 be 43 6d 36 be 6d 3a ca 3c f4 dc 93 bd
       -0.13238649 -0.17815118 0.024686063 -0.07219878
0000f0 21 32 3f 3e cd 10 9e 3c 19 8c 23 3e df 18 a0 bc
       0.18671466 0.01929512 0.15971412 -0.01954311
000100 df 5b 8f 3d b4 22 ce bd eb c4 16 3e a6 73 0c be
       0.06999945 -0.10065213 0.14723556 -0.13715991
000110 5a 55 a4 3d 7b 46 94 3d 70 f7 56 be b0 30 ea bd
       0.08024092 0.072400056 -0.20992827 -0.11435068
000120 f5 ab 85 bd 30 4a bf 3a 37 f5 69 be ef 8d 7a be
       -0.06526939 0.0014594253 -0.22847448 -0.24468206
000130 f2 f7 ba bd e7 3d bc bd 38 af 24 be b8 27 bc 3d
       -0.09129323 -0.091914944 -0.16082466 0.09187263
000140 1d d3 89 bc 1d 36 19 be
       -0.0168243 -0.14962049

trunk.0.project.norm.weight f4 [55]
000000 99 60 4e 3f 15 ea 6c 3f 21 e1 6c 3f 0e 10 62 3f
       0.80616146 0.9254468 0.9253102 0.8830575
000010 9a 23 4e 3f da aa 5c 3f eb da 6e 3f 87 ee 67 3f
       0.80523074 0.861982 0.9330279 0.9059834
000020 a9 4a 4e 3f 98 46 74 3f 64 f2 71 3f d2 e5 5d 3f
       0.8058267 0.9542022 0.94510484 0.866788
000030 e7 c4 78 3f 83 30 6a 3f f4 95 71 3f 33 64 4c 3f
       0.9717545 0.91480273 0.94369435 0.7984039
000040 3f 49 6a 3f 59 d4 60 3f 84 b1 71 3f 71 d2 83 3f
       0.91518015 0.87824017 0.9441149 1.0298597
000050 77 bd 72 3f 3e a1 61 3f a8 a3 7a 3f fd 29 4b 3f
       0.9482035 0.8813666 0.9790597 0.79360944
000060 1c 35 75 3f 97 8a 6e 3f 35 59 4c 3f 81 e1 63 3f
       0.95784163 0.9318022 0.7982362 0.89015967
000070 af ed 52 3f 2f 1b 82 3f c6 5c 5c 3f aa 3e 69 3f
       0.82393926 1.0164546 0.8607906 0.9111124
000080 74 62 5b 3f f8 12 74 3f 3c b5 61 3f d8 fc 70 3f
       0.856971 0.95341444 0.88167167 0.9413581
000090 a3 d1 57 3f b2 e0 58 3f a2 1d 72 3f 47 35 68 3f
       0.84304255 0.8471786 0.94576466 0.90706295
0000a0 fe 2f 52 3f d8 21 57 3f c4 66 63 3f f3 d3 4e 3f
       0.8210448 0.84036016 0.8882868 0.8079216
0000b0 66 f0 5f 3f e1 85 68 3f 31 97 62 3f 33 f9 6d 3f
       0.87476194 0.90829283 0.8851195 0.9295837
0000c0 a4 c5 55 3f 2a 3d 6b 3f 8c 3e 69 3f 86 35 6d 3f
       0.835047 0.91890204 0.91111064 0.92659795
0000d0 f5 c1 73 3f a0 f5 6e 3f 14 87 67 3f
       0.9521783 0.93343544 0.9044049

trunk.0.project.norm.bias f4 [55]
000000 cc 8b 0f 3c bb 30 ba 3a ce 98 db bc b7 bb a5 3b
       0.0087613575 0.0014205197 -0.026806261 0.0050577777
000010 ff a1 bb 3c f2 92 93 bc 01 13 0e 3c 0c 18 dc bb
       0.022904394 -0.018014405 0.008671523 -0.006716734
000020 11 30 bf 3c 84 79 80 3c 9d 1f 23 3d 1a a2 84 bb
       0.02333835 0.015682943 0.03982507 -0.0040476443
000030 76 6f 27 3c 08 b5 b2 3c 4f 0c 18 bc f6 7e f0 bc
       0.010219445 0.021814838 -0.009280278 -0.029357415
000040 11 c1 38 ba 34 da eb bb 9c c6 94 3b df d7 ea 3b
       -0.0007047812 -0.0071976427 0.0045402776 0.007166847
000050 81 ce cd 3c 6e 7e 26 3d a1 4a 91 bc 9f c6 83 3c
       0.025122883 0.040647916 -0.017735781 0.01608592
000060 1d 58 07 bd 18 47 82 3c a8 c5 09 bd 9a eb 6b bd
       -0.033043016 0.01590304 -0.033635765 -0.057597734
000070 74 db 48 3d c5 ef f2 bc 13 55 a6 bb 79 26 e6 3c
       0.04903741 -0.029655347 -0.0050760596 0.028094517
000080 55 8e 5d 3d 44 b9 19 3d 0f 86 8f 3c 0c b7 83 bc
       0.054090817 0.0375302 0.017519979 -0.016078494
000090 b3 21 1c bd a6 9e c9 bc 97 79 7b bb 95 2d 1d 3a
       -0.038118076 -0.024611782 -0.0038372034 0.0005995867
0000a0 8a e4 e3 3c 2b 93 1e bd aa 8e c3 3b 9a fc 3f 3d
       0.027818937 -0.03871457 0.0059679346 0.04687176
0000b0 66 2a 40 3d 89 2b 87 bb 68 3f 23 bd be 29 a5 3c
       0.046915434 -0.004125063 -0.03985539 0.020161506
0000c0 8c 17 aa bc f7 89 1b 3c c1 41 0b 3d 89 da 84 bb
       -0.020763181 0.009493343 0.033998255 -0.0040543717
0000d0 7d 48 f4 bc 15 53 3d 3d 22 52 1f 3d
       -0.029819721 0.04622181 0.038896687

trunk.0.project.norm.running_mean f4 [55]
000000 ac a7 89 be 27 79 ef bd 0a 3a 66 be 11 f7 8d be
       -0.26885736 -0.1169303 -0.22483078 -0.2772756
000010 26 ff b8 3d bc 37 a1 3e 0c ba 96 be 0f a0 e3 3d
       0.09033041 0.31487834 -0.29438818 0.11114513
000020 ac 73 ce 3e 63 a5 59 be 6d c7 60 be f3 21 de bd
       0.40322626 -0.21254496 -0.21951075 -0.10846319
000030 eb 37 50 be 10 1b 8f be 48 16 3c be b5 64 88 be
       -0.20333831 -0.27950335 -0.18367875 -0.26639333
000040 78 01 18 3e b9 9f 4f bd bc 74 dd bd eb 91 d6 3c
       0.1484431 -0.050689433 -0.10813281 0.026192626
000050 67 b8 e5 3d 7c 7f 18 3e c3 df 3d 3d c7 b4 69 3e
       0.112168126 0.14892381 0.046355974 0.22822867
000060 24 b3 ae 3e 6c 19 05 3e af 5d 25 be 21 4f 53 3e
       0.34121048 0.12997979 -0.16149019 0.20635654
000070 cd d7 39 3e ec 8d a5 3d 2d e5 99 3d 32 0f 1b 3e
       0.18148728 0.0808371 0.07514415 0.15142515
000080 47 b2 6b 3d 93 51 2e be 63 92 ad 3d 25 d0 ea 3d
       0.057543065 -0.17023306 0.08475187 0.11465482
000090 bb 7f 67 be 4c c0 74 be 34 ee 42 be 0f 18 f1 be
       -0.22607319 -0.2390148 -0.1903618 -0.47088668
0000a0 fb 3d 9e be b7 1c 47 3e d0 44 73 3e 04 1d 04 be
       -0.30906662 0.19444548 0.23756719 -0.12901694
0000b0 ad e1 2b 3e 6d d6 8e 3e 76 d8 15 3e a4 9d 59 3e
       0.16785307 0.2789797 0.14633355 0.21251541
0000c0 7b 35 81 bd 29 2e 86 3d 91 35 c3 bd 95 33 92 3d
       -0.06309029 0.06551773 -0.09531701 0.07138745
0000d0 00 18 49 be 1c 99 26 3e ce 58 6e 3e
       -0.19638062 0.16269344 0.23276064

trunk.0.project.norm.running_var f4 [55]
000000 d8 1c 05 3e 84 78 1e 3d 87 95 dc 3d 00 06 0f 3e
       0.12999284 0.03868915 0.107707076 0.13967133
000010 66 f7 f7 3c 5d 42 21 3e b4 70 1f 3e 1f f3 01 3d
       0.030269336 0.15747972 0.15570337 0.031726
000020 65 6c 78 3e 61 fa ad 3d cc 8a d2 3d 02 a0 20 3d
       0.24260099 0.084950216 0.1028038 0.039215095
000030 a2 52 a6 3d 73 ff 08 3e b1 36 ab 3d 15 5c 2d 3e
       0.0812123 0.13378696 0.08360041 0.16929658
000040 ea 58 73 3d a3 e6 52 3c 7e 11 47 3d b0 47 15 3d
       0.059410967 0.012872371 0.048600666 0.03644532
000050 ff 7b 18 3d 4f dd 3c 3d 69 16 1b 3d a3 5d dd 3d
       0.037227627 0.046109494 0.03786317 0.108088754
000060 fd 82 5e 3e 2e fc 78 3d f2 94 a1 3d bc a2 b7 3d
       0.21729656 0.060787372 0.07889737 0.08966586
000070 21 b0 8a 3d ff 5f 48 3d 69 84 cd 3c 47 ff 8c 3d
       0.06771875 0.048919674 0.025087552 0.06884628
000080 6f 11 bb 3c d4 59 9c 3d 01 66 38 3d 99 15 58 3d
       0.022835461 0.07634321 0.045019154 0.052754972
000090 61 17 cb 3d 76 17 cb 3d 6f 53 9d 3d 3f c3 b9 3e
       0.099165685 0.09916584 0.07681929 0.36281773
0000a0 2e a7 20 3e ec d6 bb 3d c6 30 e2 3d dd 42 05 3d
       0.15688774 0.091718525 0.11044459 0.03253447
0000b0 d7 67 50 3d f4 ca 0c 3e b2 5e 98 3d c5 b5 c0 3d
       0.05088028 0.13749295 0.07439937 0.0940967
0000c0 20 01 4c 3d 2a ea 0d 3d e5 4f b3 3c 46 8d 47 3d
       0.04980576 0.034647144 0.021888683 0.048718713
0000d0 70 08 bc 3d 2d bd 97 3d c5 78 c4 3d
       0.09181297 0.07409129 0.095933475

output_layers_PI.0.expand.norm.weight f4 [82]
000000 41 00 6e 3f 96 ed 67 3f 7d 76 72 3f fe 3e 7f 3f
       0.9296914 0.905969 0.9471205 0.99705493
000010 53 5b 75 3f 78 8c 6e 3f 14 25 67 3f 06 79 6a 3f
       0.95842475 0.9318309 0.9029095 0.9159092
000020 a7 4b 8d 3f 27 c7 81 3f ef 6f 6f 3f 11 2f 76 3f
       1.1038712 1.0138901 0.9353017 0.9616557
000030 c8 f2 78 3f f4 60 74 3f 76 e0 75 3f f2 a2 6d 3f
       0.97245455 0.9546044 0.96045625 0.9282676
000040 4d ed 6a 3f c0 71 77 3f c6 e2 6c 3f 6e ed 5c 3f
       0.9176834 0.96657944 0.9253353 0.8629979
000050 6a 02 67 3f 77 a1 84 3f 6d 71 8a 3f a3 03 73 3f
       0.9023806 1.0361775 1.0815865 0.94927424
000060 f3 e3 84 3f cd f9 72 3f e6 77 73 3f be dd 6b 3f
       1.0382065 0.94912416 0.95104825 0.92135227
000070 cd 7b 7a 3f 1d ab 80 3f 5c 6f 77 3f ae 63 75 3f
       0.97845155 1.005222 0.96654296 0.95855224
000080 93 c8 76 3f 88 83 83 3f 1e 64 74 3f bd fa 5c 3f
       0.963998 1.0274515 0.95465267 0.86320096
000090 9e 8e 69 3f df 5d 7a 3f 44 f5 75 3f 2b 87 79 3f
       0.9123324 0.97799486 0.9607737 0.97471875
0000a0 ba cc 87 3f fd be 65 3f 51 b9 77 3f 4e 19 5c 3f
       1.0609353 0.8974455 0.96767145 0.8597611
0000b0 02 88 66 3f 19 be 64 3f b2 f9 8d 3f 9f 05 7d 3f
       0.9005128 0.89352566 1.1091826 0.988367
0000c0 23 b6 80 3f b6 01 6e 3f 34 37 6f 3f 29 4b 6a 3f
       1.0055584 0.9297136 0.9344361 0.91520935
0000d0 9c 1a 65 3f 32 00 84 3f 99 65 83 3f 97 8c 77 3f
       0.8949373 1.031256 1.026538 0.966989
0000e0 80 a1 6f 3f 3f d8 78 3f 15 27 6e 3f fd eb 7b 3f
       0.93605804 0.97204965 0.93028384 0.98406965
0000f0 6a e7 7c 3f 26 06 7d 3f b8 67 63 3f 15 45 73 3f
       0.9879061 0.98837507 0.8883014 0.95027286
000100 13 5e 7f 3f 07 66 74 3f 60 4e 5b 3f b4 cd 6a 3f
       0.9975292 0.9546818 0.85666466 0.9172013
000110 04 37 78 3f ae 56 71 3f 70 53 60 3f 59 c8 6c 3f
       0.9695895 0.9427289 0.87627316 0.92493206
000120 54 64 79 3f e1 0b 6d 3f 77 31 56 3f 34 83 76 3f
       0.97418714 0.9259625 0.8366923 0.9629395
000130 20 77 61 3f 8b fe 73 3f 78 35 67 3f 95 12 6b 3f
       0.88072395 0.95310277 0.9031596 0.9182523
000140 92 b6 84 3f f3 70 68 3f
       1.0368216 0.90797347

output_layers_PI.0.expand.norm.bias f4 [82]
000000 17 bf 79 3d 3e 2d 02 bd 21 03 5a bd 17 fa 24 bd
       0.060973253 -0.031781428 -0.05322564 -0.040277567
000010 87 f2 02 bd 6e 89 da bd 13 80 86 3b 7c b5 6d bc
       -0.031969573 -0.10670744 0.004104623 -0.014508601
000020 6c 7f 3b 3d ce a7 21 3a 8a c1 0d be 4b 56 a0 3c
       0.045775816 0.00061666674 -0.1384336 0.019572398
000030 96 c5 d6 bd 00 83 af bc 49 3f 1d bc 50 a9 ae bd
       -0.10486905 -0.02142477 -0.009597608 -0.085283875
000040 d7 ac 3b 3d f6 77 f9 b8 0e 17 2a bd 72 2c 4d 3d
       0.04581913 -0.0001189559 -0.041525893 0.050091214
000050 56 c8 5e bd f7 5e 93 bd c9 51 e3 bc 9c aa 95 bd
       -0.054390274 -0.071958475 -0.02774896 -0.07307932
000060 a8 ad af bc 30 b9 7a bd 04 c2 0a bd 38 29 82 bc
       -0.02144511 -0.061211765 -0.033876434 -0.015888795
000070 04 c4 7d 3b 98 18 13 bd a4 1c ec bc 07 cc 9f 3c
       0.003872157 -0.035912126 -0.02882225 0.019506468
000080 e2 fe 1f bd ee 24 42 bc 30 cc 4c bd 42 20 dc bc
       -0.039061435 -0.011849625 -0.049999416 -0.02687085
000090 b0 c6 fc bc c2 64 90 bd 29 56 45 3c fe 8c 0f 3d
       -0.03085646 -0.07050468 0.012044468 0.03504657
0000a0 2d 6c 3e bc 7e 3e d6 bd d3 57 6e bd 67 2b d7 3b
       -0.011622471 -0.10461138 -0.058189224 0.0065664533
0000b0 cd 87 8a bc a8 d2 11 bd 56 e3 5a ba bb 85 71 3c
       -0.016910458 -0.035601288 -0.0008349916 0.0147413565
0000c0 5c 25 78 bd d3 4d de 3a e4 04 cd 3c f4 c7 9f 3c
       -0.060582504 0.0016960449 0.025026746 0.019504525
0000d0 9e b6 5b 3d be 87 9a bc 0d 94 9d bd 56 3d 00 bd
       0.053640954 -0.018863555 -0.07694254 -0.031308495
0000e0 19 42 f4 3c b8 00 66 bc 99 ba ac bc 32 a1 43 bc
       0.029816674 -0.014038257 -0.02108507 -0.011940287
0000f0 23 f6 49 3c 29 01 1a bd aa 4d 7e bd c0 71 ae bc
       0.01232675 -0.037598763 -0.062085785 -0.021294475
000100 c0 ed c0 3c 3b 49 84 bc 1d ef 48 3b ab b0 ff ba
       0.023550868 -0.0161482 0.00306601 -0.0019507607
000110 89 73 34 bd c4 fb 0a 3d ff 85 97 bc 2e c6 26 bd
       -0.044055495 0.03393151 -0.018496512 -0.040716343
000120 a8 5a ec 3c 9f c2 c1 3c 75 a3 82 3d 26 bf 62 bd
       0.028851822 0.023652373 0.06378833 -0.055358075
000130 a6 a2 5e bd 74 ce 9e bb a5 a4 3c bd 23 24 88 bd
       -0.054354332 -0.0048463885 -0.046055455 -0.066475175
000140 54 e9 c2 3c a9 ac 3b bd
       0.0237929 -0.04581896

output_layers_PI.0.expand.norm.running_mean f4 [82]
000000 76 cd b1 bc 87 50 a3 3c 8f a5 e1 3b 48 69 f3 3c
       -0.021704417 0.01993586 0.006886191 0.029713288
000010 88 fd a5 3a c9 88 12 3d fb 7b da 3c ba 4e a1 bc
       0.0012664059 0.03577498 0.026670447 -0.01969086
000020 56 42 c2 bb 3e 82 61 bd 66 eb 5c 3d 64 90 87 3d
       -0.005928318 -0.05505585 0.05393543 0.06619337
000030 4e e9 84 3b 5d 67 7a bd a0 92 97 bd eb 3d 1f bd
       0.0040561324 -0.06113373 -0.074010134 -0.03887741
000040 99 6a 1f bd f8 a6 7c ba c3 b3 de bc c0 d4 04 bb
       -0.03892002 -0.00096379174 -0.027185326 -0.002026841
000050 c7 47 48 bc 55 4f 83 3c 09 15 b4 3a de f7 10 bd
       -0.012224144 0.01602904 0.0013739179 -0.035392635
000060 a2 28 65 bc b7 b2 75 bb 70 b9 2a bc 4b fc 19 bd
       -0.013986738 -0.0037490556 -0.010420188 -0.03759412
000070 db 73 57 3d c7 4d 08 bd c6 fd 54 bc 20 f5 26 bc
       0.052600723 -0.0332773 -0.012999957 -0.010190278
000080 d6 6c a5 3d 7c 7b 19 3c e0 82 5b bd ff 15 5d bb
       0.080773994 0.00936782 -0.05359161 -0.0033735035
000090 6f 57 40 bc 0a 40 a9 3b 29 a4 eb 3b 0e 67 bd bc
       -0.011739596 0.0051651048 0.0071912003 -0.02312043
0000a0 98 d6 0f 3d 4a f3 bc bb 69 0a b0 bd 65 79 af bd
       0.035116762 -0.005766307 -0.085957356 -0.08568076
0000b0 30 a7 4a 3d 7a 7b 28 bd ac bb 2e bc 2d eb 12 3d
       0.04947585 -0.04113338 -0.010664862 0.035868812
0000c0 46 da a2 bc ae ce 6a 3c 66 56 44 bd 39 e6 d3 bc
       -0.019879472 0.014331503 -0.04793396 -0.025866615
0000d0 3c 46 03 bc 70 7f 1f 3d d4 2f 09 bd 8c 7c 4f 3d
       -0.008012351 0.038939893 -0.033492878 0.050655887
0000e0 82 8a 87 3c a6 84 35 bd a7 6e b9 3c 74 6f 3b bc
       0.016545538 -0.044315957 0.022635771 -0.011440147
0000f0 d1 ea 07 3d e8 ac 42 bd 6d be 5d bc 21 6b 30 3c
       0.033182923 -0.047528177 -0.013534171 0.010767729
000100 fd 97 ee 3c 49 97 e2 bc 55 de 29 bd a4 37 70 3d
       0.029125208 -0.027660029 -0.041471798 0.058646813
000110 56 31 55 3c 84 5e ea bc b3 4c f3 3c c8 2d 43 bb
       0.013012251 -0.028609522 0.029699659 -0.0029781926
000120 20 e6 67 3d b6 b4 0b 3c fb f0 b6 bc 36 91 80 bd
       0.05661595 0.008526972 -0.022331705 -0.06277697
000130 ab 8b 24 bd 70 13 79 bc f5 30 ff bc 5d af 90 bc
       -0.04017226 -0.015202388 -0.031151274 -0.017661745
000140 0b fd 1f bd e5 19 63 bd
       -0.03905968 -0.055444617

output_layers_PI.0.expand.norm.running_var f4 [82]
000000 26 c5 d8 3e cc d1 de 3e 7a 7b 89 3f c6 bc 14 3f
       0.42337912 0.43519437 1.0740807 0.58100545
000010 2a a6 45 3f 19 32 99 3e e8 c3 67 3f dd ca 6a 3f
       0.7720667 0.29921034 0.90533304 0.91715795
000020 d3 63 30 3f 8f 77 f8 3e a3 59 42 3f 33 4f e6 3e
       0.6890232 0.48528716 0.75918025 0.449823
000030 54 ed 52 3f d0 e8 cf 3e 7f 44 36 3f ee 0d 97 3f
       0.82393384 0.4060731 0.71198267 1.1801126
000040 0a b2 50 3f be a3 7d 3f 90 91 da 3e 01 a3 6b 3f
       0.81521666 0.99077976 0.4268918 0.920456
000050 11 4e 0a 3f 12 4e 57 3e c6 5f 0f 3f ff 63 b4 3e
       0.5402537 0.21025875 0.56005514 0.3523254
000060 06 8f 5d 3f 3e 9c c5 3f b4 c4 58 3f 95 94 07 3f
       0.8654636 1.5438306 0.84675145 0.52961093
000070 ed 19 1e 3f ea 99 ef 3e 54 a8 c8 3e 43 ba 1e 3f
       0.6175831 0.46797115 0.39190924 0.6200296
000080 9b 27 c0 3e 62 14 46 3f 58 61 e4 3f 28 97 8c 3f
       0.37530217 0.7737485 1.7842207 1.0983629
000090 43 0f 9c 3e 20 f5 cc 3f 1f f2 25 3f 3c 85 39 3f
       0.30480394 1.6012306 0.6482257 0.72468925
0000a0 be 1c 4d 3f 84 ab c4 3f fc 0a 23 3f 71 bb 22 3f
       0.8012198 1.5364842 0.63688636 0.6356726
0000b0 97 49 3a 3f e9 e0 9c 3f 30 15 37 3f 23 ee d2 3e
       0.7276854 1.2256137 0.71516705 0.4119731
0000c0 32 7a 35 3f 1e 5a 0a 3f 8d 65 08 3f c0 f9 08 3f
       0.7088958 0.5404376 0.53279954 0.5350609
0000d0 3f 2b 83 3f 55 1c 5c 3f 70 0c 45 3f bc 17 d5 3e
       1.0247573 0.8598073 0.76972103 0.4161967
0000e0 3c b7 10 3f 3a f6 1f 3f 7c 4f 04 3f db 37 1c 3f
       0.56529593 0.62485087 0.51683784 0.6102273
0000f0 cb 67 3c 3f f9 2b 64 3f 5d 01 1c 3f e1 bd 81 3f
       0.73595876 0.89129597 0.6093958 1.0136071
000100 0b c1 c4 3e f5 44 f8 3e ec 96 22 3f c5 dc 78 3f
       0.3842853 0.4849011 0.6351154 0.9721187
000110 57 70 0e 3f 82 5c 1c 3f eb 94 e0 3e 79 89 34 3f
       0.55640167 0.61078656 0.43863615 0.70522267
000120 e8 61 9a 3e 15 06 02 3f 74 3d 70 3f 30 6b bf 3f
       0.30152822 0.5079053 0.9384377 1.4954586
000130 30 44 ca 3f 51 ac 6c 3f 28 46 a4 3f 44 96 03 3f
       1.5802059 0.92450434 1.283391 0.5140116
000140 bc 97 d4 3e c0 d4 5e 3f
       0.41522014 0.8704338

output_layers_PI.0.depthwise.norm.weight f4 [82]
000000 2e 37 70 3f bd a5 78 3f 4f 9d 60 3f 68 08 70 3f
       0.938342 0.97127897 0.87740034 0.93762827
000010 ec 03 6d 3f a6 ef 66 3f d9 23 70 3f 14 44 79 3f
       0.9258411 0.90209424 0.938047 0.97369504
000020 9d 2c 7e 3f 53 34 70 3f 29 62 81 3f fe 71 82 3f
       0.99286824 0.9382984 1.0108081 1.0191038
000030 1f ba 80 3f be 25 6c 3f cf 4b 7b 3f a2 ee 77 3f
       1.00568 0.9224509 0.9816255 0.968485
000040 e6 69 70 3f 27 6e 61 3f 03 80 81 3f c6 5e 78 3f
       0.9391159 0.88058704 1.0117191 0.9701961
000050 51 c3 64 3f 5f 81 72 3f c3 bb 76 3f d4 e5 67 3f
       0.8936053 0.94728655 0.9638025 0.90585065
000060 7a 98 6f 3f c6 ca 5f 3f 27 de 61 3f ca 5e 66 3f
       0.93592036 0.8741878 0.882296 0.89988387
000070 fd e6 72 3f 04 ca 74 3f 1a af 75 3f 41 15 80 3f
       0.9488371 0.9562075 0.9597031 1.0006486
000080 74 0f 72 3f 7e 57 81 3f 32 8b 84 3f 95 1c 81 3f
       0.9455483 1.0104825 1.0354979 1.0086848
000090 b2 c7 6d 3f e3 fa 76 3f 08 18 77 3f f1 e0 68 3f
       0.92882836 0.9647657 0.96521044 0.90968233
0000a0 db 6a 77 3f 64 a1 82 3f 9d 09 80 3f 4a af 70 3f
       0.96647424 1.0205503 1.0002934 0.9401747
0000b0 b0 03 72 3f f3 01 78 3f 06 fa 78 3f 5c 50 68 3f
       0.94536877 0.96877974 0.97256505 0.9074762
0000c0 62 e7 6b 3f 22 39 70 3f 5d 2e 7b 3f e2 67 73 3f
       0.9214994 0.9383718 0.9811762 0.9508039
0000d0 0c 95 7a 3f 3b 77 77 3f ef db 7d 3f 5e b1 72 3f
       0.9788368 0.96666306 0.9916372 0.9480189
0000e0 a2 b6 7e 3f da ad 75 3f d1 b1 6f 3f 79 73 64 3f
       0.99497426 0.959684 0.936307 0.892387
0000f0 c5 c3 81 3f f9 81 7c 3f a5 0c 70 3f e7 6c 74 3f
       1.0137869 0.9863582 0.93769294 0.9547867
000100 02 f1 63 3f 7d cf 62 3f 03 55 76 3f 7e 5c 5f 3f
       0.89039624 0.8859785 0.9622347 0.87250507
000110 6f e5 6d 3f 92 6f 81 3f 62 18 7a 3f 85 ae 65 3f
       0.9292821 1.0112174 0.97693455 0.8971942
000120 dd f6 73 3f 23 ff 76 3f a8 eb 64 3f cb 4b 6c 3f
       0.9529856 0.9648306 0.8942208 0.9230315
000130 68 3c 89 3f 75 c7 6a 3f 6f 0b 72 3f ea cd 6e 3f
       1.072156 0.917106 0.94548696 0.9328295
000140 c4 0b 65 3f ec fd 72 3f
       0.8947108 0.94918704

output_layers_PI.0.depthwise.norm.bias f4 [82]
000000 57 1c 9f bd 62 c8 5e 3c fd 58 b3 3c be 33 3d bd
       -0.07769077 0.01359758 0.021893019 -0.046191923
000010 ba 15 c0 bc 32 ae ab bc 9d c3 e6 bc 05 05 fa 3c
       -0.02344786 -0.020957086 -0.028169448 0.030519972
000020 3c 28 3c bc be 42 be bc b8 36 c2 bc 46 97 59 bc
       -0.011484202 -0.023225185 -0.023707733 -0.013280695
000030 a9 e2 f1 bb 9d 1e 9b bd 47 14 0c 3d 44 9a 31 bd
       -0.0073817563 -0.075741984 0.034199025 -0.04336001
000040 f3 1d 3f bd d1 2c b4 bd 52 11 3f bd 79 cc 71 3c
       -0.04665942 -0.087976106 -0.046647377 0.014758223
000050 97 d6 80 bd 75 03 da 3b a2 1e 8b bd d3 f2 cd bd
       -0.0629093 0.006653244 -0.06792952 -0.10056081
000060 9c 48 de bc b0 43 02 be 6d e7 96 bd 9e ff ba bd
       -0.027134232 -0.12721133 -0.0736836 -0.09130786
000070 b9 8f 8e bd 0e 01 7a bd 5f c0 ae bc 9c 22 e8 bc
       -0.06961007 -0.061036162 -0.021331964 -0.028336816
000080 7f 92 cd bc 88 de df bc e0 02 61 3d 42 fc 94 3d
       -0.025094269 -0.02732779 0.054934382 0.07274677
000090 8f d9 6c bd 5c 07 2b 3d ca bb 8a bd 9b 8a 00 be
       -0.057824668 0.041755065 -0.06774099 -0.12552874
0000a0 5c 80 80 bd 92 1b 93 3d 50 03 48 3d c7 2b ea bd
       -0.062744826 0.07182993 0.048831284 -0.11434131
0000b0 6b 3e 6b bd 5c ab 1b bd 68 c8 8a 3c b2 e1 e5 bc
       -0.057432573 -0.038005218 0.016941264 -0.028061721
0000c0 bd 31 38 bd 3b f5 46 bd 13 b1 8b bd d5 b8 ac bd
       -0.04496931 -0.048573714 -0.068208836 -0.084336914
0000d0 a1 78 3a bd 6d c6 44 bd 76 f3 3d 3d d8 0c 4f bc
       -0.045525197 -0.048040796 0.04637476 -0.0126373395
0000e0 c1 69 10 3d 39 f0 ae bd 72 6e bc bd 3a 02 ba bd
       0.035257105 -0.085419126 -0.09200753 -0.09082456
0000f0 ae 25 76 3c 9e a7 e2 bd 7c 83 b3 bd 78 c4 99 bd
       0.015023632 -0.11067127 -0.08765313 -0.075081766
000100 db 0f 8b bd af 63 2b bd 16 2d cd bc c7 ac bb bd
       -0.067901336 -0.041843113 -0.025045913 -0.09163814
000110 45 d2 16 bd d1 bb 2c 3d 8a af 21 bd cd 6d 2f bb
       -0.036821622 0.042171303 -0.039474048 -0.0026768327
000120 76 87 91 bc f8 9e 41 bc 54 5f 37 bd 34 22 52 bd
       -0.017764788 -0.011817686 -0.044768646 -0.05130215
000130 48 96 91 bd d8 92 14 bd 70 f8 1e bd 3e d8 a1 bd
       -0.07108742 -0.036272854 -0.038811147 -0.07902573
000140 87 8d 67 bd 8a 3e 3d bd
       -0.056531455 -0.04620222

output_layers_PI.0.depthwise.norm.running_mean f4 [82]
000000 7b 41 75 bc 04 75 d5 3b 30 cd fc bb ea f7 69 bb
       -0.014969225 0.0065141935 -0.00771489 -0.0035700747
000010 20 f2 81 bd 01 39 c0 bd 13 89 ca bc 59 1c a5 bb
       -0.0634501 -0.09385873 -0.024723565 -0.0050387797
000020 be 92 2e bc 1c 29 88 bd 60 e8 d9 3b d7 8c a0 bc
       -0.010655103 -0.06648466 0.0066500157 -0.019598408
000030 ec d0 29 3c 75 77 94 bc 99 34 85 bc 40 c6 e4 3a
       0.010364752 -0.018123368 -0.016260432 0.0017454103
000040 aa fb 97 bc 75 e8 b5 bb 1e 36 3b 3a 01 ad 07 bd
       -0.01855262 -0.0055513927 0.0007141548 -0.033123974
000050 91 3d 3d 3c 79 fc dc bc 63 0c 53 bd 23 14 a0 bc
       0.011550323 -0.026975857 -0.051525485 -0.019540852
000060 7b a8 59 bd 0e df 15 3b d6 89 84 3c ef 34 79 3b
       -0.05313919 0.0022868547 0.016179007 0.0038025936
000070 7c d4 dc ba 56 0f 01 bc ea 10 ce bc 4e d3 14 bd
       -0.0016847993 -0.0078771915 -0.02515455 -0.03633433
000080 2d ed cc bc 85 eb 80 3c 67 69 fd 3b 0e e3 1f bc
       -0.025015438 0.015737304 0.007733512 -0.009758724
000090 6e 9a 07 bd 44 1d 44 b8 72 81 81 bd c0 f7 be bc
       -0.03310626 -4.6757297e-05 -0.06323518 -0.023311496
0000a0 b2 e3 40 bd 64 d6 0e 3b 62 b0 e6 bc 6f da 85 bc
       -0.047092147 0.0021795267 -0.028160278 -0.016339509
0000b0 49 f2 28 bd dd b8 ff 3a 89 80 58 bd 94 86 80 bc
       -0.041246686 0.001951005 -0.052856956 -0.015689172
0000c0 4e 66 7c bb 8b 91 49 bc 7c 96 97 3a 04 0f 6e 3c
       -0.0038513127 -0.012302767 0.0011565234 0.014529947
0000d0 46 51 d4 bc 89 c9 5b bd 7e f1 5c bd f8 0f 57 bd
       -0.02591766 -0.053658996 -0.053941242 -0.052505463
0000e0 f2 4e 55 bc b2 eb 33 bd 49 b2 82 bc f9 cf 6c bd
       -0.01301931 -0.04392595 -0.015954154 -0.057815526
0000f0 f3 59 29 bb 8b 64 c1 bb 8e 04 c5 3b ec 74 72 bd
       -0.0025840967 -0.0059018782 0.006012506 -0.059193537
000100 42 93 81 bc fd c4 62 bd ac 22 08 bc 16 21 e8 bc
       -0.015817288 -0.055363644 -0.008309048 -0.02833609
000110 3e 07 56 bc 9b 64 c1 3c 98 af d8 bc 17 df 2e 3c
       -0.01306325 0.023607543 -0.026450917 0.010673306
000120 41 d9 43 bd 43 15 73 3c 7f 05 c3 bd d1 ea 72 ba
       -0.04781461 0.014836612 -0.09522533 -0.0009266558
000130 18 f1 d8 38 4a ee 99 bb 0c ca 20 3c 94 f4 41 bd
       0.0001034459 -0.0046975957 0.009813797 -0.04735239
000140 2f 58 da 3b 24 8b 85 3b
       0.0066633443 0.0040754247
