minivilles/model.onnx (onnx, 480785 bytes, 70 tensors)

first_layer.norm.weight f4 [58]
00000000: 8f79 773f c14a 7e3f b7e7 7e3f fd61 803f
00000010: 7d14 773f 86a5 793f 3b09 793f 3910 7c3f
00000020: ae68 7a3f 9b4a 7d3f 1490 763f 03de 7b3f
00000030: 70af 793f 0699 7d3f ca26 7d3f 27a8 7a3f
00000040: 8fac 7b3f 236e 7b3f d1ca 7f3f 6e2f 793f
00000050: 5fdb 7b3f 80ba 7f3f 6501 7d3f 7c13 793f
00000060: 49c5 7c3f beb1 7b3f 1477 7f3f 5305 783f
00000070: 2a65 7b3f bf64 7e3f 7214 7d3f 67b5 7c3f
00000080: db84 803f b1c3 7e3f 4220 813f f6d5 7d3f
00000090: 364f 7e3f a1b0 7f3f 0c9f 7c3f fb3b 7d3f
000000a0: 67f7 7b3f a7b2 7e3f f440 813f 80ac 7d3f
000000b0: 6ad0 743f 115f 7b3f 12c8 793f 928a 733f
000000c0: 08ff 783f 8507 733f 6f42 7a3f 3bd7 7c3f
000000d0: 0598 7c3f deb6 783f cd0e 7f3f 86a0 7e3f
000000e0: b692 7b3f 9a87 7f3f
0.9666986 0.99332815 0.9957232 1.0029904 0.9651564 0.97518194 0.9727971 0.98462254
0.9781598 0.98941964 0.96313596 0.9838564 0.9753332 0.9906162 0.9888731 0.9791283
0.9831018 0.9821493 0.9991885 0.97337997 0.9838161 0.9989395 0.9883025 0.97295356
0.98738533 0.9831809 0.99791074 0.96883124 0.9820124 0.99372476 0.9885932 0.987143
1.0040544 0.9951735 1.0087969 0.99154603 0.99339616 0.9987889 0.98680186 0.9891965
0.9842438 0.9949135 1.0097947 0.9909134 0.95630515 0.98191935 0.9757091 0.95133317
0.97264147 0.9493335 0.9775762 0.98765916 0.98669463 0.97154033 0.9963196 0.9946369
0.9827074 0.99816287

first_layer.norm.bias f4 [58]
00000000: ad6b d63c 1792 df3c 9d3a 903c 35f6 1dbd
00000010: 9df3 58bc 07b8 f2bb 7bcb dabc 6321 5e3c
00000020: 1e85 e5bc 91a5 5bbc a146 783b 75fe d33b
00000030: 9b9b 26bd 333c e5bc 4e02 793b abca eabc
00000040: e01c a23c 192e b93c 87be c9bc 28e5 0abd
00000050: a844 eeb9 0f51 9ebb cadc 0f3d 78b8 c8bc
00000060: f451 953b fb15 1c3c d0fc 093d 3ea9 b93c
00000070: e553 00bc 366e 8b3d 8230 bb3c fc9a 0abd
00000080: b2dc 6dbc 6a80 15bd 7673 29bd 9604 d6bc
00000090: 1bd1 dd3c e093 39bd 3387 7abb c970 54bd
000000a0: dea0 4b3d b517 333d 7c4a 2c3c 2a16 1b3d
000000b0: 6864 05bb 60bb a4bc bceb ffbc 4f18 63bd
000000c0: 7b85 1b3c 8cf2 aa3c dd3a 0b3d a2d3 44bd
000000d0: 54bb 643d 6782 053d 1971 833b 2324 603c
000000e0: 86df 6a3b 3a69 4f3c
0.02617439 0.02729134 0.017606074 -0.03856488 -0.013241676 -0.0074071917 -0.026708355 0.013557765
-0.028017577 -0.013406173 0.0037883895 0.0064695426 -0.04067574 -0.027982807 0.0037995758 -0.028661093
0.01978916 0.022604989 -0.024626983 -0.033909947 -0.0004544605 -0.0048314403 0.03512267 -0.024502024
0.0045568887 0.009526725 0.033688366 0.022663709 -0.007832502 0.068081304 0.022850279 -0.03383921
-0.01451795 -0.03649942 -0.041369878 -0.026125234 0.027077248 -0.04530704 -0.0038227558 -0.051865373
0.04971396 0.04372378 0.010515805 0.037862934 -0.0020354036 -0.020108879 -0.031240337 -0.055443104
0.009492273 0.020867608 0.033991683 -0.04805339 0.055842713 0.032595064 0.004011285 0.013680491
0.0035838797 0.012659365

first_layer.norm.running_mean f4 [58]
00000000: e963 f93f d3f8 9cbe 595a ad3f b499 10c0
00000010: 683d 6340 76c9 293e fd85 83be 975b bfbf
00000020: 0c6d 99bd 9ef7 b6be 7389 0b40 89a6 e13f
00000030: 1a10 c9bf bd4b 2040 8b80 06c0 46ef 3140
00000040: 3b0a 5c3e 069e 5bbf 6918 6340 8e88 3240
00000050: e808 6740 4f7d 4e3f 2722 f23e 1f62 1d40
00000060: dd89 4fbe 60d3 a0c0 075e 66be bac1 0c40
00000070: 50b3 44bf 4add 40c0 c37d 2d40 a283 e13f
00000080: 5ae2 05bf 8416 e03e ecd1 06c0 c292 9dc0
00000090: 2652 fcbf 7b83 f3bf 1987 23c0 8c72 89bf
000000a0: 22c7 81bf 2f58 9ebf ad5f db3f 6339 9840
000000b0: 9f0d 1ac0 7a3f b33d 93d5 c8bf f3b5 3c40
000000c0: e167 32c0 8c76 8cbf d2fb 83bf dc44 f9bf
000000d0: 19af 2240 c248 2d40 98ec 25c0 87c1 963f
000000e0: 56ad 8b40 c586 b9bf
1.9483615 -0.30658588 1.3543197 -2.2593813 3.550623 0.16580757 -0.25688162 -1.4949826
-0.07491502 -0.35735792 2.1802642 1.7628947 -1.5708039 2.5046227 -2.1015956 2.780229
0.21488278 -0.85788 3.5483649 2.7895846 3.6099186 0.80659956 0.4729168 2.4591138
-0.20267434 -5.0258026 -0.22496806 2.1993241 -0.7683611 -3.0135064 2.710801 1.7618296
-0.5229851 0.43767178 -2.1065626 -4.924165 -1.971257 -1.90245 -2.5551207 -1.0738082
-1.0138896 -1.2370661 1.7138573 4.757005 -2.4070814 0.087523416 -1.5690178 2.9486053
-2.7875903 -1.0973678 -1.0311224 -1.9474139 2.541937 2.7075658 -2.5925655 1.177781
4.364909 -1.4494253

first_layer.norm.running_var f4 [58]
00000000: 6c5a a440 8cb9 cc3e 0a8d 3a40 3be9 3a3e
00000010: 4149 1040 5270 1340 2733 0240 b846 e43e
00000020: 6433 2c40 5896 853f 80ff 4040 6e2f 9a40
00000030: 3724 3840 76cd ca3f ae3e 2a40 5bb0 5a40
00000040: 5d3e 2e3f 0a97 ab3f ca08 1640 8dff 1340
00000050: c6ca 2640 762d 953f 6796 7140 9c10 d43f
00000060: 2791 cb3f 5fc4 8c40 d301 963e 5989 e43f
00000070: 7e73 8a3f 1fc8 703f 7f40 df3f 1a4b ee3e
00000080: ee25 643f cabc 1840 e71a 0240 c730 7740
00000090: 8dc6 0240 409e a53f c745 6940 5cdc d13f
000000a0: a21f b33f 2af3 0e3f 9324 093f 9284 9d40
000000b0: c68e e83f ca7b 5240 b584 9c40 7f6d f93f
000000c0: c920 5e40 66d3 563f ef3d b440 39ec 913f
000000d0: 081d 4e3f 59d7 483f 3cdd af3e 65e4 e03e
000000e0: 6032 8640 aee5 3940
5.136038 0.3998531 2.9148583 0.18253033 2.254471 2.3037305 2.034372 0.44585204
2.6906366 1.0436506 3.0155945 4.8182898 2.8772104 1.5843952 2.6600757 3.417014
0.6806391 1.3405468 2.3442864 2.3124726 2.6061263 1.1654499 3.7748048 1.6567569
1.5903672 4.398971 0.29298267 1.7854415 1.0816495 0.9405536 1.7441558 0.46541673
0.89120376 2.3865228 2.032892 3.8623521 2.0433686 1.2938919 3.6448839 1.6395373
1.3994029 0.5583979 0.5357143 4.922433 1.8168571 3.2888055 4.8911996 1.948654
3.470751 0.8391632 5.6325603 1.1400214 0.8051305 0.78453594 0.34348476 0.4392425
4.1936493 2.9046435

trunk.0.expand.norm.weight f4 [174]
00000000: 570e 783f 578d 7d3f 8b07 753f 0501 803f
00000010: d665 823f 1cfc 7f3f 8774 743f 3772 763f
00000020: 4a2a 7c3f 3843 7c3f 63bc 763f 6910 7a3f
00000030: c291 7e3f 28cf 803f 9310 7d3f 9477 7a3f
00000040: b2c0 7a3f 3ddb 7d3f fd45 813f c283 7c3f
00000050: ea25 7f3f fc99 753f d02e 7d3f cbcf 753f
00000060: dfa1 7a3f 66f4 773f 7079 773f 4346 7a3f
00000070: 2d26 7c3f 66f1 7e3f d616 7e3f 1a32 7d3f
00000080: 4504 7e3f 7c90 703f 69d5 7c3f 4f71 803f
00000090: 8c02 7f3f 9045 7e3f 256f 7c3f eef0 753f
000000a0: 2171 7f3f b104 803f a11d 7c3f 576f 703f
000000b0: 8c00 7e3f 4b3e 6f3f 264b 793f 09e0 723f
000000c0: 7f67 703f 0942 7c3f 6244 7f3f fbe2 823f
000000d0: 235e 7a3f fd26 793f 65be 763f 9ac3 7a3f
000000e0: b1ab 7c3f 345a 763f 11df 803f 2bdc 7a3f
000000f0: 1de9 7e3f 938f 7a3f d012 7a3f 0ea1 773f
00000100: 1afd 773f e227 763f 7266 753f 439f 803f
00000110: b7ed 783f cf87 7b3f 68f4 7d3f deb3 813f
00000120: 0936 7d3f 69bf 7e3f 2e9d 793f 3d62 803f
00000130: cfc0 7b3f 6568 803f 6ee2 7a3f ba9a 7e3f
00000140: a301 773f f192 793f ea05 823f 39a5 7b3f
00000150: e825 803f 44a4 7a3f fb83 7c3f ef38 813f
00000160: 15c0 803f eb7c 7a3f 62c6 803f 1127 733f
00000170: 38a2 753f 6a31 7c3f 3107 7c3f b5cf 7a3f
00000180: 6891 6f3f 99e9 7a3f cde3 723f 79e3 753f
00000190: 41c4 7c3f 10eb 7c3f 3737 7a3f 2628 763f
000001a0: 2755 7e3f 9b7d 803f 6b4d 823f bcc0 7d3f
000001b0: 6d45 733f f217 7d3f 42b9 753f c676 7b3f
000001c0: a7e2 7a3f 6b2b 7f3f fe65 713f d7d7 763f
000001d0: ec2a 733f b86e 793f 68c2 773f 9501 803f
000001e0: 84ec 7c3f b0f9 7c3f 4098 783f 98e3 7f3f
000001f0: fead 7d3f f879 7d3f 9e2e 773f 7bf4 803f
00000200: fb7e 723f 0e48 7e3f 3fca 7b3f aa79 783f
00000210: a55e 813f 243e 803f ce92 7d3f d28d 743f
00000220: aa69 7a3f 62dc 7a3f ee5a 7c3f deb3 713f
00000230: 2a80 6e3f 6de3 7a3f bd3e 7b3f 3d4b 813f
00000240: 8cfb 7c3f 5e08 803f 8897 7f3f 710f 7d3f
00000250: 1c3e 793f 2cbc 7b3f 2faf 7b3f 222a 7e3f
00000260: ac1e 793f 3751 793f ba6d 7a3f 0a56 793f
00000270: 4333 793f 5a51 803f 6287 7d3f f097 813f
00000280: 65cb 7b3f c78d 793f 872a 7c3f b18d 803f
00000290: ad59 7b3f d00f 813f 59c5 7a3f a5d5 7e3f
000002a0: 0f39 7f3f 9287 7e3f 45d6 7f3f 9ef2 7a3f
000002b0: 1330 7c3f 2125 803f
0.9689688 0.9904379 0.95714635 1.0000311 1.0187328 0.99994063 0.95490307 0.9626803
0.9850203 0.9854007 0.96381205 0.9768129 0.9944116 1.0063219 0.98853415 0.9783871
0.9795028 0.99162656 1.0099484 0.98638546 0.9966723 0.95938087 0.98899555 0.9602019
0.97903246 0.968573 0.96669674 0.9776346 0.9849575 0.99587095 0.99253595 0.98904574
0.99225265 0.93970466 0.9876314 1.0034579 0.9961326 0.99324894 0.98607093 0.96070755
0.99781996 1.0001432 0.9848271 0.9391989 0.99219584 0.93454427 0.9738029 0.948731
0.9390792 0.9853826 0.9971372 1.0225519 0.9779989 0.97325116 0.9638427 0.97954714
0.9869948 0.9623139 1.0068074 0.979922 0.9957445 0.97875327 0.97684956 0.96730125
0.9687058 0.96154606 0.95859444 1.0048603 0.97237724 0.982541 0.9920106 1.0133016
0.98910576 0.9951082 0.9750546 1.002998 0.9834108 1.0031859 0.98001754 0.99454844
0.9648687 0.9748984 1.0158055 0.98298985 1.0011568 0.979069 0.98638886 1.00955
1.0058619 0.9784686 1.0060542 0.94981486 0.9595065 0.985129 0.98448473 0.97973186
0.9358125 0.9801269 0.94878846 0.9605022 0.9873696 0.98796177 0.977405 0.9615501
0.9934868 1.0038332 1.0179876 0.99122214 0.9502781 0.9886466 0.95985806 0.9822811
0.98002094 0.99675626 0.9429625 0.96423095 0.9498737 0.9743457 0.96781015 1.0000483
0.98798394 0.9881849 0.97107315 0.99956656 0.99093616 0.99014235 0.9655551 1.007461
0.94725007 0.99328697 0.9835548 0.97060645 1.0107008 1.0018964 0.9905213 0.955289
0.9781748 0.9799253 0.9857625 0.9441508 0.9316431 0.98003274 0.98142606 1.0101086
0.9882133 1.0002553 0.99840593 0.98851687 0.97360396 0.98334 0.98314184 0.9928304
0.97312427 0.9738955 0.9782368 0.9739691 0.97343844 1.0024827 0.990347 1.0124493
0.9835723 0.9748196 0.9850239 1.0043241 0.9818371 1.008295 0.9795738 0.99544746
0.9969644 0.99425614 0.99936324 0.98026454 0.98510855 1.0011331

trunk.0.expand.norm.bias f4 [174]
00000000: 891a 73bc 7d8e 683b f0d8 ce3c 9d44 63bb
00000010: fe7a d83a 32ab a93b d190 c93c 18b9 ba3c
00000020: b16f ab3b c75d 233c 4a7b b0bc 1450 5a3c
00000030: 8350 853b 1067 523b 8b91 693b 4b08 40bc
00000040: 6df2 513c 66f3 4fba d0c7 a53b 18f1 44bc
00000050: 05b0 2cbb 4016 9e3c 6766 9b3b 1c04 c93c
00000060: 7f43 e03b 1aee 81bc 42f0 493c b8d1 ac3b
00000070: 3995 85bb 8083 dfba 7b29 353c 7a99 bf3b
00000080: 393d e9bb faa8 073d 72b0 633c d448 e1bb
00000090: 2b9e d63b c5c9 173b 4048 28bc 01ef c43c
000000a0: fd49 d8bb 8ebe 633b d24d 343c 5b5a 1c3d
000000b0: fe6d 493c d45e 293d 4fc0 32bc 63fb f73c
000000c0: ca04 0c3d 71a4 0f3c ac1b a23a e332 d6ba
000000d0: 6168 4c3c ebbb 643c 1caa a23c d979 3a3c
000000e0: 0ab4 1a3c 3996 a9bc eba8 ca3a 5c27 dd3b
000000f0: e5a5 983b 0d4a 3f3c fc6d 413c 05a5 7e3c
00000100: 7fcf 4e3c 4f66 813c 2c0a 9e3c d155 ddb9
00000110: 2cf8 a93c 659e 2c38 d617 213b 0e6e be39
00000120: 3256 33bc 436c 9a3b a367 453c 1d98 213b
00000130: b767 423c dcca 03bb 6e1c 24bc 5353 4bbb
00000140: ad19 a3bc 6ad7 49bc 437b 653a 3d1c 4e3c
00000150: cda8 e7ba f822 863c ccd1 403c c131 c3bb
00000160: b899 10bc 7214 613b 7103 a2bb 4c25 e03c
00000170: 852a c53c acf3 15bc 2198 203c 29b6 ad3b
00000180: 69d2 223d ffbf febb 288d e33c 247d c93c
00000190: ae11 303c a28c e63b c89e 3e3c 654f c43c
000001a0: cbfd 173c 6b44 9cbb 4704 f4bb d9a8 f33b
000001b0: 2590 dbbc b803 273b 7b6b b23c ea0c 453c
000001c0: 0074 273c 3630 ba3b 7f75 e63c 8cdd ba3c
000001d0: fd3a be3c 8e21 8e3c e90a 9f3c f842 f23a
000001e0: 787b fb3b ce34 a63b f6cc 7c3c 4072 9c3b
000001f0: 0810 f23b 5130 2c3c f03e 843c 84cb adbb
00000200: fbd9 fe3c f657 9138 3d78 8a3c 23bb b03c
00000210: 9ea9 ca3b 3c88 463a 42aa 8dba 5432 ec3c
00000220: d8f2 0d3c 63a8 4d3c 23c7 f23a d068 103d
00000230: 596e 253d 3e3a 45bc 9235 873b 436b 13bb
00000240: 7b54 343c adc9 09bc 6692 17bb 9b2f 093c
00000250: a550 693c 40ea 293c 1034 0dbc 6132 603b
00000260: 8c51 a6bc f94e c4bc b711 83bc 2115 963c
00000270: c74e 543c a725 b83b 82bf e1ba ce87 94b9
00000280: 40e2 73bc e71f 95bc 82ba eb3b 9f38 e138
00000290: c5e7 543b 138c d23b b855 0d3c cac7 193a
000002a0: 6a61 b23b 1f18 ebbb f6c5 8538 b100 2b39
000002b0: 81a7 acbb 1ea6 47b9
-0.014837869 0.003548532 0.025249928 -0.0034678348 0.0016516147 0.005177879 0.024605187 0.022793338
0.0052318205 0.009971089 -0.021543164 0.013324756 0.0040684356 0.0032104887 0.003563973 -0.011720727
0.0128141465 -0.00079326925 0.00505922 -0.012020372 -0.0026350033 0.019297719 0.004742432 0.024538092
0.0068439837 -0.015860606 0.012325348 0.005274024 -0.0040766266 -0.001705274 0.011057253 0.0058471533
-0.007117894 0.033120133 0.013897048 -0.006875137 0.006549617 0.0023161035 -0.010271132 0.024039747
-0.006600617 0.003475103 0.011004882 0.038172107 0.012294291 0.0413502 -0.010910108 0.030271238
0.034184255 0.008767233 0.0012367866 -0.001634207 0.012476058 0.013960819 0.019856505 0.01138159
0.009442339 -0.020701515 0.0015461718 0.006749077 0.004658448 0.01167537 0.0118060075 0.015542273
0.012622713 0.015795855 0.01929196 -0.00042216343 0.02074822 4.1155512e-05 0.0024580858 0.0003632162
-0.0109458435 0.004712613 0.012048635 0.0024657317 0.011865548 -0.0020109927 -0.010016544 -0.0031025007
-0.019909704 -0.012319425 0.0008754024 0.012579975 -0.0017674208 0.016374096 0.0117687695 -0.005956859
-0.008825712 0.0034344462 -0.004944258 0.027361535 0.024068126 -0.009152334 0.009801895 0.005301256
0.039751444 -0.0077743526 0.02777727 0.024595805 0.010746403 0.0070358077 0.011634536 0.02396364
0.009276818 -0.0047688982 -0.007446799 0.0074358997 -0.026802132 0.0025484394 0.021779766 0.012027005
0.010220528 0.0056820167 0.028132198 0.02281072 0.023221487 0.017349984 0.019414382 0.0018483093
0.0076746307 0.005072213 0.015429726 0.004774362 0.007387165 0.010509566 0.016143292 -0.005303802
0.0311098 6.930523e-05 0.016903037 0.021573609 0.0061847707 0.0007573401 -0.0010808187 0.028832592
0.0086638555 0.012552354 0.0018522482 0.035256207 0.04038844 -0.012037812 0.004126259 -0.0022494353
0.01100647 -0.0084099 -0.0023128032 0.008373166 0.014240419 0.010370791 -0.00861837 0.0034209716
-0.020302556 -0.023963438 -0.015999658 0.018320622 0.012958235 0.005619723 -0.0017223211 -0.00028329942
-0.014885485 -0.018203689 0.0071938643 0.000107393826 0.0032486778 0.0064253896 0.008626394 0.00058662577
0.0054437416 -0.0071745063 6.378807e-05 0.00016308088 -0.0052689915 -0.00019040002

trunk.0.expand.norm.running_mean f4 [174]
00000000: 0545 3e3c 62dd 2c3a 8470 00bc 7c0a b53b
00000010: a766 debb 26ce cebb fdce 35bc b94c 55bb
00000020: c877 60bb 0a0e 25bd b875 bb3c fa39 003c
00000030: 2657 b5bc e66f 233d 1fd6 cfbb fd73 b63b
00000040: 3269 bfba 72ae b7bb 9b47 6fb8 b2ac f0bc
00000050: 27cd adbb 56eb 71bc 6e0e 183d cdfc b53c
00000060: a069 673c 0973 a0bc b8f0 b738 9636 0fbd
00000070: 7574 0f3c 4196 053d f919 2dbc 3cc3 8c3c
00000080: 16ec c2bc a436 33bc cc02 bb3b e947 d039
00000090: 6b19 bcba dfc7 103d 8b76 133c 6657 14bd
000000a0: b411 0b3c f69c 443c 4071 7e3c 8226 d23c
000000b0: c786 2439 3207 41bb 05c3 2abc fde9 b9bc
000000c0: 43e3 813b 4e2f 903c 9355 0cbc 3e4c 86bb
000000d0: 0d2f a13c 5d11 873c 8448 0dba 19a8 f83c
000000e0: b49f f1bb 19cf adbb 4c1a e33b 4dca 4cbc
000000f0: 200c 03bc 8811 c33b 5c1a 7ebc 5aaf 0fbc
00000100: a805 943c b4f3 6f3b d1c8 98bc 58b8 aabb
00000110: c2df 53bb 7072 90bc e28c 70bb 4fa6 6dbb
00000120: 2dc0 ebb9 304e 543c be07 b73b c0d2 c63c
00000130: 8bb4 83bb a8b6 afbc bbd0 993c 07ab 42bc
00000140: 0869 713a 9de5 28bc f0e4 853b 2c36 dfbc
00000150: d9a6 33ba 5833 5cbb 0017 ab3b 6f1e 31bc
00000160: 6d65 683c 35d1 5dbc 95fc 01bb 881f c7bc
00000170: 1c9c 723b 3212 0a3c bf8e 893c 94dd c93b
00000180: d54d 13bb 2f98 bf3b d80e c6b8 c646 8d3c
00000190: 9d11 a83c 67c4 a33b baa8 593b 33e8 c13b
000001a0: fc51 26bc 27ab 1c3b a933 62bc 8c95 4cbc
000001b0: eb84 1dbc b69c c2bb bd60 2c3c 85ea 5dbc
000001c0: f4ee 80bc 33d0 a43c 76c7 2bbc 989c d33b
000001d0: 201a d73b d193 89bc 8ea1 8fbb 33cc a13c
000001e0: 843e 08bc 1cac e7bb 7de0 d23c 7e1e a53b
000001f0: a8d8 0ebb 82ca e53b b41f 073c e282 22bc
00000200: 783b a23c 575b 163d 1afa ee3c f909 0fbd
00000210: 3e9b 71bb be2c cf3c 742f 663c bcd2 3b3a
00000220: 2386 c03b 0697 0cbc bc10 2f3c 972c c83b
00000230: 5ef7 ce3c 8f3a 33bc 0928 12bd 1be5 e13a
00000240: 8400 293c 7b21 353c 7e43 ccbc 341c 263c
00000250: 88e5 c3bb cc44 3bbb 7713 ffbc 21ce f3bc
00000260: 819e 99bb 9818 1c3c bcd6 9bbb 40a6 dfb7
00000270: b5a0 913c db58 9f3c c0d8 2abc 1435 54bc
00000280: 5afa b3bb 46f3 f8bc 2095 01bd 14bf 16bb
00000290: 38b0 e4bc 0695 203d 4e39 5a3c b472 cfba
000002a0: 0887 db3c b166 e63c a162 5bbc 18cb 9c3c
000002b0: 1f65 4dbd e38d e9bc
0.011613135 0.0006594268 -0.007839326 0.0055249315 -0.0067871395 -0.006311196 -0.011096713 -0.003254695
-0.0034251083 -0.04029659 0.022883281 0.007826323 -0.022136282 0.039901637 -0.006342664 0.005568026
-0.0014603494 -0.0056055123 -5.704873e-05 -0.029379223 -0.005303997 -0.014765581 0.037123136 0.022215271
0.014124304 -0.019586103 8.770957e-05 -0.034964167 0.008755793 0.032613996 -0.010565274 0.017182939
-0.023794215 -0.01093832 0.0057071205 0.0003972643 -0.0014350837 0.035346862 0.009000431 -0.036216162
0.0084881075 0.012000313 0.015529931 0.025653128 0.00015690467 -0.0029453752 -0.010422473 -0.022694582
0.0039638593 0.017600682 -0.008565324 -0.0040984442 0.019675756 0.016487772 -0.0005389529 0.030353593
-0.0073737744 -0.005304229 0.006930625 -0.012499404 -0.007998496 0.0059530176 -0.015509214 -0.008769834
0.018069103 0.0036613764 -0.018650444 -0.005209964 -0.0032329415 -0.017632693 -0.0036705066 -0.0036262458
-0.00044965875 0.0129580945 0.0055856397 0.024270415 -0.004019325 -0.021449402 0.018776288 -0.011881596
0.0009209071 -0.01030865 0.0040861294 -0.02724751 -0.00068531703 -0.003359994 0.0052212477 -0.010810479
0.014184338 -0.013538648 -0.0019834389 -0.024307027 0.0037019318 0.00842719 0.0167917 0.0061604474
-0.0022476811 0.005846999 -9.4441406e-05 0.017245661 0.020516211 0.004997778 0.003321214 0.005917573
-0.010151383 0.0023905726 -0.013806262 -0.012486827 -0.00961421 -0.0059390916 0.010521111 -0.013544683
-0.015738942 0.020118808 -0.010484567 0.0064578764 0.0065643936 -0.016794117 -0.0043832725 0.01975069
-0.008315686 -0.0070700776 0.02574181 0.0050390353 -0.0021796618 0.007012666 0.008247305 -0.0099189
0.019803748 0.036708202 0.029171992 -0.03492162 -0.0036866213 0.02528989 0.0140494 0.0007164886
0.0058753653 -0.008580929 0.010685142 0.006108831 0.025264438 -0.010939254 -0.03568271 0.0017234416
0.010315064 0.011055346 -0.024934527 0.01013856 -0.00597829 -0.0028574942 -0.031137211 -0.029761376
-0.0046880846 0.009527348 -0.004755823 -2.6661088e-05 0.017776826 0.01945155 -0.010427654 -0.012952108
-0.0054924907 -0.03038944 -0.031636357 -0.0023002075 -0.027916059 0.03920462 0.013319327 -0.0015827031
0.026797786 0.028125139 -0.013390214 0.019139811 -0.050145265 -0.02851004

trunk.0.expand.norm.running_var f4 [174]
00000000: 26b4 343e 8909 193e 10bf 6e3e d7f2 d83e
00000010: c58c c73e f4e2 933f 6512 353e 136e 073f
00000020: 391d 563f 071d a03d e1d2 8d3e a444 7b3e
00000030: e126 ac3e 0c92 4f3e 7189 7d3f b496 293e
00000040: e60a 363e 275c 533e 9c08 0e40 da65 383e
00000050: 0c9b f13e f4e7 983e 0676 063f a039 493e
00000060: 018c c63e 600c 933e 9912 c33d 3e74 3c3e
00000070: 826a 083f 3e6e 123e e2b7 173e 89ef f63e
00000080: 09ad 783f 791b b73d ee26 083f 2698 783e
00000090: 0648 da3d da42 613e 0f00 5f3e 9c6b c43e
000000a0: 26de a53d 106b 5e3f a061 833d 1ad1 9b3e
000000b0: 40dc 443e 398f 5f3f 17c3 8d3e f6c6 363f
000000c0: fe89 c23f 6700 f43e bbe8 323f 68c1 153e
000000d0: 51d8 1a3f 99cc 143e a7ad f53e 2fcb 113f
000000e0: 1586 1c3f 6f20 703e ae36 163f 5321 223e
000000f0: c614 cd3d 0e3c 6e3e 1ac1 723e 0221 193f
00000100: 933b d83e d9b6 1d3f 2be2 9f3d b1f7 5e3e
00000110: c124 363f f80b 213f 1a92 b43e 8abf be3e
00000120: 3ded 0d3e ba12 a03f 3f0b 363f a9dc d03e
00000130: fd17 663e 311c 933e fa00 d13d b1c6 913d
00000140: 2073 dd3d f33e 273f a27c 723d 4cba 983e
00000150: f77b 913e 70c2 803e f3f2 183e 6a72 cf3e
00000160: c901 9f3d 99bb b73e f5c6 a13e 01ba ce3e
00000170: fdf0 b13e 6726 013e 9155 043e 4d89 c73d
00000180: 20ab 283e 641d 8a3e 2798 0a3f c431 bd3f
00000190: aacb 003e 9aff ac3e 2e2f cb3e 8933 e73e
000001a0: 03dc f63e 349f a43e ca23 b23d 613b 623e
000001b0: da61 f73d 25d0 083e cda9 8e3f 9583 2e3f
000001c0: f63c 773f 3702 473e ad69 e33d bd0a 883e
000001d0: 7f85 1d3f 8bdc 133f b7de 6e3e cb76 b23e
000001e0: a772 913e b880 3c3e b87d df3e bbf5 173e
000001f0: 7e4b 373f 1ce9 c73e 2dd7 593e 57f4 023f
00000200: 54a6 c73d 006d ca3e 8cb2 273e b676 503e
00000210: a8ed ae3d cffa c93e 1133 8d3d 9224 533e
00000220: baca 083e c713 713e 35c4 193e 0221 f03d
00000230: 1344 053f 8faa 793e 1c2c a43e 945e 483f
00000240: 591e 0c3e 4cf2 3f3e a52f a03d 81cb 683e
00000250: 9fd6 033e 9b38 cc3e b958 343f beae 8f3d
00000260: 94f3 663d 2048 713d 3454 163f 7345 2b3e
00000270: fd10 bc3d 9c88 023e 4be1 9e3f 1785 663e
00000280: 1ee5 513e 23a4 d33d db46 a33e a6b8 433e
00000290: ffc2 1a3e 6bc9 e13e 77d6 023f 8402 cb3e
000002a0: b24d aa3e 241e 393f 1187 b33e 0379 ce3d
000002b0: bb8f c63e 9234 4b3d
0.17646846 0.14945044 0.23315072 0.42372772 0.38974586 1.1553636 0.17682798 0.52902335
0.8363834 0.078180365 0.2769995 0.24537903 0.33623412 0.20270556 0.99037844 0.16561395
0.17777595 0.20640622 2.2192755 0.18007603 0.47188604 0.29864466 0.5252384 0.19650888
0.3877869 0.2872038 0.095250316 0.18403718 0.5328752 0.14299867 0.1481624 0.48229626
0.9713903 0.08940787 0.531844 0.2427679 0.10658269 0.21998158 0.21777366 0.3836335
0.08099012 0.86882114 0.06415105 0.3043297 0.19224644 0.87327915 0.27687904 0.7139734
1.5198362 0.47656557 0.6988637 0.1462456 0.6048632 0.14531173 0.4798405 0.5695066
0.6114209 0.23449872 0.58677185 0.15833025 0.10013728 0.23265097 0.23706475 0.5981599
0.42232952 0.6160713 0.0780681 0.21774174 0.7114983 0.6290889 0.35267717 0.37255508
0.1386003 1.2505715 0.7111091 0.4079335 0.22470088 0.28732446 0.102052644 0.071179755
0.10812974 0.6533043 0.05920089 0.29829633 0.2841489 0.25148344 0.14936428 0.40516979
0.07764012 0.35885313 0.31597105 0.40376285 0.34754172 0.12612306 0.12923266 0.09742985
0.16471529 0.26975548 0.54138416 1.4780812 0.12577692 0.3378876 0.39684433 0.45156506
0.4821473 0.32152712 0.086982325 0.22092964 0.120792106 0.13360651 1.1145569 0.6816953
0.96577394 0.19434439 0.111041404 0.26570693 0.61531824 0.57758397 0.23327146 0.34856257
0.28407785 0.18408477 0.43650603 0.14839832 0.71599567 0.39045036 0.2127349 0.51154083
0.097485214 0.39536285 0.16376704 0.20357785 0.08541423 0.39449164 0.06894506 0.20619419
0.13358584 0.235427 0.15016253 0.11725046 0.52057 0.24381469 0.32064903 0.78269315
0.13683452 0.18744773 0.078215875 0.2273388 0.1287484 0.39886937 0.7044788 0.07015751
0.056384638 0.058906674 0.58722234 0.16725712 0.09182928 0.12747425 1.2412504 0.22511707
0.20497558 0.10334041 0.31889996 0.19113407 0.15113448 0.44098982 0.511085 0.39650357
0.33262402 0.72311616 0.35063985 0.10081675 0.38781533 0.04961068

trunk.0.depthwise.norm.weight f4 [174]
00000000: 93bc 7c3f f09c 7d3f f924 7f3f 50e1 7c3f
00000010: d442 803f 8b19 803f f95b 7b3f 9f9c 7a3f
00000020: 33bb 803f 2fde 803f 0699 7e3f e218 7c3f
00000030: 5b07 7e3f 7851 7e3f 19ab 7d3f da47 7a3f
00000040: 86c2 823f 5902 813f 210f 803f 8d47 7d3f
00000050: 1bd6 7b3f afff 7b3f cb31 803f 22da 813f
00000060: cdb9 7b3f ffb4 7b3f 8cc6 7f3f 3e2c 7d3f
00000070: c146 7e3f 65e6 7a3f 33ef 813f 3732 783f
00000080: ab15 803f 1d7b 7c3f 449f 803f 7b64 783f
00000090: b575 803f acff 7b3f c80e 7d3f 4a92 803f
000000a0: 6c26 7b3f 9e86 7d3f 9673 793f 2d8f 803f
000000b0: 8bf3 7d3f 8ecb 7c3f 2007 7a3f 22cd 7a3f
000000c0: 1a44 7d3f c419 7e3f 01a6 7d3f 3a0e 803f
000000d0: 1db0 7d3f a510 7f3f 45c5 7d3f 952b 763f
000000e0: c213 7c3f ee46 833f 0322 7c3f e2ca 7c3f
000000f0: 8a8d 813f 108c 7c3f f7cc 7f3f c3ef 7d3f
00000100: e22f 803f 62c9 7f3f 0fd4 863f 982e 793f
00000110: 30fd 7e3f 75b0 7f3f 0b51 7b3f 62d8 7b3f
00000120: 01a3 7f3f be85 7b3f 8ab8 7a3f 408d 7e3f
00000130: ccbc 803f 3123 793f cbd3 7c3f 3063 803f
00000140: 06e1 7e3f 0215 793f d693 7d3f b486 7b3f
00000150: e640 7e3f 4ded 7f3f a259 803f 99b0 803f
00000160: dad5 7f3f 55f7 7d3f 5e2b 7c3f fc52 7d3f
00000170: cd27 7d3f e497 7b3f d86b 7c3f 7f98 823f
00000180: 48c1 7d3f c2e7 793f a56b 7e3f d000 7b3f
00000190: 7096 803f 7b8a 7e3f f64b 7b3f 29fc 7d3f
000001a0: ef28 7c3f ae17 803f d47f 813f 3aae 783f
000001b0: 1c57 7c3f d36e 813f 7742 803f ab86 7e3f
000001c0: a207 823f 8b84 7c3f 66af 813f 8c2d 803f
000001d0: ef6f 803f 24b4 803f 6497 7f3f a4f3 7f3f
000001e0: 7d55 7b3f 037a 7e3f 6bbc 7c3f ba84 7d3f
000001f0: 1df0 803f d146 7a3f edb2 803f 35ab 7a3f
00000200: 7f6f 7f3f 9d32 7f3f 2b8e 803f cb67 803f
00000210: fb22 813f d1b9 7d3f 6490 7e3f ba0c 813f
00000220: ed57 7d3f 5503 7d3f c85f 7f3f efac 7d3f
00000230: dd10 803f 414f 7e3f cd61 7f3f 5929 803f
00000240: f00c 813f 4e8e 7f3f f92b 803f 56d7 803f
00000250: 4e9b 7f3f d583 803f 52a4 7f3f 694c 803f
00000260: 7062 843f 6998 853f 3ee6 7e3f 206e 813f
00000270: 2402 823f f0fb 7e3f ae66 7b3f ee45 823f
00000280: 4c46 7a3f 486f 803f 55ef 813f 798d 7a3f
00000290: 7f5d 803f 24ac 7c3f 1ef3 7c3f b8ac 7d3f
000002a0: ed0c 7f3f 4bba 7d3f 4bff 783f d114 7d3f
000002b0: 90d7 7a3f bf01 823f
0.9872524 0.9906759 0.9966579 0.987813 1.0020394 1.0007795 0.98187214 0.97895235
1.0057129 1.0067805 0.99452245 0.9847547 0.99229974 0.9934306 0.990892 0.97765887
1.0215614 1.0078841 1.0004617 0.989373 0.98373574 0.9843702 1.0015196 1.0144694
0.98330384 0.98323053 0.99912333 0.98895633 0.9932671 0.98007804 1.0151123 0.9695162
1.0006613 0.98625356 1.0048604 0.9702832 1.0035921 0.98437 0.9885068 1.0044644
0.981055 0.99033535 0.97441995 1.0043694 0.9919974 0.987481 0.9766712 0.9796926
0.9893204 0.99258065 0.99081427 1.0004342 0.9909685 0.9963477 0.99129134 0.9616025
0.9846765 1.0256021 0.984894 0.98747075 1.0121319 0.9865122 0.99922127 0.9919397
1.0014613 0.9991666 1.0533465 0.9733672 0.99605083 0.9987863 0.98170537 0.9837705
0.998581 0.9825095 0.97937834 0.9943428 1.0057616 0.9731932 0.9876067 1.003027
0.9956211 0.9729768 0.99053705 0.98252416 0.9931778 0.9997147 1.0027354 1.0053893
0.99935687 0.99205524 0.98503673 0.9895475 0.98888856 0.9827864 0.98602057 1.0202788
0.9912305 0.9761926 0.99383 0.98048115 1.004591 0.99430054 0.9816278 0.9921289
0.9849996 1.0007226 1.0117135 0.9714085 0.9857042 1.0111946 1.0020283 0.99424237
1.0158579 0.98639745 1.0131652 1.00139 1.003416 1.0054975 0.9984038 0.9998114
0.9817732 0.99404925 0.98725003 0.9903065 1.0073277 0.9776431 1.0054604 0.9791749
0.99779505 0.99686605 1.0043386 1.0031675 1.00888 0.9911166 0.9943907 1.0082009
0.9896229 0.9883321 0.99755526 0.99092 1.0005146 0.9933968 0.9975861 1.0012618
1.0082073 0.99826515 1.0013419 1.0065715 0.9984635 1.0040232 0.9986011 1.0023319
1.0342541 1.0437137 0.9957007 1.0111732 1.0156903 0.99603176 0.9820355 1.0177591
0.97763515 1.003396 1.0151163 0.9787212 1.0028533 0.98700166 0.9880847 0.9909167
0.996291 0.99112386 0.97264546 0.9885989 0.9798517 1.0156783

trunk.0.depthwise.norm.bias f4 [174]
00000000: 9436 833c acb9 ce3c f6a9 e23c 05e7 823c
00000010: 69ee 9a3c cdeb 653b b027 10ba a8d6 07bc
00000020: c3ff 5a3c 30f6 80bc a0b9 efbc fa05 2339
00000030: 6fe0 9fbc ee9f 6abb eba5 4ebb 0681 61bc
00000040: cb0e 833c 468b a4bc 4054 023c efee 0fbb
00000050: 66b0 23bc 70f0 08bc dc79 cfbb 4050 033d
00000060: 9228 ed3a a4ed 1dbc 9852 d3bb 4c27 d43b
00000070: e062 04bd 3122 9bbc 312d df3c 76d4 c2bc
00000080: 17f6 813c 8782 6e3c 2204 703c d566 49bc
00000090: ecc1 c13b 67c1 da3b 2a4d 83bc 6b3a 30bc
000000a0: e4b9 ffbb d699 c3bb 4954 84bc 3118 323c
000000b0: d961 9dbb ef6a 0e3d a12a a3bc 85d3 023c
000000c0: d4b7 043c d1ce 2d3c bc57 29bd 6f8e bb3c
000000d0: 0e98 03bc 64f2 833c 05f8 933b aede abbc
000000e0: f4f7 80bb 3cee 143d d73e 13bd 89ae 083c
000000f0: c5e8 9b3c 54ef 893c aebf 083c 7821 253b
00000100: 5a26 c63c 42c0 e3bc 56a6 153d 15dc 42bc
00000110: 5b12 913c e16d 743b 8b77 653c 43d2 e53b
00000120: 124e 06bc 752b bebc 0585 5fbb 9673 923b
00000130: a236 7cbc 94a4 a4bc 4f9f d5bb d442 453b
00000140: 82cd d2bb ef4a 67bc 9f32 84b6 1f0f 633b
00000150: 04f1 25bd 1d88 643c 2bc2 553c fb86 7abc
00000160: 4741 c5ba 6c77 033c 9033 f9ba e971 803b
00000170: 35e8 eb3b 6ed6 e6ba 0696 5ebc 8a61 503c
00000180: 2be2 03bc 352a 86bb 92ca 633c 4ddd f3bb
00000190: 59e4 e0ba 6056 083c dd22 45bd 7eba 533c
000001a0: 6845 2abc fbd9 b93b 7209 093c d374 eeba
000001b0: 9a3a 01bd 59b4 3abc f31b 6b3a 75b3 21bc
000001c0: 9244 013d 1288 053c f48c d83b 490f 2139
000001d0: 4e20 0b3c 87a3 11bc fe6d 37ba 3644 473b
000001e0: f640 07bd 40d1 463c 4cf3 a13b 01d6 bfbc
000001f0: fbb1 c73c ac77 55bc 34b8 773c 7fd3 3a3b
00000200: c79f 6c3c 6268 d13b 070b e0bb 8ee5 8a3c
00000210: 7850 503c f597 11bb bfd2 12bd b4d7 193d
00000220: 39d6 703b fbb8 b0bc 075c 31ba c891 803b
00000230: 7b26 623c 418e 873b 2628 1bbd 8e25 7d3c
00000240: 0089 fa3c 1792 8d3c e978 4c3c 0459 af3c
00000250: 99a6 503c 5c6b a33c f723 1abb 0027 9d3c
00000260: fb57 c13c 3ca8 f6bb 3455 d73a 14d3 683c
00000270: f16b 713c 6112 db3c 518a 873c 3356 963c
00000280: 2938 d7bc 6379 91bc 89fd 9ebc 597b fb3b
00000290: 98c3 203b ffb6 89bc 0f18 9abc 4be4 85bc
000002a0: 092a f3bb bcfe 9ebb b293 1ebc de7d 58bc
000002b0: 0fd9 78bc c992 8e3c
0.016017236 0.02523502 0.027668934 0.0159793 0.018912511 0.0035083175 -0.0005499078 -0.008290924
0.013366642 -0.015742391 -0.029263318 0.00015547118 -0.019516198 -0.0035800892 -0.0031532 -0.013763672
0.015998265 -0.020085942 0.007954657 -0.0021962484 -0.009990787 -0.008358106 -0.0063316654 0.032058954
0.0018093756 -0.0096391775 -0.006449055 0.006474411 -0.032320857 -0.018937202 0.027243229 -0.02378295
0.015864415 0.014557487 0.014649423 -0.0122925835 0.00591301 0.0066758874 -0.016028006 -0.010756115
-0.0078041423 -0.0059692664 -0.016153472 0.0108700255 -0.004802924 0.03476995 -0.019917788 0.0079850005
0.008100469 0.010608391 -0.041343436 0.022895066 -0.008031858 0.016106792 0.00451565 -0.020980205
-0.0039358083 0.03636001 -0.0359486 0.008342394 0.019031892 0.016837753 0.008346481 0.002519695
0.02418821 -0.027801637 0.036535583 -0.011893292 0.017708948 0.0037296938 0.014005552 0.0070135905
-0.008197324 -0.023214081 -0.0034106385 0.0044693453 -0.015393885 -0.020098008 -0.006519235 0.0030099647
-0.00643319 -0.014116987 -3.9397996e-06 0.0034646464 -0.040513054 0.013948468 0.0130467815 -0.015290971
-0.0015049361 0.008024078 -0.0019012559 0.003919829 0.007199312 -0.0017611512 -0.013585573 0.012718568
-0.008049528 -0.004094387 0.013903277 -0.0074421526 -0.0017157897 0.008321375 -0.04812895 0.012922881
-0.010392524 0.0056717372 0.008364068 -0.0018192775 -0.031550027 -0.011395537 0.00089687033 -0.009869446
0.031559534 0.0081501175 0.0066086 0.0001535985 0.008491589 -0.008889086 -0.0006997286 0.0030405647
-0.033020936 0.01213485 0.0049423333 -0.023417475 0.02437686 -0.01302902 0.015119601 0.002850741
0.014442391 0.006390617 -0.006837252 0.016955163 0.012714498 -0.0022215818 -0.035845514 0.037559226
0.003674878 -0.02157258 -0.00067657273 0.0039236285 0.01380312 0.004136831 -0.037880085 0.015450848
0.030582905 0.017281575 0.012479999 0.02140475 0.0127350325 0.019948654 -0.0023519972 0.019183636
0.023601523 -0.0075273793 0.0016428591 0.014210481 0.014735208 0.026742162 0.016545447 0.01835165
-0.026271896 -0.017758077 -0.019408004 0.0076746163 0.0024530645 -0.016810892 -0.0188103 -0.01634421
-0.0074207825 -0.004852144 -0.009678768 -0.013213603 -0.01518847 0.017403977

trunk.0.depthwise.norm.running_mean f4 [174]
00000000: 8c27 51be a334 0fbe 5713 dbbd 77b1 0ebe
00000010: 6ab2 14be 88f5 22be b8f1 ffbd 4883 e3bd
00000020: c66b d2bd 035c b7bd ef7b dcbc e857 3bbe
00000030: 888c 03be 5b90 a9bd 27a8 acbd 9b46 ebbd
00000040: 1af6 62be f884 ad3b 23cf febd 5982 8abe
00000050: 1ce3 eebd 9f40 b6bc d4d0 1cbe f692 12be
00000060: 79d9 20bd e8b5 afbd 800f 863b 77d3 d7bd
00000070: a47d f0bd ec20 f9bd 52b0 9bbe 1e9a 41bd
00000080: fe49 25be 607a 7f3d cd7f 22be 89b4 35be
00000090: 390a b3be a31f 90be 537b e6bd 1cb5 14be
000000a0: 3f3d 63be e7fc a8bd b63f b4bd a38e 6bbb
000000b0: d2a4 6dbc 2d76 87bd 3539 28be 48c3 3abd
000000c0: f111 37bd 5898 1ebe fa43 febd 4aa6 90be
000000d0: 2ee3 82bd 2bfc 82be 8a8a 213d 147f c0bd
000000e0: a574 06be e079 a0be b11e a5bd d204 4cbe
000000f0: e428 a43d 3f45 7bbd d9be d2bd fd37 d9bd
00000100: 57ae f0bd db06 a1bd 6fc5 8b3d e0c9 37be
00000110: 7a45 01be 1785 79bd ff6d 1ebe fec0 08be
00000120: e758 8dbd 1d1c efbd e94e f3bd 064c abbe
00000130: 588d 933c 68fb f2bd 23e6 9bbe ab94 0c3d
00000140: 8e7d 4cbe 04ea 21be 4bf5 e3bd 4df6 04be
00000150: 00b5 97bc e6b9 afbd 73ef b8be f786 b6bd
00000160: 6b9e ab3d f0cb e4bd b77b 88be ac9c 72bd
00000170: 2d31 05be 7629 d6bd 7b20 75bd 175d e4bd
00000180: 6c72 64bc 161e c3bc 66bd 26be 933d cebd
00000190: 98cc b6bc 9d73 7fbe d2ba b3bd 77e8 81bd
000001a0: 8369 44bd 8171 ccbd fc03 dfbd 3d70 8dbd
000001b0: 4111 8cbd f7c9 09be 3921 36be 4ca9 18be
000001c0: 5623 30be 300d 49be 82b1 b3bb 4562 23be
000001d0: 94be 8dbd ee12 aabc d9bb 8fbd f56d 80be
000001e0: 5fd9 08be 7d09 dabd 4766 3abe d1ad a1bd
000001f0: 9df1 62be 0264 5fbe 8f56 e6bd c5f4 19be
00000200: 34c2 8b3d 733b 2a3d 3b82 e1bc 208c dcbd
00000210: ee21 b43d acb4 0abe c609 8abd caf2 e4bd
00000220: a0ba 2bbe 4d30 f4bc d14e 19be 03c5 33bd
00000230: 3a1c 26be 2629 8bbd 1077 73bd 3ed3 b4bd
00000240: ea89 d53d 01a0 81bd fac8 24be 1b42 60be
00000250: d787 fdbd 138a 7a3c 894b 46be 6ae7 1bbc
00000260: 06fe 853d 44db 453d bb53 a1bd c4c4 75be
00000270: 2c04 f6bc fd69 36be e511 e4bd 0e5a 7cbe
00000280: 80df 25be 6691 11be d857 f9bd df80 3fbe
00000290: b471 22be 13ea b0bd 50f3 d6bd fdd2 c6bd
000002a0: 5df4 80be 0d18 36be 1f58 1bbe 6678 59bc
000002b0: de56 aabd 87df 4c3d
-0.20425242 -0.13984923 -0.10697048 -0.13934885 -0.14521185 -0.15913975 -0.12497276 -0.11109024
-0.102744624 -0.08953097 -0.026914565 -0.18295252 -0.12846577 -0.08279487 -0.0843051 -0.11488076
-0.22164193 0.005295392 -0.12441852 -0.27052572 -0.116644114 -0.02224761 -0.15314037 -0.14313874
-0.039269898 -0.08579618 0.004091203 -0.105383806 -0.11742714 -0.121644825 -0.3040796 -0.04726612
-0.16141507 0.062372565 -0.15869065 -0.1774465 -0.34968737 -0.28149137 -0.11253991 -0.14522213
-0.22191332 -0.08251362 -0.088012144 -0.0035943172 -0.014504628 -0.06614337 -0.16428073 -0.04559639
-0.044694845 -0.15487802 -0.12415309 -0.28251868 -0.06390987 -0.25583014 0.03943876 -0.09399238
-0.13130434 -0.31342983 -0.080624945 -0.19923714 0.08015612 -0.061345335 -0.102903076 -0.10606382
-0.11752003 -0.07862636 0.06824767 -0.17948103 -0.1262416 -0.06091794 -0.15471648 -0.1335487
-0.069017224 -0.11675284 -0.11880285 -0.3345644 0.018011734 -0.11864358 -0.30449018 0.03432147
-0.1996977 -0.15811926 -0.1113077 -0.12984581 -0.018518925 -0.08580379 -0.36120185 -0.08912461
0.08379825 -0.111717105 -0.26656887 -0.059231445 -0.1300704 -0.10457127 -0.05984543 -0.11150568
-0.013943296 -0.023818057 -0.16283187 -0.10070338 -0.022314355 -0.24946447 -0.087758675 -0.06343167
-0.047952186 -0.09982587 -0.10889432 -0.069061734 -0.068392284 -0.1345595 -0.17786111 -0.14908332
-0.1720098 -0.19633937 -0.005483807 -0.15955456 -0.069211155 -0.02076098 -0.07018251 -0.2508389
-0.1336417 -0.10646341 -0.18203078 -0.07894481 -0.2216248 -0.21815494 -0.112469785 -0.15034778
0.06824151 0.0415606 -0.027527919 -0.10768914 0.08795534 -0.13545483 -0.067401454 -0.11179121
-0.1677041 -0.029808188 -0.14971472 -0.043889057 -0.16221705 -0.06794958 -0.05943972 -0.08829354
0.10426696 -0.063293464 -0.16092291 -0.21900217 -0.12379425 0.0152917085 -0.19364752 -0.009515623
0.06542592 0.04830481 -0.078772984 -0.24000841 -0.030031286 -0.17813869 -0.111362256 -0.24643728
-0.1619854 -0.14215621 -0.12174958 -0.18701504 -0.15863687 -0.08638396 -0.10495627 -0.097082116
-0.25186434 -0.17782612 -0.15170334 -0.013273334 -0.0831735 0.05001786

trunk.0.depthwise.norm.running_var f4 [174]
00000000: c92a 733e de0b 5f3e 2a31 363e 2ff7 1b3e
00000010: 67b2 983e 4cd8 6c3e 63e0 703e 1cdb 5e3e
00000020: f682 363e af7c 633e a02e 783e 4724 3d3e
00000030: 6536 433e 1d4b 493e a95f 413e 348e 5a3e
00000040: 1f3d 6b3e 6be1 233e 4809 523e a88d 223e
00000050: ca6e 273e 7776 1e3e f895 4f3e 7906 723e
00000060: 432d 433e 0956 823e 87b7 3c3e ae67 243e
00000070: 51fc 673e a59b 833e 4412 3e3e c6c0 823e
00000080: f609 163e 1414 263e 715f 3d3e ec8a 7e3e
00000090: 3b40 413e a01c 473e 6518 553e 30a1 5a3e
000000a0: 3534 663e 59ad 4e3e cb0d 4a3e f0eb 753e
000000b0: 7d8f 313e 058d 733e 0447 7d3e 74a1 343e
000000c0: 1bae 503e 5966 3b3e 88dd 503e 211f 433e
000000d0: 5d2b 4d3e a2fb 773e 9bd1 263e bbe9 3f3e
000000e0: 3562 4d3e 26bd 3e3e ef0e 4b3e da8f 623e
000000f0: 1b31 863e 4ec5 843e 396d 3b3e 6e34 893e
00000100: 62b2 693e 2a87 1d3e 8d1f 4c3e 0145 853e
00000110: 85a8 6f3e c19b 3c3e 43ed 073e acbf 383e
00000120: 2109 723e 3205 5f3e 0e15 693e 682b 1a3e
00000130: d2e5 2c3e d5f0 8c3e d0b2 483e 39c5 713e
00000140: 52ab 203e 58cb 6b3e c357 8f3e 4eea 8e3e
00000150: 8e95 8a3e 24a2 3c3e 1aec 393e b656 6e3e
00000160: 7110 693e 34a1 5e3e b25b 063e 7dce 1b3e
00000170: 4ec0 313e f88d 253e e1ab 8b3e 1b51 393e
00000180: 3f97 423e 917f 7c3e 48a3 223e c26a 693e
00000190: f049 7f3e 08ee 723e 919c 513e 2732 293e
000001a0: f3cb 223e 3c63 4f3e 98b2 313e 67d7 1f3e
000001b0: 600d 243e e348 6e3e 489f 463e cc70 5a3e
000001c0: 4b67 4f3e bbef 4a3e 8e2d 683e 6586 0e3e
000001d0: 0bac 4d3e 7ff4 233e 8178 263e 9c67 293e
000001e0: 4a8b 5f3e 69d4 7a3e 7711 613e 1510 663e
000001f0: 75f5 323e e3ec 683e 6c4e 443e 3002 463e
00000200: e9a8 453e 5007 773e ca71 623e 1133 563e
00000210: 0939 773e 6bca 3a3e 5a70 4d3e c320 673e
00000220: 1a9f 763e c6bf 733e a602 773e 25b7 543e
00000230: 7fda 513e 2d44 1a3e da84 383e d5a6 463e
00000240: f9e2 693e 5162 223e adbe 363e da74 843e
00000250: 0dff 6d3e d5fb 273e 9b10 4b3e 393a 563e
00000260: 85cc 683e b89a 713e 49c1 683e d96d 673e
00000270: ffdc 633e 9627 643e cc7a 503e 0174 7c3e
00000280: 4d38 803e c9f2 563e a54a 5b3e e96a 843e
00000290: 6cee 623e 312e 3f3e 36d9 893e 697d 403e
000002a0: e26d 283e d492 253e 6bc0 7c3e 3f4a 793e
000002b0: 1d33 553e 2139 473e
0.2374679 0.2178187 0.17792192 0.15231012 0.2982361 0.23129386 0.23523097 0.21763271
0.17823395 0.22215532 0.24236536 0.1847087 0.19063719 0.1965756 0.18884148 0.21343309
0.22972535 0.16003959 0.20511353 0.1587435 0.16350856 0.15474878 0.20272052 0.23635282
0.19060235 0.25456265 0.18429385 0.16055176 0.22654845 0.25704685 0.18561655 0.255377
0.14652237 0.16218597 0.1849344 0.24857682 0.18872158 0.19444513 0.20810087 0.2135055
0.22480853 0.20183314 0.19731824 0.24015784 0.17339893 0.23784263 0.24734122 0.17639714
0.20378916 0.18300761 0.20397007 0.19054843 0.20036073 0.24217084 0.16290896 0.18741505
0.20056994 0.18626842 0.19829915 0.22125188 0.2620934 0.25931782 0.18303384 0.26797813
0.22821954 0.15383592 0.1993391 0.26029208 0.23404129 0.1841879 0.13274102 0.18041867
0.23636295 0.21779326 0.22761938 0.1505562 0.16884544 0.2752749 0.19599462 0.2361039
0.15690354 0.23026788 0.27996644 0.27913135 0.27067226 0.18421227 0.18156472 0.23275265
0.22760178 0.21741182 0.13120916 0.15215488 0.17358515 0.16167438 0.2727957 0.18097346
0.19003008 0.24658038 0.158826 0.22794631 0.24930549 0.23723614 0.20469882 0.16523038
0.15898113 0.20252699 0.17353284 0.15609513 0.16020727 0.23269992 0.19396698 0.21332091
0.20254247 0.19818012 0.22673628 0.13918455 0.2008516 0.16011237 0.16256906 0.1654343
0.21830478 0.2449509 0.21979319 0.22467072 0.17476447 0.22746615 0.1917054 0.19336772
0.19302715 0.24123883 0.2211372 0.20917918 0.24142851 0.18241279 0.2006239 0.22571091
0.2408413 0.23803625 0.24122104 0.20772989 0.20493506 0.1506507 0.18019429 0.19399579
0.2284049 0.15857817 0.17846175 0.258704 0.23241825 0.1640466 0.19830553 0.20920648
0.22734268 0.23594177 0.22729982 0.22600497 0.22252272 0.22280726 0.20359343 0.24653627
0.25042954 0.20991053 0.21415193 0.25862816 0.22161263 0.18669964 0.2692353 0.1879784
0.16448167 0.16169292 0.24682777 0.24344729 0.2082028 0.19455387

trunk.0.se.fc1.bias f4 [40]
00000000: 1e5f 883d c400 41bd bdc6 473d 3f9e 9a3d
00000010: a274 1c3d bf3f 0fbd 62d6 52bd 31ad 28bd
00000020: ee13 a2bd 75b0 303d bae9 22bc d8c1 a53d
00000030: fade edbc e508 533d db82 a2bc c880 9f3d
00000040: cd18 21bd 9a1b 303d b0d6 efba 0781 223d
00000050: 62ab 293c 9d5b ce3c 87bc bf3c 1a13 7e3d
00000060: 4972 3c3c 3ff2 8ebd dec4 943d d6b9 8d3d
00000070: 0587 613c b2e5 323c da12 92bd 435b 5f3d
00000080: 2092 ea3b fa18 88bd 46c4 ccbc bd25 353d
00000090: 3124 90bd 0c38 913b 253e 303d de7e 62bc
0.06658767 -0.04711987 0.048773516 0.07549714 0.038197167 -0.034972902 -0.051473983 -0.041180793
-0.079139575 0.043137033 -0.00994342 0.080936134 -0.029036988 0.051522154 -0.019837787 0.07788235
-0.039330292 0.042995073 -0.0018298235 0.03967383 0.010355802 0.025190169 0.023405327 0.062029935
0.011501857 -0.069797985 0.07264112 0.06920211 0.013765101 0.010919021 -0.07132502 0.054530393
0.0071585327 -0.06645389 -0.024995934 0.044225443 -0.07038153 0.00443173 0.043028016 -0.013824193

trunk.0.se.fc2.bias f4 [174]
00000000: 554f 023d 91ec 3b3d dbd2 d5bd e988 103e
00000010: 78f6 e7bd 8f7d b1bd d2d3 e2bd 711d cabd
00000020: 4dc7 243e 6812 eabd dcbb ed3d 7447 0d3d
00000030: b5c7 09be b5e4 1dbe 910b 13be 73a7 bd3d
00000040: 5e52 e2bd 78d8 87bc 4c99 fbbd 1715 81bb
00000050: 1a69 383d e110 eebc 6579 043b db66 aa3c
00000060: f2c0 bebd bec6 85bd 152e cc3d c5a1 153e
00000070: 89f2 f3bc d52c 24be 5e29 163d e8d7 bf3d
00000080: 29c8 e2bc cae8 96bd 3b4e acbd 1a2a 0fbe
00000090: 2a33 47bc c781 ebbd 1f83 023d 0027 16be
000000a0: 7f4a debc 97c7 e2bd d3d9 463d f3fb 48bc
000000b0: 69b7 01bd 5d3a ee3c d325 bb3d 7f2b dc3d
000000c0: 8b8f fa3b 646c 72bd 618e ed3d c397 53bd
000000d0: 99a1 1ebe 30c0 3d3c d55c f7bd 2370 d43c
000000e0: d639 e8bd db0c 243e b19d 283d 5725 03bd
000000f0: 567a 353d 7a42 0c3e d4d0 183e c522 9c3d
00000100: af62 f73d a1c8 9b3d 0b1b aa3d 7308 35be
00000110: ea7c f73c 74cd ff3d 838c 5fbd 4337 c23d
00000120: adb4 c7bc ed16 42bd 16ae e43d 7deb 073c
00000130: eaa7 183e e599 39be fbfb 8abc 9be0 733d
00000140: 7ed4 0bbe c1d7 2dbd b5d8 debd 586b e1bd
00000150: 2bf1 06be bc3c 3dbb 5aa2 31bd ad70 453d
00000160: fef0 0bbd 9c79 4fbd bd9f 4ebd f504 b73c
00000170: 0438 5abd f477 2d3d bd4d fcbd ede9 923d
00000180: 6769 a03d 49ea bdbd 711d 1fbe be6b 843c
00000190: c1c4 0e3e 92f2 de3c 0792 27be c698 ffbc
000001a0: 81ec dcbd 0f09 203c cd39 a0bd ae4b a1bd
000001b0: d84a 81bd 67f8 97bd 863b 18bd d4e6 a8bb
000001c0: 3814 213e 2596 323d 2d79 b03d 7ec7 12bd
000001d0: 966c 0b3d 1ec6 d6bd fc0a ea3d 4629 dfbd
000001e0: 25a0 313d dedb 49bd b492 fb3d c3f5 dfbd
000001f0: b33b 493c 8d96 c6bd 33ce e23c f0b7 00be
00000200: b6f1 dcbb f527 18be 4aec 8f3c 509e 02bc
00000210: 8327 97bc d86b fabb b206 483c 5c4f 983d
00000220: a85f b43d ea9c 643c 7b77 cbba fe68 683c
00000230: 713e 05be 6dc2 293d 5b7f d43d ab0e cf3d
00000240: f48b edbd 1178 eabb 6d31 0dbe efef 683d
00000250: 053e 8abd 111a 133d 895b 063e c2e3 d6bd
00000260: 5f1a 273e 9377 97bc 66cb 433d e2db 993d
00000270: 34e9 fc3c ab35 f7bc 53cb 133d 7913 953d
00000280: 2700 5cbd 3107 e9bc efd9 8c3d 569f 0e3d
00000290: fc1e 3fbc 5721 d2bd e4ef 15be ecdc 97bd
000002a0: 91fa 0ebe 4327 d0bd 02cb 523c 8a93 af3d
000002b0: 0536 2bbe 16d0 b53c
0.03181394 0.045879904 -0.10440608 0.14114727 -0.11326307 -0.086665265 -0.11075558 -0.09868897
0.16091652 -0.11429292 0.11608097 0.03449197 -0.13455088 -0.15419276 -0.14359881 0.09260454
-0.110508665 -0.016582713 -0.122850984 -0.0039392817 0.045022108 -0.029060783 0.0020213958 0.020800998
-0.09314145 -0.06532048 0.09969727 0.14612491 -0.029778736 -0.16032727 0.036660545 0.09367353
-0.027683334 -0.0736862 -0.08413359 -0.13980904 -0.012158195 -0.114993624 0.031863328 -0.14663315
-0.027135132 -0.11073225 0.048547577 -0.012267101 -0.031669054 0.029080564 0.09138074 0.10750484
0.007646506 -0.0591854 0.11599422 -0.051658403 -0.15491332 0.011581466 -0.12078253 0.025932377
-0.11339156 0.16020529 0.04116601 -0.032018032 0.04430612 0.13697234 0.14923412 0.07623819
0.12079369 0.07606626 0.08305939 -0.17679004 0.03021093 0.12490359 -0.05457736 0.094831966
-0.024378145 -0.047385145 0.11166017 0.008295891 0.14907804 -0.18125112 -0.016965857 0.059540372
-0.13655278 -0.042442087 -0.10881177 -0.11006802 -0.13177936 -0.0028875312 -0.04336772 0.04820316
-0.034165375 -0.050653085 -0.050445307 0.02234123 -0.053276077 0.042350724 -0.12319515 0.07173524
0.07832604 -0.09273202 -0.15538575 0.016164657 0.13942243 0.027215276 -0.16364299 -0.031200778
-0.10787297 0.009767785 -0.078235246 -0.07875763 -0.063131034 -0.07420426 -0.03716614 -0.00515447
0.15730369 0.04360022 0.086168624 -0.03583478 0.034039102 -0.104870066 0.11427876 -0.10896544
0.043365616 -0.049281947 0.12283841 -0.10935547 0.0122823 -0.09696684 0.027686214 -0.12570167
-0.0067426814 -0.14858992 0.017568726 -0.007972315 -0.018451458 -0.0076422505 0.012208628 0.074370116
0.088073075 0.013953427 -0.0015523279 0.014185188 -0.13012101 0.041445184 0.10375854 0.101102196
-0.115989596 -0.0071554263 -0.13788386 0.056869444 -0.067501105 0.03591353 0.13120855 -0.1049266
0.16318654 -0.018489635 0.047801398 0.075126424 0.030872919 -0.030176958 0.036082577 0.07279105
-0.053711083 -0.028445812 0.06877505 0.034819923 -0.011665102 -0.10260265 -0.14642292 -0.074151844
-0.13962771 -0.101637386 0.012865784 0.08573063 -0.16719826 0.02219395

trunk.0.project.norm.weight f4 [58]
00000000: 1fd6 843f 6b3d 793f c830 7e3f d28a 813f
00000010: fc20 813f e8e8 813f d159 7f3f 86d7 7d3f
00000020: ad40 803f 08b5 813f caa1 843f 1d8a 813f
00000030: f5b7 803f 5b00 7a3f deb8 833f cd8a 803f
00000040: 8f7c 833f 0ff6 803f fa6a 833f 4290 833f
00000050: 2941 7d3f 6a7b 7d3f 0245 823f d6e7 833f
00000060: 1e89 7f3f 6659 7f3f 2add 803f 3fb6 823f
00000070: 461c 833f 430d 823f 3b65 7f3f 76bc 7a3f
00000080: f826 7c3f 83d6 803f 0522 803f 9028 7e3f
00000090: 9760 793f 72d4 803f e88e 803f 3248 7b3f
000000a0: 5cbd 7b3f a183 823f ecb6 7c3f 98ca 7c3f
000000b0: 27bf 843f 7dcd 7d3f 5c41 7d3f c1e5 7d3f
000000c0: a430 813f fcba 813f 015a 833f 7097 7a3f
000000d0: 95ae 803f 81ea 813f de53 813f 5e16 823f
000000e0: 9b05 7f3f 5f68 813f
1.0377845 0.9735934 0.99293184 1.012049 1.0088191 1.0149202 0.99746424 0.9915699
1.0019737 1.0133371 1.0361874 1.0120274 1.0056139 0.9765679 1.0290792 1.0042359
1.0272387 1.0075091 1.0267022 1.0278399 0.9892755 0.9901644 1.017731 1.0305126
0.998186 0.99745786 1.0067494 1.0211867 1.0243003 1.0160297 0.9976384 0.9794382
0.9849696 1.0065464 1.0010382 0.99280643 0.9741301 1.0064833 1.0043612 0.98157036
0.98335814 1.019642 0.98716617 0.98746634 1.0370835 0.99141675 0.98927855 0.991787
1.0092969 1.0135188 1.0261842 0.97887325 1.0053278 1.014969 1.0103719 1.0163076
0.9961793 1.0109977

trunk.0.project.norm.bias f4 [58]
00000000: b36b d63c 1492 df3c a53a 903c 35f6 1dbd
00000010: 9df3 58bc fdb7 f2bb 77cb dabc 7021 5e3c
00000020: 1d85 e5bc 97a5 5bbc b446 783b 77fe d33b
00000030: 9f9b 26bd 333c e5bc 6b02 793b abca eabc
00000040: de1c a23c 102e b93c 87be c9bc 29e5 0abd
00000050: dd43 eeb9 f650 9ebb c9dc 0f3d 75b8 c8bc
00000060: dc51 953b f715 1c3c ccfc 093d 3ca9 b93c
00000070: e353 00bc 396e 8b3d 8130 bb3c fa9a 0abd
00000080: b4dc 6dbc 6b80 15bd 7473 29bd 8f04 d6bc
00000090: 1bd1 dd3c e193 39bd 0287 7abb cd70 54bd
000000a0: dda0 4b3d b517 333d 814a 2c3c 2916 1b3d
000000b0: 8064 05bb 61bb a4bc bceb ffbc 5018 63bd
000000c0: 8885 1b3c 86f2 aa3c e63a 0b3d a1d3 44bd
000000d0: 56bb 643d 6682 053d 0d71 833b 2e24 603c
000000e0: 7cdf 6a3b 3e69 4f3c
0.026174402 0.027291335 0.017606089 -0.03856488 -0.013241676 -0.007407187 -0.026708348 0.013557777
-0.028017575 -0.013406179 0.003788394 0.0064695436 -0.040675756 -0.027982807 0.0037995826 -0.028661093
0.019789156 0.022604972 -0.024626983 -0.03390995 -0.0004544546 -0.0048314286 0.035122667 -0.024502018
0.0045568775 0.009526721 0.03368835 0.022663705 -0.0078325 0.06808133 0.022850277 -0.033839203
-0.014517952 -0.036499422 -0.04136987 -0.02612522 0.027077248 -0.045307044 -0.0038227444 -0.051865388
0.049713958 0.04372378 0.01051581 0.03786293 -0.0020354092 -0.02010888 -0.031240337 -0.055443108
0.009492286 0.020867597 0.033991717 -0.048053388 0.05584272 0.03259506 0.0040112794 0.013680501
0.0035838773 0.012659369

trunk.0.project.norm.running_mean f4 [58]
00000000: 3dc8 e53d de3d c0bd f486 9d3d 299e 32bd
00000010: eef3 0cbe 6bb5 0fbd 6351 0b3e 93ec 97bd
00000020: 0cc5 f93d ed40 123e 37fc af3c d7aa cf3d
00000030: 88ba 873c 65c6 9ebe 5d15 ddbd 740b 023e
00000040: ec74 c3bd b325 22be c6b1 96bd 5397 403d
00000050: c77e ee3d 532b 0cbe e820 733d 0ba7 3c3d
00000060: 7689 a7bd 19ab 653d 9a07 3a3e e85e 94be
00000070: b248 29be c10e f63d 717d 393d 40d8 0fbe
00000080: bb37 bbbd 79cc 0cbe 1638 63be 88e0 3f3d
00000090: 286e 12be 2025 7b3c d166 b43b 40b5 a8be
000000a0: c103 283d 012f e4bd 12be 86bc 8c92 013e
000000b0: 0b8f f8bd 655f 523e d638 dbbd 5e31 9bbd
000000c0: 7d52 183e b693 0dbe 465b d63d 512d ebbd
000000d0: d070 383e d2b6 de3d 13d2 43be e662 b73c
000000e0: c954 e63d b741 6d3d
0.11219833 -0.093868 0.07691756 -0.043607865 -0.13764927 -0.035085123 0.13605265 -0.0741817
0.12195787 0.1428258 0.02148257 0.10140007 0.016568437 -0.31010738 -0.1079509 0.12699682
-0.095437855 -0.15834694 -0.07358126 0.047019314 0.116452746 -0.13688402 0.059357554 0.046057742
-0.081805155 0.056071375 0.18166962 -0.28978658 -0.16531637 0.12014533 0.045285646 -0.14047337
-0.09141489 -0.13749875 -0.22189364 0.04684499 -0.14299834 0.0153286755 0.0055054207 -0.32950783
0.041019205 -0.11141778 -0.016448054 0.1265356 -0.12136658 0.20544203 -0.107042 -0.075777754
0.14875217 -0.13825879 0.10466628 -0.11483253 0.18011785 0.10874714 -0.19123106 0.022386026
0.1124664 0.057924

trunk.0.project.norm.running_var f4 [58]
00000000: 5b96 b23c f5ef 9d3c 5f52 b63c 4c7c e93c
00000010: a06d c93c 8551 a43c 31e3 d03c 1916 b13c
00000020: 6055 193d d0ff c03c 3567 493d e16d d33c
00000030: 4d00 b53c 3d4c 6b3d 775e 893c 2f63 e63c
00000040: 11a2 943c ee2c e83c 8879 af3c 129a 803c
00000050: 4580 943c ef97 d73c b14c 853c f88a cf3c
00000060: d425 5d3c d458 883c cd72 023d 663d 6a3d
00000070: ed3a 093d 6054 8e3c c145 403c a899 ad3c
00000080: 2af1 b23c a2f5 0d3d 708f 103d ae8d 683c
00000090: 4958 0c3d 19d4 b63c f131 873c 5794 773d
000000a0: 3ccf 4f3c af4a 013d a1a9 9e3c 45a1 d53c
000000b0: b6f6 983c c230 7c3d 3453 b53c 703e 153c
000000c0: 2da3 4d3d a961 133d 19a8 833c 3fb3 ef3c
000000d0: 4649 093d 79b2 de3c 628c 133d f984 4f3c
000000e0: e54d a93c 5304 c53c
0.02180021 0.01927946 0.022256074 0.028501652 0.024588406 0.020058403 0.025498958 0.021616982
0.037434936 0.02355948 0.04917069 0.02580923 0.02209487 0.057445753 0.016768677 0.028123466
0.018143686 0.028341737 0.021420255 0.015698466 0.01812757 0.026317565 0.01627192 0.02533482
0.013497788 0.016643919 0.031847764 0.05718746 0.03350346 0.017374218 0.011735381 0.021191433
0.021843512 0.03465808 0.035293043 0.014193935 0.034263883 0.022317933 0.016503306 0.060444202
0.012683686 0.031565364 0.019367995 0.026077876 0.018672328 0.061569937 0.0221344 0.009109125
0.050204445 0.035981808 0.016071366 0.029260276 0.033517145 0.027184712 0.03602255 0.0126659805
0.020667026 0.024049914
