splendor/model.onnx (onnx, 601909 bytes, 70 tensors)

first_layer.norm.weight f4 [56]
000000 f9 e6 9b 3e 7d b0 20 3e be 19 d2 3e ce 5c 35 3e
       0.30449656 0.15692325 0.41035265 0.17711183
000010 85 70 87 3e 88 46 9c 3e 7a 55 9e 3e 8c 25 b3 3e
       0.26453033 0.3052256 0.30924588 0.34989583
000020 86 af 2f 3e 61 3d d6 3e 9c 60 a0 3d 1e db b4 3c
       0.171568 0.41843703 0.07830927 0.02207714
000030 10 02 2f 3e b0 0f b7 3e 64 2d 65 3e c4 d7 5b 3e
       0.1709063 0.35754156 0.22380596 0.21469027
000040 ed d7 9f 3e 72 88 1a 3e 0a 24 13 3e e5 84 dd 3d
       0.31219426 0.15091112 0.14369217 0.10816363
000050 a6 ff ce 3e db 65 8c 3e e1 f9 5f 3e 14 cf fe 3e
       0.4042942 0.2742146 0.21872665 0.49767363
000060 93 2a 63 3e e5 2c 9c 3e 32 fe 9a 3e a5 fb 23 3d
       0.2218421 0.30503002 0.3027206 0.04003491
000070 78 b2 6e 3e f8 dc a7 3e e0 ce 57 3e 81 c8 2f 3e
       0.23310268 0.32785773 0.2107501 0.1716633
000080 db 90 96 3e d2 9b 46 3e 28 88 2c 3e e0 a8 d5 3e
       0.2940739 0.19395378 0.16848814 0.41730404
000090 e4 18 5a 3e 51 cc 38 3d 47 3d 6f 3e 9d 16 09 3e
       0.21298558 0.045116726 0.23363219 0.13387533
0000a0 0a ae f0 3d 59 17 04 3e 85 b6 c3 3d f4 92 71 3e
       0.11751945 0.12899531 0.09556297 0.23591214
0000b0 97 d1 5d 3e 4e 57 b7 3e 60 74 d1 3e e9 6c d4 3e
       0.21661983 0.35808796 0.409091 0.41489342
0000c0 55 b7 93 3e 6b 6c 57 3e 96 cf 52 3e 16 ff 29 3e
       0.2885081 0.21037452 0.20587 0.16601214
0000d0 b0 4b 75 3e b5 7a c1 3e bf 77 25 3e 34 60 3d 3d
       0.23954654 0.3778893 0.16158961 0.046234325

first_layer.norm.bias f4 [56]
000000 e6 2b 9a 3b cf 38 9c 3a d1 d3 5e bc e7 93 8a bc
       0.00470494 0.0011918786 -0.013600306 -0.016916228
000010 7c 9f 07 bc 29 30 59 bb 70 80 f5 bb 44 df ae bb
       -0.00827777 -0.0033140278 -0.0074921176 -0.005336674
000020 8e f7 7a bb fd 72 5d bc 38 90 1c 3c 3e 1e 62 3c
       -0.0038294527 -0.013516185 0.009555869 0.013801156
000030 e7 87 93 3b a9 73 26 bb 6b 90 59 bc cf 84 0b bc
       0.004502285 -0.0025398529 -0.013279061 -0.008515551
000040 b2 8a ac 3b c9 da 31 3a ce 86 e8 bb 75 ab 3a bc
       0.005265557 0.00067846157 -0.007096148 -0.011393418
000050 e0 ba 9d bc f7 87 c8 bb 5f 01 91 bb ef a1 a2 3b
       -0.019254148 -0.006119724 -0.0044252123 0.0049631516
000060 ed c5 96 bc 7c f3 09 3c fe 83 84 3b a7 03 ab 39
       -0.018404925 0.008419868 0.004044055 0.00032618383
000070 70 93 22 3c 61 ec f2 b9 8b e2 2f bb a2 15 c9 bb
       0.009922847 -0.00046333953 -0.002683791 -0.006136612
000080 78 bc a9 bc 22 92 95 3b b7 23 3d 3b be 11 47 3c
       -0.020719752 0.0045645395 0.00288604 0.012150226
000090 a9 64 05 b9 a7 10 eb 3b dd 09 59 3b 1e 1d 50 bb
       -0.00012721367 0.007173616 0.0033117451 -0.0031755636
0000a0 ff df b3 3b 35 6c 9d 3c d8 f9 64 3c 54 d4 d5 bb
       0.005489349 0.019216636 0.013975583 -0.0065255556
0000b0 8f 67 8b bc 53 17 6e bb 20 74 25 bb 87 0e a3 3c
       -0.017017154 -0.003632982 -0.0025246218 0.019904388
0000c0 33 4e 13 b9 74 af bb 3c 2a 0b b0 3c e8 d5 b8 3b
       -0.00014048144 0.022910811 0.021489698 0.005640734
0000d0 c7 be 45 ba bc 16 2e 3c bf f2 61 ba 72 e9 1e bc
       -0.00075433817 0.0106255375 -0.0008619241 -0.009699212

first_layer.norm.running_mean f4 [56]
000000 67 fa eb 3e c2 34 81 3f 33 80 10 40 67 74 df 3f
       0.4608948 1.0094225 2.2578247 1.7457398
000010 40 69 35 bf f3 ef b6 be 54 5f 13 c0 d9 f1 3b 40
       -0.70863724 -0.35729942 -2.3026934 2.9366362
000020 1e 78 22 c0 d1 74 81 bf d5 2d 15 3e a2 b0 62 3e
       -2.5385814 -1.0113775 0.14568265 0.22137693
000030 ca 19 07 bf 87 87 96 3f d6 69 2e 40 e6 02 e9 3e
       -0.52773726 1.176011 2.7252097 0.45510024
000040 08 4e 0b 40 e7 00 1f bf 64 95 2b 3f c1 cf 85 be
       2.1766376 -0.6211075 0.67024827 -0.26135066
000050 b5 c6 4b c0 6e 98 af bf 69 8b cd bd f6 25 00 40
       -3.184003 -1.3718393 -0.10036356 2.002317
000060 c8 6b 17 c0 90 e5 80 bf 6b 94 05 c0 bd 65 21 c0
       -2.3659534 -1.0070057 -2.0871837 -2.5218346
000070 90 7a 1c c0 dc 1c 75 c0 32 fb ed 3f 6c be 08 c0
       -2.4449806 -3.8298864 1.8592284 -2.1366224
000080 43 34 e6 3f 25 93 b2 bf f3 03 47 be 70 ad 02 40
       1.7984699 -1.3951155 -0.194351 2.0418358
000090 bf e5 b5 3e 91 3a 88 bf 99 48 7f 3f 66 4c b2 bf
       0.35526845 -1.0642873 0.9972015 -1.3929565
0000a0 91 fb e8 3f 59 3f 0b 40 eb 9e d1 3f 47 fe 8b 3f
       1.8201772 2.1757414 1.6376623 1.0936974
0000b0 de d8 c5 3f 47 36 24 3f e6 ae 3c c0 32 d3 10 c0
       1.5456808 0.6414532 -2.948175 -2.2628903
0000c0 1a c7 ac 3f ea a9 ac be 5c 3c b7 bd 9a fe 26 40
       1.3498261 -0.33723384 -0.089470595 2.6092896
0000d0 b9 26 5f 40 48 38 20 40 07 46 8c 3f 52 5f 2f 3f
       3.4867384 2.5034351 1.0958871 0.6850482

first_layer.norm.running_var f4 [56]
000000 68 2a 2c 40 48 68 35 40 9a 95 0a 40 5e 4f 12 41
       2.6900883 2.8344898 2.165381 9.144377
000010 47 46 e5 3f 3d cd 18 40 cc c6 cf 40 ca 89 15 40
       1.7912072 2.3875268 6.493017 2.336535
000020 bf 09 67 40 b3 c5 45 40 80 27 54 40 0c 55 64 40
       3.6099699 3.0901916 3.314911 3.5676908
000030 1b 59 f4 3f e4 40 28 40 04 61 97 40 e9 6f 3a 40
       1.9089693 2.6289606 4.7305927 2.9130805
000040 7d be b0 40 b5 a3 e7 3f c2 6f 08 40 a3 54 cb 3f
       5.523253 1.8096834 2.1318212 1.5885204
000050 04 f9 7c 40 0c f9 70 40 c2 ab f5 3f 03 1e 19 40
       3.9526987 3.7652006 1.9193041 2.3924568
000060 25 bb b2 40 10 88 de 3f 4b cc 57 41 78 83 18 41
       5.585345 1.7385273 13.487376 9.532097
000070 62 d9 44 40 cf b7 89 40 ab 49 7c 40 36 77 29 40
       3.075768 4.3036876 3.9419963 2.647901
000080 dc ad de 41 3c 6a 04 41 f9 19 e2 3f c5 45 7e 40
       27.834892 8.275936 1.7664176 3.9730084
000090 fa 6c 3b 40 51 43 85 40 15 b5 f8 3f 62 04 bb 40
       2.9285264 4.1644673 1.9430262 5.844285
0000a0 c6 a0 8c 40 16 76 29 40 c8 26 9e 40 db d0 99 40
       4.3946257 2.6478324 4.942234 4.806745
0000b0 c2 1b 01 41 ae 2f ee 3f ec 81 c8 40 10 4b 73 40
       8.069277 1.8608301 6.2658596 3.8014565
0000c0 ff 72 0a 40 4d b2 0d 40 5d a3 29 40 af b9 85 40
       2.1632688 2.2140076 2.650596 4.1789165
0000d0 0d 59 b4 40 b0 f5 ae 40 25 8e 35 41 ac 50 94 40
       5.6358705 5.467491 11.347203 4.6348476

trunk.0.expand.norm.weight f4 [168]
000000 c8 43 28 3e ac 0a cb 3e e6 86 e3 3e 12 49 14 3f
       0.16432106 0.3965658 0.44438857 0.57923996
000010 d5 de 86 3e a7 44 e8 3e 2e e0 0a 3f dd 98 05 3f
       0.26341882 0.45364878 0.5424832 0.52186376
000020 f4 c8 cd 3e 58 c1 95 3e db 59 de 3e 7d fb a8 3e
       0.40192378 0.29249072 0.4342793 0.3300437
000030 0a 60 26 3e cd 1c a6 3e ce de 31 3f b9 c7 71 3e
       0.16247573 0.32443848 0.694806 0.23611344
000040 08 49 b4 3e 82 ad c0 3e 90 b3 af 3e b3 3b 0b 3f
       0.35211968 0.37632376 0.34316683 0.5438797
000050 33 02 34 3f 0b ac 15 3f f1 84 0f 3f 28 52 6a 3e
       0.70315856 0.5846564 0.5606223 0.22882903
000060 42 c3 45 3e 2b 36 ca 3e 9e 08 f9 3e 31 38 82 3e
       0.19312766 0.39494452 0.48639387 0.25433496
000070 6f ee 0d 3f a9 a4 36 3e ba df 05 3f 44 a6 72 3e
       0.55441946 0.1783625 0.52294505 0.23696238
000080 1e 3e a1 3e 36 cf 77 3f 5a 32 d9 3e f9 74 13 3f
       0.31492704 0.96800554 0.42421228 0.5760036
000090 80 db 64 3e b3 71 49 3e 6b a5 26 3f 31 b6 bf 3e
       0.22349358 0.19672279 0.6509616 0.3744369
0000a0 b8 67 11 3f 9c 4b 23 3e 42 51 56 3e e5 0f 08 3f
       0.5679889 0.15946811 0.20929435 0.53149253
0000b0 af 57 b3 3e 19 e7 0f 3f ed 35 85 3e e4 b5 cc 3e
       0.35027835 0.56212 0.26017705 0.39982522
0000c0 17 b8 91 3e dc 31 60 3e c5 75 f5 3e 43 4e ab 3e
       0.28460762 0.2189402 0.47941414 0.33458146
0000d0 e4 b4 15 3f fa 9f dd 3e f5 7d a8 3e 89 50 a8 3e
       0.5847914 0.43286115 0.32908598 0.32873943
0000e0 d0 c0 a6 3e 92 9f a7 3e 48 89 e1 3e c8 b4 ad 3e
       0.3256898 0.3273893 0.4405005 0.33926988
0000f0 f0 4c e5 3e 38 3c aa 3e 58 cf fe 3e 1c c1 96 3e
       0.4478526 0.33249068 0.49767566 0.29444206
000100 a8 1a c4 3e a6 96 aa 3e c8 84 7a 3e 09 eb 08 3f
       0.38301587 0.3331806 0.24464715 0.53483635
000110 04 85 d7 3e fc 69 f1 3e 68 79 c2 3e bc 75 1f 3f
       0.4209367 0.47151172 0.3798325 0.62289023
000120 8c 54 ac 3e bb 9a 70 3e 8c b8 f6 3e 01 d6 b0 3e
       0.33658254 0.23496525 0.48187673 0.34538272
000130 d3 77 06 3f 21 09 2e 3e bf 12 93 3e 63 59 e0 3e
       0.5252659 0.1699567 0.2872524 0.43818197
000140 a2 95 6e 3e ca 12 8b 3e 2d 65 6e 3e 49 a1 e1 3e
       0.23299268 0.27162772 0.23280783 0.44068363
000150 2b ff ce 3e 90 1d e0 3e 36 a1 b4 3e a8 ae aa 3e
       0.40429053 0.43772554 0.35279244 0.33336377
000160 64 77 ab 3e df b1 5b 3f 99 96 34 3f b1 64 77 3e
       0.33489525 0.85818285 0.70542294 0.24159504
000170 24 d7 87 3e de c8 ff 3e 61 b7 8a 3e 6d 97 a9 3e
       0.26531327 0.49957937 0.27093032 0.3312334
000180 6d 8e 82 3e cf fa 69 3e a4 9f 29 3e ab 03 4d 3e
       0.25499287 0.22849582 0.16564804 0.2002093
000190 3c 46 4b 3e 45 5a b0 3e b5 45 0e 3f 1b 83 c3 3e
       0.19851011 0.3444387 0.55575114 0.38185963
0001a0 06 bb de 3e 73 24 60 3f be 8b f1 3e 15 70 02 3f
       0.43502063 0.8755562 0.47176927 0.50952274
0001b0 ce 24 f1 3e c6 54 b8 3e 79 d1 88 3e 73 43 2b 3f
       0.47098392 0.36002177 0.26722315 0.66899794
0001c0 89 c0 77 3e a3 e7 05 3f c2 c2 f9 3e 71 21 9a 3e
       0.2419454 0.52306575 0.487814 0.3010364
0001d0 c8 cf 07 3f b7 d2 a1 3e 0d f3 11 3f 92 17 a8 3e
       0.53051424 0.31606075 0.5701149 0.32830483
0001e0 e2 e1 17 3f 18 37 37 3e bb 91 32 3e 96 aa b2 3e
       0.59329045 0.1789211 0.17438404 0.34895772
0001f0 de b3 f2 3e 87 24 aa 3e 9e 3f e4 3e 8a 13 af 3e
       0.47402853 0.33230993 0.44579786 0.34194595
000200 75 0f e6 3e 89 cd b7 3e 04 24 25 3e 8f 6f ec 3e
       0.44933668 0.35898998 0.1612702 0.46178862
000210 5f d5 66 3e a4 a6 a0 3e 66 83 cd 3e 74 09 04 3f
       0.22542332 0.31377137 0.40139312 0.51576924
000220 06 64 35 3e 5f d0 cc 3e 7b 1b 27 3f 3f a5 6c 3e
       0.17713937 0.40002725 0.65276307 0.23109911
000230 3e fe 00 3f 13 7e d4 3e 43 26 0d 3f 63 1e a2 3e
       0.5038794 0.41502437 0.5513651 0.31663808
000240 1f ad 08 3f 78 22 94 3e b4 0f 84 3e b3 49 88 3e
       0.5338916 0.28932548 0.2579323 0.26618728
000250 55 b9 cb 3e ca b2 a3 3e f2 48 27 3f 7f 44 d3 3e
       0.39789835 0.31972343 0.6534568 0.41263196
000260 9a 3b 8f 3e 30 d0 86 3e 5a 1a ab 3e 8b 91 a7 3e
       0.2797516 0.2633071 0.33418542 0.32728228
000270 0b b9 19 3f ec 11 13 3f bc 10 c2 3e e5 2a 77 3e
       0.6004798 0.5744922 0.37903392 0.24137457
000280 23 49 5e 3e 30 cb 14 3f 85 bd a3 3e 81 61 d6 3e
       0.21707587 0.5812254 0.3198053 0.41871265
000290 d0 50 ff 3e be 00 b6 3e 7c 14 f4 3e 83 ac 91 3e
       0.49866343 0.3554744 0.47671878 0.28451928

trunk.0.expand.norm.bias f4 [168]
000000 b9 97 7c be 58 41 15 be e7 36 a5 bd f8 f2 6a bc
       -0.24667253 -0.14575708 -0.080671124 -0.014340155
000010 3b 41 2e be 38 19 10 bd b0 a1 d9 3b d5 96 dc 3c
       -0.17017071 -0.0351803 0.006641589 0.026927391
000020 90 48 5e bd de af 12 3e 70 9f a8 bd f4 be 11 3e
       -0.05426842 0.143249 -0.08233535 0.14232999
000030 ef b0 63 be 50 4b 0a 3e 2d ad 7f bd 40 2c 3d be
       -0.22235464 0.13505292 -0.062421013 -0.18473911
000040 73 db df bd 98 83 72 3d a3 3b ee bd 22 f7 e7 bc
       -0.109305285 0.05920753 -0.116324686 -0.028316084
000050 ec ca 08 3d 22 03 a6 bc d9 d6 03 bd c8 db 3d be
       0.033396646 -0.020265166 -0.032187317 -0.18540871
000060 c8 7f 48 be 7d e4 5b 3d b3 54 8e 3c a7 6a 2e be
       -0.19579995 0.0536847 0.017374372 -0.17032872
000070 c7 46 70 3c 4c ae 61 be 35 83 2b 3d c1 28 40 3e
       0.014665312 -0.22039145 0.041873176 0.18765546
000080 c5 c7 ee bd 9d 43 3f bb 55 bc 80 3d bc c2 a9 bc
       -0.11659197 -0.0029184588 0.062859215 -0.02072274
000090 03 5d 53 be 75 ec 55 be 44 d5 0c be 7e 84 88 bd
       -0.2064095 -0.20890982 -0.1375323 -0.06665896
0000a0 45 83 d8 bc c7 3b 56 be 83 81 64 be c7 21 db bb
       -0.026429782 -0.20921241 -0.2231503 -0.006687376
0000b0 b9 f3 fb 3d 92 83 82 bd 7a de 2c 3e e6 82 09 3e
       0.12302346 -0.06372751 0.16881743 0.1342884
0000c0 cb 0c 05 be 8f fd 43 be 7b 40 d3 3c 84 f2 9f bd
       -0.12993161 -0.19139694 0.025787583 -0.07809928
0000d0 5f e7 4b bd 26 fa 64 3d 77 79 0b be 02 21 db bd
       -0.0497812 0.055902623 -0.13620554 -0.10699655
0000e0 f2 57 10 be 2f 39 e5 bd 61 c5 36 bd 52 5b e7 bd
       -0.14096048 -0.111925475 -0.04462183 -0.11296715
0000f0 ab f7 72 bd 8a cd eb bd a3 48 53 3d 9e a1 00 be
       -0.059318226 -0.11513813 0.051582944 -0.12561652
000100 08 32 ba bd 75 9a ed bd 3b db 4e be 41 04 1e bd
       -0.09091574 -0.11601726 -0.20200817 -0.038578276
000110 9d 86 14 3e 7d 98 6c bd 25 64 df 3d 52 71 a1 bd
       0.14504476 -0.05776261 0.10907773 -0.07882942
000120 a5 7a ea 3d 47 1c 46 3e 51 58 85 bd 3a fa 07 3e
       0.11449174 0.19346724 -0.06510986 0.13279048
000130 21 3e 5e bd 0f 04 65 be e2 38 13 be 13 e7 dc bd
       -0.05425847 -0.2236483 -0.14377168 -0.107862614
000140 5e 66 39 be 3d aa 1c be 2f d2 43 be 73 65 99 bd
       -0.18105456 -0.15299316 -0.19123147 -0.07490053
000150 5c 1a d3 3d b7 5c bf bd 20 55 ab 3d 75 41 e3 bd
       0.10307762 -0.09343856 0.08365846 -0.11096469
000160 5f e3 11 be 54 de 71 3b 65 8b 3d 3d 40 16 5f 3e
       -0.14246891 0.00369062 0.046275515 0.21785831
000170 90 64 45 be 82 94 9d bc 8f 32 25 be 48 7f d2 3d
       -0.19276643 -0.019235853 -0.16132568 0.10278183
000180 0c d4 39 be a2 20 3b be bf 9d 61 be 78 0d 5b be
       -0.18147296 -0.18274167 -0.22032832 -0.21391857
000190 e3 0c 49 be fd d7 e2 bd da 4c 89 bd 8e 14 1d be
       -0.19633822 -0.11076353 -0.067041114 -0.15339872
0001a0 fd a8 59 3d 7f 6e b7 3c 97 bd 63 3d 18 9c d0 3d
       0.053139675 0.022391556 0.05560073 0.101860225
0001b0 fb 1d e3 3d 75 f7 81 bd 25 4e 29 be 45 57 78 3d
       0.11089703 -0.06346027 -0.16533716 0.0606301
0001c0 c6 4f 49 be c7 75 43 bd 09 44 d1 3d 52 03 11 be
       -0.19659337 -0.047719743 0.10218055 -0.14161423
0001d0 ae 44 b9 3d b5 67 1f be 31 cc 95 3c f9 bd e4 bd
       0.09046303 -0.15566905 0.018285843 -0.11169047
0001e0 fd 8c 09 bd 68 52 7a be 1d ad 64 be 1c c0 bb bd
       -0.033581723 -0.24445498 -0.22331662 -0.09167501
0001f0 c3 87 6a bd 01 0a 11 be 30 ca 47 bd e7 12 ec bd
       -0.05725838 -0.14163972 -0.048776805 -0.11527043
000200 76 6a 9e 3d e1 8c b8 bd 92 14 69 be 66 6b 6e bc
       0.077351496 -0.090112455 -0.22761753 -0.014551973
000210 d8 af 47 be 56 4d ce bd 19 92 0b 3e 9e 54 80 bc
       -0.19500673 -0.100733444 0.1362995 -0.015665349
000220 03 9a 5b be 68 b0 d4 bd 40 e6 39 3c 0f 68 66 be
       -0.2144547 -0.10385209 0.0113464 -0.22500633
000230 1d b8 34 3d f9 4f 18 3e 79 9d 33 bd 56 29 1e 3e
       0.044120897 0.14874257 -0.04385135 0.15445456
000240 19 72 f9 bc f7 e1 13 3e 95 7b 40 3e 00 f4 27 be
       -0.030449914 0.14441667 0.18797143 -0.16401672
000250 2a 1f cf bd 6f 49 d2 bd 41 81 31 3d 89 58 eb bd
       -0.10113366 -0.102679126 0.043336157 -0.11491496
000260 69 de 6e 3e fb a8 17 be d2 2b c3 bd 22 07 05 be
       0.2332703 -0.14810555 -0.095298424 -0.12991002
000270 da 1e 65 3d 17 39 a1 bd 97 2a d6 3d fe 61 3d be
       0.055937625 -0.07872217 0.10457342 -0.18494412
000280 ee c8 3b be 6b c7 f8 bc 99 ad e5 bd 2c d9 27 bd
       -0.18338367 -0.030368527 -0.11214752 -0.040978596
000290 5d 48 d4 3c d1 db e9 bd 22 8c 12 3d 66 90 09 be
       0.025913412 -0.1141888 0.035778172 -0.1343399

trunk.0.expand.norm.running_mean f4 [168]
000000 9c f3 9f bc f5 fa 21 bb 32 7c 84 bb 46 1a a5 bc
       -0.019525342 -0.0024716232 -0.0040431255 -0.02015413
000010 dc be 00 bc 84 83 c1 3b 35 5a da bb c8 cc 0b b9
       -0.007858004 0.0059055705 -0.0066635855 -0.0001333236
000020 55 c6 1e b9 2c ea 9d bb 06 2b bd bb e1 04 85 bb
       -0.00015141939 -0.004819175 -0.005772951 -0.0040594195
000030 56 e5 dc bb 7d 43 33 bb 1f 7c 70 3b 59 fc 3b bb
       -0.006741206 -0.0027353459 0.0036695076 -0.0028684346
000040 91 87 b9 3c 63 76 25 bc a6 39 0f 3b 7c c0 37 3c
       0.02264765 -0.010099026 0.002185443 0.011215325
000050 07 bc 71 bb c1 58 8d bb 8c 3a 09 bc f3 9e 5e 3c
       -0.0036885755 -0.004313559 -0.008375775 0.013587701
000060 e2 67 84 bb dc 00 6c bc 7a 91 75 bc fa dc 08 3c
       -0.004040704 -0.014404502 -0.014988298 0.008353466
000070 2a ef 74 3c f1 2f aa bc 85 83 b1 3a f6 1f 1d 3c
       0.014949599 -0.020774813 0.0013543224 0.00959014
000080 8b ce 7d bc fa 4a 98 bc 2b 33 d9 bb 0d 5b 05 3c
       -0.015491138 -0.01859044 -0.006628414 0.008139384
000090 62 61 cb 3a 84 a2 63 3c 7e 36 1b bc 42 b8 66 bb
       0.0015516693 0.013893727 -0.009473441 -0.003520504
0000a0 e0 ee 1b 3c 03 04 bf ba ca 2e 0e 3c 75 ee 71 3c
       0.009517401 -0.0014573339 0.008678148 0.014766325
0000b0 ff fa 9b 3b 4b 3e 17 3c 43 e3 6d 3c 45 54 38 b9
       0.0047601457 0.00923116 0.014519515 -0.00017579
0000c0 41 7b c1 bb 44 79 95 bc 83 86 31 3c 29 df 9f bb
       -0.0059045856 -0.0182463 0.010835293 -0.0048788977
0000d0 87 07 bc bb 0c b6 1b ba fe 25 91 bc 5a 02 33 3c
       -0.005738202 -0.0005939908 -0.017718311 0.010925854
0000e0 76 6a 27 3c 34 a8 87 bc 65 e7 28 bc 75 28 3e bb
       0.010218253 -0.016559698 -0.010309075 -0.0029015813
0000f0 30 d8 cb 3a ea 07 88 b9 26 05 a7 bc d3 e3 5d bc
       0.00155521 -0.00025945838 -0.020388197 -0.013543087
000100 ef 9b 8a 3c ce dd 96 3b ce 61 2d 3c d3 fa ee 3b
       0.016920058 0.004604078 0.0105824005 0.007293084
000110 b0 ab a5 3b 0e fc 51 bc da 6a b7 bb fd 3f d7 3a
       0.005055867 -0.012816442 -0.0055974545 0.0016422268
000120 00 19 43 bc cd a6 10 3c 81 00 74 3c 75 96 a1 bb
       -0.011907816 0.008828831 0.014892698 -0.004931266
000130 0f 58 b8 bb 30 cb 92 3b a1 8c 04 bc c3 54 d1 3b
       -0.005625732 0.0044797882 -0.008090169 0.006388278
000140 66 02 61 bc 46 bf 31 ba 7a 1f d8 bb f6 ba 0b bb
       -0.013733482 -0.0006780516 -0.006595549 -0.0021321154
000150 5a d3 90 bc fa ba fb 3b 67 7d 57 bc 99 8d 0d bc
       -0.017678905 0.0076822015 -0.013152457 -0.008639717
000160 67 87 58 3a 0d c4 21 3b a4 58 65 b9 1c e7 9a 3a
       0.00082599226 0.0024683506 -0.00021872163 0.0011818144
000170 d2 9b 4e 3c e8 30 f5 bb a1 cb 7e bb 9b c1 35 bc
       0.012610393 -0.0074826367 -0.0038878697 -0.011093522
000180 74 1a e8 ba bc 6d 41 bb 60 78 bb 3b 2e 41 7d 3c
       -0.0017708079 -0.002951487 0.005721137 0.015457435
000190 38 06 8d 3c 59 18 33 bc e3 fe a6 bc 92 80 ba 3b
       0.01721488 -0.010931098 -0.020385211 0.0056915963
0001a0 2b 7e 8a 3c b6 ad 2a bc 9b 91 95 ba 49 28 11 bb
       0.016905865 -0.0104173925 -0.0011411192 -0.0022149256
0001b0 fa 7b 6a bc db bf 4d bc 26 3d 2a 3c 6d 83 36 3c
       -0.014311785 -0.012557949 0.0103905555 0.011139733
0001c0 d6 40 60 3c f0 08 e9 ba af a8 34 bc c8 24 33 3b
       0.013687333 -0.0017779153 -0.011026545 0.0027335156
0001d0 4a 79 90 3b 82 d7 1f 3c 64 57 21 3b ff 30 ba bb
       0.00440899 0.009755971 0.002461874 -0.0056821103
0001e0 24 23 e4 3a b3 3e a9 3b 76 ef 06 3b b3 7f 00 bc
       0.0017405492 0.005164945 0.0020589507 -0.007842946
0001f0 e0 c3 bc bb 12 4b fc 3b 94 32 6f 3a 8b b7 d4 39
       -0.005760655 0.0076993788 0.0009124663 0.0004057254
000200 c1 5d 39 bc 36 64 12 3c a4 db 61 3b 0f ad 1f bb
       -0.011313857 0.008935025 0.0034463191 -0.0024364626
000210 b7 15 17 bc fb 29 c2 bb 62 65 98 bc 17 41 41 ba
       -0.009221486 -0.0059254146 -0.01860303 -0.0007372065
000220 fb 13 2c bc 94 12 60 bc af 2a 82 bc 1f cf 48 3c
       -0.010502811 -0.013676304 -0.015889494 0.012256413
000230 f7 2b c4 b9 c6 0e ca bb 5e 6d 4e bb 3c 41 bb 38
       -0.0003741679 -0.006166312 -0.0031498293 8.929006e-05
000240 f0 0e fb bb c7 db 25 bc bc b7 e8 bb 45 95 f3 bb
       -0.007661693 -0.0101232 -0.007101981 -0.007433566
000250 ca b0 53 bc 0a 55 d1 bc 63 87 39 3c 70 12 2b 3c
       -0.012920568 -0.025553245 0.011323783 0.010441408
000260 82 e4 57 3a 59 62 13 bb 99 f1 7e 3c 42 7b 43 bc
       0.00082356494 -0.002248904 0.015560531 -0.011931242
000270 57 ee 1b 3c 2d 05 a5 bb 90 9d e8 bb 06 0d 8a bb
       0.009517274 -0.0050360174 -0.007098861 -0.0042129783
000280 4c 15 19 3a 9c b6 41 bb 38 6e c7 bb 35 a2 66 bc
       0.00058396603 -0.0029558307 -0.006086137 -0.014076759
000290 dc ff 32 3b b6 b2 34 3b c2 c9 08 3b 88 f1 5d bc
       0.0027313149 0.002757234 0.002087221 -0.013546355

trunk.0.expand.norm.running_var f4 [168]
000000 d5 29 f9 3d fa 89 45 3d 02 e5 bd 3d bc 79 72 3d
       0.12166182 0.048227288 0.092721954 0.059198126
000010 fe 25 dd 3d 91 33 34 3d 60 89 8c 3d 15 31 0d 3d
       0.10798262 0.04399449 0.0686214 0.034470636
000020 fe 8e d5 3d cf 73 60 3e 23 b3 3b 3d 5c e4 d6 3d
       0.10427664 0.21919177 0.045825135 0.10492775
000030 c4 f7 21 3e 89 df 81 3d ec 1f ea 3d a4 72 3c 3e
       0.15817171 0.06341464 0.1143187 0.18403107
000040 a2 a8 56 3e e8 4b 60 3d 01 d7 d6 3d 8f 25 af 3d
       0.20962766 0.05475989 0.104902275 0.085520856
000050 3f 10 03 3e 6f 38 28 3e 64 5f 83 3d 48 ad a5 3d
       0.12799166 0.16427778 0.06414679 0.080896914
000060 57 cf 6d 3e 9b f5 93 3d 7f cd 51 3d cc 2f 26 3e
       0.23223625 0.0722458 0.051221367 0.1622917
000070 83 30 87 3d 09 3c 0c 3e 61 9a e7 3d 09 2d 55 3d
       0.0660105 0.13694777 0.11308742 0.052044902
000080 3d 90 bf 3d e3 1b 15 3e 8e d5 81 3d 55 0b 32 3e
       0.09353683 0.14561419 0.063395604 0.17387135
000090 2c 38 b9 3d f4 b3 9a 3d ed c6 5e 3e 1e d3 e8 3d
       0.09043917 0.075538546 0.21755572 0.113683924
0000a0 d5 45 b1 3d b3 76 54 3d 20 d3 78 3e c3 ea 95 3d
       0.086558975 0.051871013 0.24299288 0.07320168
0000b0 4b 7a bc 3d 62 db cb 3d 19 f4 a1 3d 1b 05 c6 3d
       0.09203013 0.09953953 0.07907886 0.096689425
0000c0 81 6d 08 3e a0 a1 14 3e 40 da 04 3e ca 5c e3 3d
       0.13323022 0.1451478 0.12973881 0.111016825
0000d0 ff 24 9f 3d 10 55 ba 3d ee f6 49 3e 45 4c 7c 3d
       0.07770728 0.09098256 0.19723102 0.061596174
0000e0 71 bc 0a 3e 31 3a 3c 3e 39 eb 18 3e 03 8d d1 3d
       0.13548447 0.18381573 0.1493348 0.10231974
0000f0 5f 46 86 3d f9 e2 bf 3d 1c c1 91 3d 47 41 74 3d
       0.06556391 0.093694635 0.07116911 0.059632566
000100 44 49 97 3d 0e 73 48 3e 6f 4b d2 3d b8 0a b4 3d
       0.07387021 0.1957514 0.10268294 0.08791107
000110 97 eb 58 3d 72 76 84 3d bf 3c a9 3d 75 76 d2 3d
       0.05295905 0.06467904 0.082635395 0.102765
000120 93 38 52 3d 11 93 b1 3d d7 42 c6 3d e9 ea 0c 3e
       0.051323485 0.08670629 0.096807174 0.13761486
000130 46 d0 c2 3d 4e 47 0b 3d 3b 65 89 3d 2a 8b 24 3e
       0.09512381 0.03400355 0.06708761 0.16068712
000140 92 05 fa 3d fc 4a a3 3d 31 09 42 3e ef 4c 64 3d
       0.12208094 0.079732865 0.18948819 0.055737432
000150 1b fe 74 3d 97 2d bd 3d 14 68 1a 3e 43 30 d3 3d
       0.059812646 0.09237211 0.15078765 0.103119396
000160 aa ab c7 3d 77 f8 ca 3d 3e 42 49 3e 47 43 e5 3d
       0.09749539 0.09910672 0.19654176 0.11194473
000170 7c 3c 9c 3d 57 77 d3 3d 87 5f b2 3d 23 da 64 3e
       0.07628724 0.10325497 0.08709627 0.22348838
000180 68 c9 10 3e 19 37 65 3d a9 19 cc 3d 76 dc ba 3d
       0.1413933 0.05596075 0.09965832 0.09124081
000190 ba dd 80 3d ea 1a 91 3e 26 60 24 3e 69 51 e5 3d
       0.06292291 0.28340846 0.16052303 0.111971684
0001a0 d0 9f 99 3d a5 36 ba 3d b2 73 19 3e f8 a8 54 3d
       0.07501185 0.09092454 0.1498554 0.051918954
0001b0 32 f7 ba 3d 26 cb 93 3d 26 c0 2a 3e 3d 3a 7f 3d
       0.0912918 0.07216482 0.16674861 0.0623114
0001c0 9a 62 87 3d aa a6 6e 3d bd f5 30 3e 90 c8 6b 3d
       0.06610604 0.058264412 0.17281242 0.05756432
0001d0 ec 1e ba 3d 77 6d 02 3e a3 a5 d8 3d a7 ed 54 3e
       0.09087929 0.1273707 0.10578468 0.20793782
0001e0 4a 12 1d 3e 5e 73 14 3d 26 8c 11 3d f5 4c 79 3d
       0.15339008 0.036242835 0.035534047 0.060864408
0001f0 f1 a8 16 3e b7 16 4f 3e 8a 29 5f 3d 4a 62 c0 3d
       0.14712884 0.20223509 0.054482974 0.09393747
000200 d4 dd a4 3d 3f 88 56 3d f0 76 a4 3d 17 6b 97 3d
       0.08050123 0.05237603 0.08030498 0.07393473
000210 98 fb bd 3d 35 0e 9b 3d bc 50 93 3d 0e 9f 6b 3d
       0.09276503 0.07571069 0.07193133 0.057524733
000220 f4 4f 29 3d 6d c5 9e 3d 70 a4 83 3d 67 06 a7 3d
       0.041336015 0.077525 0.06427848 0.08155518
000230 62 58 cf 3d ed 19 ba 3d f6 b4 91 3d 25 d6 a3 3e
       0.101242796 0.09086976 0.07114594 0.31999317
000240 78 66 88 3e c3 16 5c 3e 1a 19 10 3e d6 ba aa 3d
       0.26640677 0.21493058 0.14072075 0.083364174
000250 8d 68 ec 3d 28 43 f8 3d 87 b9 2b 3e aa 0f fb 3d
       0.11543379 0.12122184 0.16769992 0.12258847
000260 d2 63 17 3d a9 da 09 3e 4f 17 50 3d 18 c9 ad 3d
       0.03696043 0.13462318 0.05080348 0.08485621
000270 e4 d5 95 3d 2b 56 ea 3d a7 dc 88 3d 6f ae 9b 3d
       0.07316187 0.114422165 0.06682711 0.0760163
000280 8c 81 d4 3d 8a 31 5c 3d f7 39 c1 3d 77 ce e2 3d
       0.103762716 0.05375818 0.09434884 0.11074536
000290 fc 7c b9 3d 64 77 57 3e 31 5b c2 3e 9f 1c cc 3d
       0.09057042 0.21041638 0.379602 0.099663965

trunk.0.depthwise.norm.weight f4 [168]
000000 f8 03 16 3f 3d 6a bf 3e c4 28 d6 3e 7e 07 e2 3e
       0.58599806 0.3738574 0.41827977 0.4414634
000010 28 fe d1 3e 31 c3 90 3e 60 69 0a 3f 7e e3 ed 3e
       0.41014218 0.2827392 0.5406704 0.46462625
000020 52 90 21 3f bc 17 2b 3f a3 93 02 3f 05 28 fc 3e
       0.6311084 0.6683309 0.51006526 0.49249282
000030 0c c6 b9 3e 7d 33 7d 3f 05 da f2 3e 79 22 b6 3e
       0.3628391 0.9890669 0.4743196 0.35573176
000040 35 a0 b6 3e 12 49 19 3f 0f ba fd 3e 21 34 00 3f
       0.35669103 0.5987712 0.49556014 0.5007954
000050 82 2d b4 3e 31 b0 f6 3e 94 a6 20 3f 94 a8 b3 3e
       0.3519097 0.48181298 0.6275418 0.35089552
000060 e6 de f5 3e 17 f7 df 3e de ea 14 3f 08 57 1f 3f
       0.4802162 0.43743202 0.5817088 0.62242174
000070 29 d1 e0 3e 36 41 b2 3e 48 bb ff 3e ca 83 cc 3e
       0.43909577 0.34815377 0.49947572 0.39944297
000080 50 93 b5 3e b5 94 00 3f 28 33 28 3f 6d 07 10 3f
       0.35463953 0.5022691 0.6570306 0.5626133
000090 5f 81 b7 3e 7e 57 d9 3e b1 6b 14 3f 6e 10 01 3f
       0.3584089 0.42449564 0.57976824 0.50415695
0000a0 cb 8e c8 3e de aa cc 3e 11 a3 ee 3e f4 4b d3 3e
       0.39171442 0.3997411 0.46608785 0.41268885
0000b0 3d 05 06 3f 28 6b 20 3f bf 66 c9 3e 59 2e cf 3e
       0.52351743 0.6266351 0.39336202 0.40465048
0000c0 85 14 e4 3e 44 24 bf 3e f5 dc 0d 3f e1 d4 e9 3e
       0.44546905 0.37332356 0.5541528 0.45670226
0000d0 0c 06 f8 3e 75 dd 6d 3e d9 37 32 3f 51 7d d0 3e
       0.48442113 0.2322901 0.69616467 0.4072061
0000e0 57 a6 c3 3e 8a cb 01 3f 5e 23 1b 3f 2f a2 f6 3e
       0.38212845 0.507012 0.6060084 0.4817061
0000f0 37 0f f0 3e 69 14 10 3f ea 92 8f 3e 1a 28 20 3f
       0.46886608 0.56281143 0.28041774 0.6256119
000100 f1 ac fb 3e 4b 07 e1 3e 57 b5 c4 3e 42 62 0e 3f
       0.4915538 0.43950877 0.384196 0.5561868
000110 d3 99 ba 3e 2b 22 e7 3e 06 7b b3 3e c7 33 f3 3e
       0.36445484 0.45143256 0.35054797 0.4750044
000120 a4 ac d7 3e 54 ba 03 3f c5 85 de 3e 3a f2 cd 3e
       0.42123902 0.5145619 0.43461433 0.40223867
000130 e8 eb 0a 3f 15 60 95 3e 50 3c c4 3e 34 e4 49 3f
       0.54266214 0.29174867 0.38327265 0.78863835
000140 60 af f1 3e 30 a4 cb 3e 2b e8 c1 3e eb a6 c2 3e
       0.47204113 0.39773703 0.37872443 0.38017973
000150 1a 69 a2 3e 78 d5 0e 3f b0 0d de 3e bf 1b 5d 3f
       0.3172081 0.5579448 0.43369818 0.8637046
000160 fa 20 fd 3e 5b 3d 08 3f b7 86 1e 3f 43 31 45 3f
       0.49439222 0.5321862 0.6192431 0.7702829
000170 c1 c8 d0 3e 96 21 d6 3e ad 4d f1 3e f0 7e 1e 3f
       0.40778163 0.418225 0.47129574 0.6191244
000180 5d 86 03 3f 97 29 ab 3e 53 39 da 3e 27 b6 c7 3e
       0.513769 0.33430168 0.4262186 0.3900616
000190 36 db b9 3e b2 c9 ee 3e 4d ee 14 3f 83 05 01 3f
       0.36300057 0.46638256 0.5817612 0.50399035
0001a0 99 25 ee 3e 54 63 11 3f 14 b3 02 3f d6 22 f1 3e
       0.4651306 0.5679219 0.510545 0.4709689
0001b0 e5 2a f5 3e bf 88 0d 3f 4d 9e 28 3f d2 63 f0 3e
       0.47884288 0.5528678 0.6586655 0.46951157
0001c0 73 ac d5 3e f0 38 e0 3e 63 72 f2 3e 40 fc 02 3f
       0.4173313 0.4379344 0.47352895 0.5116615
0001d0 27 3a af 3e 23 a6 d6 3e 5c 25 f4 3e f1 b3 f7 3e
       0.34224054 0.41923627 0.47684753 0.48379472
0001e0 06 36 f2 3e e1 24 b8 3e 25 51 ba 3e f7 29 1d 3f
       0.47306842 0.35965636 0.36390033 0.6139216
0001f0 d1 1c 03 3f f3 00 09 3f 8c 6a ed 3e d7 6a 14 3f
       0.51215845 0.53517073 0.4637035 0.57975525
000200 b0 d6 2d 3f 2a a3 fc 3e 2f af f7 3e 06 48 1c 3f
       0.6790571 0.49343234 0.48375842 0.610474
000210 da 17 e0 3e d7 38 e3 3e 6e 0a e0 3e 90 b2 f7 3e
       0.43768197 0.44379303 0.43757957 0.4837842
000220 e0 0c bb 3e 36 f6 fc 3e 77 75 cd 3e 16 f8 dc 3e
       0.3653326 0.49406594 0.4012868 0.43158025
000230 cd ff 06 3f 35 2c 1b 3f 1f 18 06 3f 0a 13 d0 3e
       0.5273407 0.6061433 0.52380556 0.40639526
000240 e8 66 3f 3f 1f de 1d 3f f7 f5 2f 3f 8b 86 ee 3e
       0.747664 0.61667055 0.6873469 0.46587023
000250 a0 42 eb 3e ee 3c 1d 3f c1 a3 14 3f b2 3f fc 3e
       0.45949268 0.61421096 0.5806237 0.49267346
000260 3a 19 12 3f 50 58 c9 3e 17 41 be 3e 28 78 c9 3e
       0.5706974 0.3932519 0.37159035 0.39349484
000270 da b9 19 3f c1 49 b5 3e b0 23 03 3f 42 fe c5 3e
       0.6004921 0.35407832 0.5122633 0.38670546
000280 c3 5a f6 3e 7b 2a f9 3e e2 1c 03 3f 49 4a 59 3f
       0.4811612 0.48665223 0.51215947 0.84878975
000290 02 c1 01 3f 0b 60 41 3f c5 46 18 3f be 38 9f 3e
       0.5068513 0.75537175 0.59482986 0.31097978

trunk.0.depthwise.norm.bias f4 [168]
000000 7b d2 26 3e 26 4f 22 3e db aa a6 bc eb 01 69 3e
       0.1629123 0.15850505 -0.020345142 0.22754638
000010 1c 4c 59 3e 53 b5 cc 3d 41 d8 2e 3e 8a 12 10 bd
       0.2122044 0.09995522 0.17074682 -0.03517393
000020 14 1b 32 3e 53 cf 49 3e 5a ba 39 3e d3 62 a7 3d
       0.17393142 0.19707994 0.18137494 0.08173146
000030 97 d0 f4 3d 96 2f 75 bc 7a a2 17 3e 40 c1 49 3e
       0.11953848 -0.014964959 0.14808074 0.19702625
000040 c3 7f 77 3e e0 3c 90 3e f0 5e b3 3e 7c b4 55 bc
       0.24169831 0.28171444 0.3503337 -0.013043519
000050 94 67 f7 3d e4 7b 2e 3e 70 cf 77 3e f3 f5 04 3e
       0.12080303 0.17039448 0.24200225 0.12984447
000060 e0 86 2e 3e 1a d1 f8 3d 76 2d 66 3e e3 4e 87 3e
       0.17043638 0.12149258 0.2247828 0.26427373
000070 f4 ea 72 3d 18 33 63 3d 62 9b 3f 3e 5f b4 cc 3d
       0.0593061 0.05546865 0.18711618 0.099953406
000080 e9 58 8b 3d 59 3c 77 3e 54 3c 36 3e 1b 2b 4e 3e
       0.06804068 0.24144115 0.17796451 0.20133631
000090 49 4c 3b 3e 4a 79 d2 3d 04 e3 c8 3d 82 5d d6 3d
       0.18290819 0.1027704 0.09808925 0.10467054
0000a0 b8 96 e9 bd 47 2f 72 3e da ba 58 bd 17 10 8b bd
       -0.114057004 0.23650847 -0.05291257 -0.06790178
0000b0 67 af 7c 3d bf 6f f5 bd fc a6 6e 3e 9d 9f cd 3d
       0.061690714 -0.119842045 0.23305887 0.100402094
0000c0 51 51 04 3e b6 95 24 3e 92 17 0a 3d 73 4e 37 bd
       0.12921645 0.16072735 0.033713885 -0.04475255
0000d0 72 74 6a 3e 3d 86 46 3e e3 0e 3c 3d ab 94 c0 bd
       0.22895983 0.19387145 0.045912635 -0.09403356
0000e0 90 50 69 bc 4a 76 d7 3d 04 1d 39 3e a7 fc b9 3e
       -0.014240399 0.10520609 0.18077475 0.3632557
0000f0 df 1d 57 3d 2f b7 3d 3e 03 53 0b 3e b8 d9 0a 3e
       0.05251872 0.1852691 0.13605885 0.13559616
000100 b8 5f ea 3c ed 61 8b 3d c5 6e 1f 3c e7 65 49 3e
       0.028610095 0.06805787 0.009730999 0.19667779
000110 b9 75 b8 3d eb 59 23 3e 91 66 37 3e 44 77 1b be
       0.09006829 0.1595227 0.1791022 -0.15182215
000120 fc df 43 3d 0e 02 7f be 4c c9 66 3e 3d 7c c3 3e
       0.04782103 -0.24903128 0.22537726 0.38180724
000130 71 c5 89 3e bb 81 25 3e 16 24 a7 3d ac b3 7b 3e
       0.26908448 0.1616277 0.0816118 0.24580258
000140 46 5e 1c 3e ee f7 f3 3b f4 88 1e 3e 1f 26 21 3e
       0.15270337 0.007445327 0.15481931 0.15737198
000150 4e dc 03 3e 43 ed c2 3d 79 3c 3e 3d 09 28 2e 3e
       0.12877008 0.0951791 0.04644439 0.1700746
000160 8f a3 20 3e 60 45 8b 3d 0c b4 3c 3d 2f 6d 29 be
       0.15687393 0.068003416 0.046070144 -0.16545556
000170 41 8e 45 3d c7 f0 cc 3d 3e 47 d9 3c d4 9a 05 3e
       0.048231367 0.10006862 0.026523229 0.13047343
000180 7b 7b 59 3e e0 eb 08 3e 6a 8c 95 3c 8d c4 8c 3d
       0.2123851 0.13371229 0.018255431 0.068734266
000190 fd 97 38 3d ba 63 9d 3d 1a 76 76 3e c2 99 23 3e
       0.045066822 0.07685037 0.2406849 0.15976623
0001a0 68 bb 6f 3d e9 e9 86 3e 9d f9 c5 bc da 21 8f bd
       0.058528334 0.26350334 -0.024166876 -0.069888785
0001b0 de b2 4d 3e ca f9 b4 3d bb 89 e2 bd 50 2a d0 3d
       0.20087764 0.08836706 -0.11061426 0.101643205
0001c0 81 f5 a0 3d 0f e2 35 3e 58 1b c0 3d a2 11 23 bb
       0.07859326 0.17762016 0.093802154 -0.0024882336
0001d0 05 c7 5f 3e 12 6f 3b be 3d f9 6c 3d 71 6a 7b 3e
       0.21853264 -0.18304089 0.05785488 0.24552323
0001e0 9b 6c f7 bc b1 b6 1f 3e e4 26 80 3e 6c 9c 52 3e
       -0.030203154 0.15597035 0.2502967 0.20567483
0001f0 a0 a5 75 3e c9 35 d5 3d e4 dc 0b 3e 6a 09 ae 3e
       0.23988962 0.10410649 0.13658482 0.33991557
000200 8b d0 74 3d 99 72 9b 3d 8e 31 9f bc 0d 33 12 3e
       0.059769195 0.07590217 -0.01943281 0.14277287
000210 f4 ba 54 3e 88 09 6a 3e 2b 08 23 bd 28 a7 90 bd
       0.20774442 0.22855198 -0.03980271 -0.070631325
000220 ce 01 31 3e da 40 93 3d dd 78 02 3e ad 63 8f 3d
       0.17285845 0.07190104 0.12741418 0.070014335
000230 01 61 93 bb 71 2c 77 3e 0a b0 b4 3d d3 48 66 3d
       -0.0044976478 0.24138047 0.08822639 0.056221794
000240 f5 9d da 3d 58 41 6f 3e 95 f2 80 3e ad 14 3f 3e
       0.10674659 0.2336477 0.25185075 0.18660231
000250 2a 52 0e 3e a5 6d 8b 3e 79 72 31 3d e5 be 44 3c
       0.1389853 0.2723209 0.04332206 0.012008403
000260 9f cb 2d 3e 2d e7 18 3e c7 8f d2 bd f8 4d 77 bd
       0.16972207 0.14931937 -0.102813296 -0.06037709
000270 09 27 48 bd f0 af 11 3e 4d eb 84 3e 39 fb f6 3d
       -0.04886535 0.14227271 0.2596077 0.12059636
000280 11 31 c7 3d fe 78 16 3e 6c d5 aa 3e 46 09 d3 3e
       0.097261555 0.14694592 0.33365953 0.41218013
000290 c9 5a 91 3d bf ff 11 3e 0f 7d f7 3d 0a 41 61 3e
       0.07097394 0.14257716 0.120844 0.21997467

trunk.0.depthwise.norm.running_mean f4 [168]
000000 2a 0b 9c 3a 65 f7 ff 3c d1 28 5e 3d b6 52 b2 3d
       0.0011905183 0.031245897 0.054238144 0.08707182
000010 d4 03 62 3c de d5 64 3d 89 7d a0 3d 1e e8 b3 3d
       0.013794858 0.055868022 0.07836444 0.08784507
000020 4a d9 33 3d 57 9a ae 3d 55 81 77 3d 73 a7 8d 3d
       0.043908395 0.08525532 0.060426075 0.06916704
000030 f6 d0 39 3b b6 24 a7 3d 40 a3 d6 3d e8 53 b5 3b
       0.002835331 0.08161299 0.10480356 0.005533684
000040 2a 14 bd 3c 23 85 75 3d 3f d2 c7 3c ac a2 aa 3d
       0.023080904 0.059941422 0.024392245 0.083318084
000050 9e cd 04 3d 5b 5c a3 3d cb aa a2 3d 9a 1e ff 3b
       0.032422654 0.079766 0.079427324 0.0077856304
000060 6d 70 79 3b 88 5d 9f 3d 5b f5 8e 3d 04 54 43 3c
       0.0038061396 0.077815115 0.069803916 0.011921886
000070 72 b1 a0 3d 04 ef 17 3a c9 9f 94 3d 05 b4 8e 3d
       0.07846345 0.0005795809 0.07257039 0.0696793
000080 2c 8e cd 3c ed 80 01 3e 66 58 66 3d 83 c9 88 3d
       0.025092207 0.12646838 0.056236647 0.0667906
000090 8c 6f 86 3b f6 2d 1c 3b da 9b 94 39 49 9c ca 3c
       0.004102653 0.0023831106 0.00028344878 0.024732726
0000a0 9a 6c 9b 3d 9f 2e 44 3b e2 b8 18 3c a1 2a b7 3d
       0.075890735 0.0029935015 0.009321423 0.08943678
0000b0 f6 be a5 3d db 50 65 3c d7 c8 8d 3d 3e 22 8a 3d
       0.080930635 0.013996328 0.06923073 0.067448124
0000c0 0e 44 a6 3c d9 b8 90 3b 87 e7 9d 3d 5a 3f 18 3c
       0.020296123 0.004416567 0.07710176 0.009292448
0000d0 dd d0 6c 3d 27 ec 7f 3d f9 d2 50 3b 3c 94 ff 3c
       0.057816375 0.06248107 0.003186403 0.031198613
0000e0 cf 34 cf 3c 72 36 e4 3c 82 09 60 3d 86 1b c4 3c
       0.025293736 0.027857993 0.054696567 0.023938905
0000f0 12 77 3e 3d 80 c7 c7 3c c9 8d 9d 3d 92 e4 b1 3c
       0.046500273 0.024387121 0.07693059 0.021715436
000100 82 2f 05 3d cc ff fc 3c d7 4b 0b 3c 2b 6b a3 3d
       0.03251601 0.030883692 0.008501968 0.07979425
000110 7d 42 9b 3d a6 a3 24 3d 5e d7 80 3d 8e 63 a3 3d
       0.07581041 0.04019513 0.06291078 0.07977973
000120 44 8a a2 3d 2d 7b b8 3d 47 6a 54 3d e0 5f 75 3d
       0.07936528 0.09007869 0.051859166 0.059905887
000130 4a 83 a0 3d 44 19 90 3b 4b 6a 4e 3c f5 e7 4d 3d
       0.078375414 0.004397543 0.012598584 0.05027004
000140 c4 96 3a 3b bb 67 87 3c 48 e9 a4 3b d8 8c 36 3d
       0.002847121 0.016528955 0.005032692 0.044567913
000150 d3 2e 88 3d f8 99 25 3d 0c 83 85 3d b0 c3 f4 3c
       0.06649556 0.04043004 0.06519136 0.029878467
000160 9a 94 ca 3c fa 91 bb 3c 4e b3 b8 3d 1e 9f be 3d
       0.024729062 0.022896755 0.09018575 0.09307693
000170 3e ab 53 3c e3 1f 6c 3d 69 32 b1 3b 02 a0 9c 3d
       0.012919245 0.057647597 0.0054076207 0.076477066
000180 b6 6a 1b 3c ef 40 09 3c 6b 32 0b 3b 93 15 8d 3b
       0.009485891 0.008377298 0.0021239768 0.0043055504
000190 ce 07 d1 3b dc 4f ef 3c bf 98 7d 3d 23 ab d0 3c
       0.006379104 0.029212885 0.06191325 0.02547223
0001a0 e3 b2 89 3d 50 03 fb 3d d6 ad a9 3d 9d 0e 78 3d
       0.06723573 0.12256491 0.0828511 0.06056081
0001b0 d9 02 36 3d 77 1d 15 3d d3 ee 47 3c 25 1e 5d 3d
       0.04443631 0.036405053 0.012202936 0.053983826
0001c0 48 6d 2e 3c de d4 99 3d ba b5 9d 3d 2d 16 2c 3c
       0.010646172 0.07511304 0.07700677 0.010503334
0001d0 bb 71 85 3d bc 98 01 3d 79 57 b4 3d 12 1f 03 3d
       0.06515833 0.0316398 0.088057466 0.032012053
0001e0 54 20 72 3d 5c 40 6a 3b 43 e3 a8 3b cb 8e f7 3c
       0.05911286 0.0035743928 0.005154045 0.030219456
0001f0 32 06 45 3d 4b 9f ba 3c ac 21 10 3d 8a e0 d2 3c
       0.04810161 0.022781035 0.035188362 0.025741834
000200 90 1f af 3d 8a a0 be 3c 28 41 a9 39 b6 c5 97 3c
       0.08550942 0.02326991 0.00032282737 0.018526893
000210 55 dc 0d 3c 07 57 d2 3c 59 73 d3 3d d7 28 77 3d
       0.008658488 0.025676263 0.10324735 0.060341682
000220 65 39 b1 3b 40 a6 cc 3c 20 67 b3 3d c2 2b 6d 3b
       0.0054084533 0.024981618 0.08759904 0.0036189412
000230 78 0f c0 3c 1b 07 97 3d b3 89 54 3d ee 88 31 3d
       0.023444876 0.07374402 0.051889133 0.043343477
000240 ab fa 9b 3d a2 1d a6 3d 1e 31 c0 3d cd 8d 41 3c
       0.076161705 0.08111121 0.09384368 0.011813593
000250 9e 98 09 3d ed 9b e2 3c e0 c0 e6 3c 30 bb 47 3d
       0.033592813 0.027662242 0.028168142 0.0487625
000260 03 c4 da 3d 19 56 f9 3b 5e a5 bf 3c fb bc 76 3c
       0.106819175 0.0076091406 0.023394283 0.015059705
000270 d0 56 fd 3c 02 14 70 3c c0 8a 6a 3d e6 82 34 3c
       0.030925184 0.014653208 0.05726123 0.011017537
000280 49 66 ac 3b ba 05 b7 3d 20 bc bf 3c 20 b9 58 3d
       0.005261217 0.08936639 0.023405135 0.052910924
000290 a7 ae aa 3d 05 a8 d4 3c 9b 4d b5 3d 54 0d 95 3c
       0.083340935 0.025959024 0.08852693 0.018194832

trunk.0.depthwise.norm.running_var f4 [168]
000000 a9 1e 21 38 c2 25 9b 3b 38 9b 1a 3c 3a 11 ba 3b
       3.8413946e-05 0.0047347257 0.009436421 0.005678323
000010 59 89 9c 3a d8 56 20 3c 50 29 c0 3c 33 f5 11 3c
       0.0011942788 0.00978633 0.0234572 0.008908558
000020 1b 14 38 3b 12 3e 82 3c 95 b1 68 3b 98 44 34 3b
       0.0028088156 0.015898738 0.0035506238 0.0027506705
000030 8d 35 d8 38 cc 31 6f 3c bf 13 80 3c a6 69 59 39
       0.00010309657 0.014599275 0.015634416 0.0002073409
000040 c4 f6 3b 3a 4b 1d 70 3c b0 25 1a 3b e4 92 25 3c
       0.0007170255 0.0146554215 0.0023520999 0.010105822
000050 13 fd 4f 3c 00 a4 94 3c 0e 67 b8 3c 9c ea b6 39
       0.012694615 0.018144608 0.022510078 0.00034888543
000060 ce fc 13 39 54 c7 52 3c fa 04 91 3c 9c a7 1b 3a
       0.0001411319 0.012864906 0.017702568 0.00059377565
000070 52 f1 98 3c 01 a5 01 37 a0 75 9d 3c f8 0b ca 3b
       0.018669758 7.727417e-06 0.019221127 0.0061659776
000080 29 df 04 3b 33 32 3d 3d 6d 10 5b 3c 71 69 5d 3c
       0.0020274615 0.04619045 0.013370615 0.013513909
000090 52 d5 0a 3a 61 d9 87 38 d8 b3 3f 3c be 99 7a 3b
       0.00052960694 6.4777916e-05 0.011700593 0.003823861
0000a0 d2 a2 df 3b 50 08 8d 38 49 f0 a2 39 c5 50 38 3c
       0.0068248296 6.724952e-05 0.00031078074 0.011249726
0000b0 0e 4d 2d 3c 0d 8f 1d 3c a1 d8 84 3b 1c 79 88 3b
       0.010577453 0.0096166255 0.0040541445 0.004164828
0000c0 57 90 b7 3a b4 df 26 39 1b 48 28 3c ae ff 2c 3b
       0.0014004809 0.0001591433 0.0102710975 0.0026397514
0000d0 f2 a2 8d 3b cd e5 1e 3b a0 e6 cf 3a 36 53 94 3b
       0.004322403 0.0024245859 0.0015861578 0.004526521
0000e0 41 bf 94 3a 4f e3 1d 3b be 8e 99 3b 62 6b 15 3b
       0.0011348502 0.0024091785 0.0046862056 0.00227996
0000f0 be 73 0e 3c d2 55 10 3b 05 d7 b6 3b eb e8 0d 3b
       0.008694587 0.002202381 0.0055798315 0.0021653723
000100 ec 67 92 3b 51 f2 3a 3b df 01 c7 39 be 96 ac 3c
       0.004467955 0.002852578 0.00037957632 0.021067973
000110 b2 3d 5a 3b c6 11 2f 3c 46 5e 57 3b 88 18 12 3c
       0.0033300933 0.01068539 0.0032862588 0.0089169815
000120 33 25 b4 3b ab 5a 87 3c b7 18 b3 3b 98 ef 38 3b
       0.0054975986 0.016522726 0.0054655927 0.002821898
000130 bd 31 3b 3c 9a 79 18 39 cc 47 e5 3a e7 9c 0d 3c
       0.011425433 0.0001454115 0.0017492711 0.008643365
000140 61 56 89 38 70 57 8d 3a 32 51 27 39 f1 7f 89 3b
       6.5487584e-05 0.0010783505 0.00015956609 0.00419616
000150 85 1a 13 3c 66 81 d7 3b b4 1f 72 3b fc 1e 85 3b
       0.008978491 0.006576705 0.0036945166 0.0040625315
000160 97 07 26 3b a3 18 c1 3c ab 43 f0 3b da f6 a5 3c
       0.0025334114 0.023571318 0.0073322854 0.02025931
000170 16 5b 62 3a 4a a9 85 3b bd b1 bd 3a d0 2c 6b 3c
       0.00086347887 0.0040790187 0.0014472526 0.014353946
000180 da 84 25 3a 16 31 db 39 f7 7e 80 38 e9 76 65 39
       0.0006314047 0.00041807507 6.127165e-05 0.0002188344
000190 ef 33 6f 39 9a 8b 35 3b 00 7a 7b 3c ff a6 20 3b
       0.00022812163 0.0027701617 0.015348911 0.00245136
0001a0 00 be b7 3b 52 bf 86 3d 6b 22 ab 3c db 4a 11 3c
       0.0056073666 0.0657946 0.020890435 0.008867945
0001b0 74 9d 3f 3c f8 30 92 3b f1 b4 33 3a be 17 f2 3b
       0.011695255 0.004461404 0.00068552705 0.007388084
0001c0 49 79 0b 3a 9c f2 8a 3b bb eb 7a 3b 9f a8 c7 3a
       0.0005320502 0.004240347 0.003828748 0.0015232748
0001d0 cd 46 6d 3b eb 4c 05 3b 2f 9b 18 3c e4 28 92 3b
       0.003620553 0.0020340036 0.009314342 0.004460441
0001e0 e5 db 4c 3c 10 6b ea 38 30 53 1f 39 9f de 95 3b
       0.012503599 0.000111779314 0.00015194411 0.0045736576
0001f0 ee 6b 19 3c d8 dc 5a 3a 8f 69 b6 3b 00 63 28 3b
       0.009364111 0.00083489483 0.005566783 0.0025693774
000200 ac d7 ae 3c 70 df 84 3b 74 e3 64 37 7d f8 da 3b
       0.021343075 0.004054956 1.3642817e-05 0.006682454
000210 e4 eb 1b 3a b3 11 05 3b 17 44 5e 3c a5 f2 6a 3c
       0.0005947931 0.002030474 0.013566039 0.0143400775
000220 52 8c 23 39 1b 49 b3 3b 54 53 13 3c 55 96 6d 39
       0.00015597165 0.0054713613 0.008992035 0.00022658084
000230 a8 15 33 3c d7 10 71 3c 52 25 60 3c 21 e1 87 3a
       0.010930456 0.014713488 0.013680773 0.0010366776
000240 28 12 87 3c 2e 98 8f 3c 1e cc 39 3c a2 a0 44 3a
       0.01648815 0.01752862 0.011340169 0.0007500743
000250 ac 7e e7 3a fb d6 4c 3b 1c a8 15 3c 03 6b 77 3b
       0.0017661653 0.0031256068 0.009134319 0.0037752993
000260 c1 bb 58 3c 50 42 c2 39 39 2d 4b 3b 7c 2f 58 3a
       0.013228358 0.0003705197 0.0031002297 0.0008246822
000270 af 85 4f 3c da 76 0f 3c d1 52 a7 3b 1b aa 89 3a
       0.01266615 0.008756364 0.005106308 0.0010502966
000280 de 0a e4 39 44 61 d9 3b bf 70 0c 3b af 3a 17 3c
       0.00043495646 0.0066339094 0.0021429507 0.0092303
000290 6d 3b 5d 3c 21 5c 4a 3a 10 d0 af 3c 68 40 df 3a
       0.013502938 0.0007719417 0.021461517 0.0017032744

trunk.0.se.fc1.bias f4 [40]
000000 53 12 4d 3d 12 52 8c 3d 81 5f c1 bc ee 08 e4 3a
       0.050066303 0.06851591 -0.02360511 0.0017397681
000010 49 48 d6 3d a6 7d dd 3b fa c4 ba 3d d4 b2 c9 3d
       0.10463006 0.006759363 0.091196015 0.09848562
000020 bd df d1 3d 40 9d 11 bc 28 46 02 3e 44 4d 92 3c
       0.10247753 -0.008887589 0.12722075 0.017859109
000030 96 13 18 3e 50 a9 eb bc 39 14 a8 3d 8e 43 88 3d
       0.14851221 -0.028767258 0.08206982 0.0665351
000040 28 4d b3 3d ca 4e 0c 3e b6 8c 0c 3c 0d f2 0a bc
       0.08754951 0.1370193 0.00857847 -0.008480561
000050 5e a0 37 3d 83 32 b0 bb 0e 45 e1 bc 4b 72 bc 3c
       0.044830672 -0.005377115 -0.027498748 0.023003718
000060 ee 0b a3 bc a3 e9 7b bd f9 62 85 3d ae 44 04 3d
       -0.01990315 -0.06150211 0.06513018 0.03229206
000070 6e ca 95 bc 7f 52 1f bd 57 92 de 3c 7a 8a e4 3d
       -0.018285003 -0.038897034 0.02716939 0.11159225
000080 de 21 d5 3d ce cc c2 3c c1 aa f9 3d 13 3d 4d bc
       0.1040685 0.0237793 0.12190772 -0.012526768
000090 ce 6e 76 3d d7 f5 9d 3c 19 60 66 ba 14 85 af 3d
       0.060164265 0.019282265 -0.00087881234 0.085703045

trunk.0.se.fc2.bias f4 [168]
000000 08 b3 f0 bd 17 24 e6 bd 64 ff 22 be 12 74 d2 3c
       -0.117528975 -0.11237352 -0.15917736 0.025690112
000010 1c 4e ae bd 60 1a 53 bd 97 15 01 bd 09 86 d1 bd
       -0.08510992 -0.051538825 -0.03151473 -0.10230643
000020 92 54 2c bd bb 74 8a 3c e0 46 d1 3d 4b e8 c8 bd
       -0.04207284 0.016901365 0.102185965 -0.09809931
000030 eb c6 db bd fb 8e 5e bd 19 fe e0 bd d4 0e 45 bd
       -0.107313 -0.054335576 -0.10985965 -0.048109844
000040 0c 0a 0d bd 15 0d bb bd 52 f7 62 3d 85 6f 09 be
       -0.03443341 -0.091333546 0.055411644 -0.13421448
000050 85 e0 80 bd c3 9f 27 be fe a8 8c bd 71 96 b8 bc
       -0.06292824 -0.16369538 -0.0686817 -0.022532674
000060 db 58 fe bc 6b bd 38 be 87 77 87 bd 92 5c c3 3d
       -0.031048229 -0.18041007 -0.06614595 0.09539141
000070 73 3b e2 bb 72 0a fd bd 5f 7a c0 bd f8 b4 07 be
       -0.0069040596 -0.12355508 -0.093983404 -0.13252628
000080 cb 81 8f bd b1 bf db bc a3 bc 08 be 0f e4 40 bd
       -0.07007178 -0.026824804 -0.13353209 -0.047092494
000090 2f ba 9a bd 66 c9 f2 bc af fa c6 bd 34 f3 dd bd
       -0.07555043 -0.02963705 -0.09715783 -0.10837403
0000a0 fb 53 10 be 16 05 a0 bd f8 ca 88 bd 1d b9 b4 bd
       -0.14094536 -0.0781347 -0.06679338 -0.0882437
0000b0 a7 ec 82 bd 68 a8 1b bd 5a 7e 04 be d2 c4 02 bd
       -0.06392794 -0.0380024 -0.12938824 -0.031925984
0000c0 9e 92 02 be 81 86 20 be 6e 9b 47 3d b5 76 c0 bd
       -0.12751243 -0.15676309 0.048732214 -0.093976416
0000d0 45 fd 5d bd 10 02 a9 3c b4 57 6b bd 6e 64 45 bd
       -0.054196615 0.020630866 -0.057456687 -0.04819148
0000e0 f7 02 d6 bd 19 2a a1 bc cb 8d ac bc 9f 96 fc 3d
       -0.10449784 -0.019673394 -0.021063706 0.12333416
0000f0 5c 0a ac bd 53 27 e5 3c 26 e3 10 bd e1 4a d8 bd
       -0.084004134 0.027972853 -0.035372876 -0.10561157
000100 35 35 65 bc 83 e8 22 be d9 a7 8f bd 60 03 4d be
       -0.013989736 -0.15909009 -0.07014436 -0.20020819
000110 62 eb 96 bd 41 73 9d bd f2 74 a4 bc 0e 3b 01 be
       -0.073691145 -0.076879986 -0.020075295 -0.12620184
000120 61 e2 c3 bd a8 52 79 be e4 62 82 3c 82 2a a5 bd
       -0.09564663 -0.24347937 0.015916295 -0.08064748
000130 12 92 b1 bd 48 34 e9 bd c4 aa a3 bd 78 24 04 bd
       -0.08670439 -0.11386925 -0.07991555 -0.03226134
000140 3d 26 f7 bc 84 05 1c bc 37 d8 c2 bd 9c 2b 69 bd
       -0.0301696 -0.009522799 -0.09513896 -0.056926355
000150 a9 e6 14 be cc 78 3c be 45 91 80 3c 38 02 28 bd
       -0.14541115 -0.18405455 0.01569427 -0.04101774
000160 cd 3a dd bd a5 70 e6 bd 93 40 d2 bd 9e 2c 7b be
       -0.10802231 -0.11251954 -0.10266223 -0.24528739
000170 aa 31 3c bd 3b a3 46 bc 6a 6c c1 bc ee c2 6e bd
       -0.0459458 -0.012123878 -0.023611266 -0.05829137
000180 f2 89 35 bc 3b f3 50 bd 98 1e 47 be 72 5b e1 bc
       -0.011080252 -0.051013213 -0.19445264 -0.027509425
000190 91 1c 81 bd 12 30 37 bd 46 85 0e bd d0 b3 11 bd
       -0.06304277 -0.044723578 -0.03479507 -0.035571873
0001a0 9c 0e 68 3d 4b 15 e0 bc 33 42 15 bd 58 c7 b4 bd
       0.056654558 -0.027353903 -0.036440086 -0.08827084
0001b0 c4 9c 89 bd 8e 39 0e be a3 b9 57 bd a1 a5 d5 bd
       -0.06719354 -0.13889143 -0.05266727 -0.10431982
0001c0 e9 90 36 3c 92 5a 27 3d 34 34 81 3b 86 ce f2 ba
       0.011142948 0.04085786 0.0039429907 -0.0018524684
0001d0 08 ca f3 bc ca 0e b9 bd aa cb 13 bd ea d6 98 bd
       -0.029759422 -0.09036024 -0.0360829 -0.074628666
0001e0 49 8c f1 bc 76 21 6b bd e8 0d ca bd 1d 73 a2 bd
       -0.029485838 -0.057404958 -0.09865934 -0.07932112
0001f0 b4 e9 0c be c7 2d dc bc b1 30 04 be b5 cc 07 3e
       -0.13761026 -0.026877297 -0.129092 0.13261683
000200 79 e6 f6 bd d4 d2 16 be 53 7d 3f bd 64 19 8a bd
       -0.12055678 -0.14728862 -0.046750378 -0.06743124
000210 5b de 8c bd 39 7b 79 bd e2 e6 96 bd c5 88 c5 bd
       -0.068783484 -0.06090853 -0.07368256 -0.09645227
000220 47 3f b8 bd ba fd ac 3c 3d f6 11 ba 42 9e b4 bd
       -0.08996444 0.02111708 -0.00055680034 -0.08819248
000230 d9 58 ac bd 9f 2f ef bd 31 71 95 bd a5 71 7b bc
       -0.08415384 -0.11679005 -0.0729698 -0.015346919
000240 b6 e3 2b bd 59 5d 7d bd cf 52 d6 bd 8b 81 a6 bd
       -0.04196521 -0.0618566 -0.10465013 -0.08130177
000250 f7 a0 0f be ed 05 48 be 45 1b 8f bd c1 b7 bf bd
       -0.14026247 -0.1953351 -0.06987623 -0.0936122
000260 02 0f 76 bd 33 f5 4a bd a4 2d d3 bd 97 79 27 be
       -0.060072906 -0.049550246 -0.1031144 -0.16354977
000270 99 77 2f 3d f1 95 bb bd 37 ac b6 bd 08 4e 3e bc
       0.042838667 -0.091594584 -0.08919566 -0.011615284
000280 b4 73 d0 bd 76 0b 0d 3e 20 69 01 3e 73 49 9d bd
       -0.101783186 0.13773903 0.12637758 -0.07680025
000290 c6 80 bb bd 50 71 08 be 9c 29 0a 3d c9 74 62 bd
       -0.09155421 -0.13324475 0.033731088 -0.055287156

trunk.0.project.norm.weight f4 [56]
000000 47 06 9f 3e 3f 87 a3 3e eb 2a c0 3e 79 06 bb 3e
       0.31059477 0.31939122 0.37532744 0.36528376
000010 78 19 a1 3e 5c 18 b2 3e ff 01 b6 3e e8 c9 93 3e
       0.31464744 0.3478421 0.35548398 0.2886498
000020 1e 06 9f 3e 0a c8 c6 3e ee 6c b0 3e 11 bc 9e 3e
       0.31059355 0.38824493 0.34458107 0.31002858
000030 00 f9 a1 3e dc 8d b3 3e 7b 97 be 3e ec 90 c4 3e
       0.31635284 0.35069168 0.37224945 0.38391817
000040 18 6c b8 3e cf 28 b3 3e 42 40 bb 3e 65 94 b4 3e
       0.3601997 0.34992072 0.36572462 0.35269466
000050 38 c8 62 3e bd b5 ba 3e 6f f2 bc 3e 4a c0 b2 3e
       0.2214669 0.3646678 0.36903712 0.3491233
000060 bb 44 90 3e a8 bd 9f 3e 8b ec d7 3e 69 32 ab 3e
       0.28177437 0.31199384 0.42172655 0.33436897
000070 f5 84 b9 3e 28 fd af 3e 3f 0c c6 3e 23 e8 9f 3e
       0.3623425 0.3437283 0.38681218 0.31231794
000080 27 9d d8 3e 9d 16 c9 3e c6 fc 96 3e d6 37 a0 3e
       0.42307398 0.39275065 0.29489726 0.312926
000090 91 b5 8e 3e 0d ce 9b 3e 61 d2 93 3e 52 04 ad 3e
       0.278729 0.30430642 0.28871444 0.3379236
0000a0 a4 3c c0 3e 5d 0d b7 3e e7 fe 9f 3e 93 32 c0 3e
       0.37546265 0.35752383 0.31249163 0.37538585
0000b0 22 81 b7 3e 74 d4 b6 3e d4 20 ea 3e ec 46 dc 3e
       0.35840708 0.35708964 0.4572817 0.4302286
0000c0 70 9b 96 3e 5a a2 da 3e e8 b1 d4 3e 47 87 b6 3e
       0.29415464 0.4270199 0.41541982 0.35650083
0000d0 37 6d ce 3e 4d 03 e1 3e 49 a2 b3 3e 84 9f a2 3e
       0.403177 0.4394783 0.3508475 0.31762326
