splendor/model.onnx (onnx, 580201 bytes, 70 tensors)

first_layer.norm.weight f4 [56]
0	0x3e9dd87e	0.30829233
1	0x3ec0376b	0.3754228
2	0x3ead6af7	0.3387067
3	0x3f3b170d	0.7308205
4	0x3ecdc2f7	0.4018781
5	0x3e190fa0	0.14947367
6	0x3f1ba8ba	0.6080433
7	0x3e9a5ada	0.3014744
8	0x3e701250	0.23444486
9	0x3f0d1c4f	0.5512132
10	0x3e823252	0.25429016
11	0x3edd045c	0.43167388
12	0x3f1de139	0.6167179
13	0x3eea119b	0.45716557
14	0x3e636134	0.22205049
15	0x3ef13ebf	0.47118184
16	0x3e8997b5	0.26873556
17	0x3ef82e19	0.4847267
18	0x3e83630d	0.25661507
19	0x3ec3d45f	0.38247964
20	0x3ebc4395	0.3677031
21	0x3f1d3405	0.614075
22	0x3f431fb0	0.76220226
23	0x3efb2bf5	0.49056974
24	0x3ed2e241	0.41188243
25	0x3ec46072	0.38354832
26	0x3ef8d8a7	0.48602793
27	0x3f135a2a	0.57559454
28	0x3f14b687	0.58091015
29	0x3f5b92b4	0.85770726
30	0x3f6243aa	0.883845
31	0x3f3873a6	0.72051466
32	0x3f26bee5	0.6513503
33	0x3f2d791c	0.67762923
34	0x3eec9c2b	0.46212897
35	0x3f0d7267	0.5525269
36	0x3f53b607	0.82699627
37	0x3e611160	0.21979284
38	0x3e3ee322	0.18641332
39	0x3ec7c6ac	0.39018762
40	0x3e9984c6	0.2998411
41	0x3ebdea81	0.37092975
42	0x3e9766b2	0.29570538
43	0x3e804dbb	0.25059304
44	0x3f1527e9	0.58264023
45	0x3f0a1d12	0.5395061
46	0x3f13f7d2	0.5780002
47	0x3e99ca6a	0.30037242
48	0x3f0d7e4a	0.55270827
49	0x3ecdd822	0.4020396
50	0x3ecce089	0.40015057
51	0x3f06d863	0.5267393
52	0x3eca9b8a	0.39571792
53	0x3e912ca0	0.2835436
54	0x3e972ce5	0.2952644
55	0x3f29016a	0.6601778

first_layer.norm.bias f4 [56]
0	0x3bd9b637	0.006644036
1	0xbcda794b	-0.026669165
2	0xb9dc586e	-0.00042027555
3	0x3d7f1c48	0.06228283
4	0xbc9d1dfc	-0.019179337
5	0x3cc5d36c	0.024148665
6	0x3d2de03a	0.042450167
7	0x3ca14e32	0.019690607
8	0x3c4d4a61	0.01252994
9	0xbbe43584	-0.0069643874
10	0x3ca4cd4d	0.020117426
11	0xbc9421ec	-0.018082581
12	0x3b889189	0.00416774
13	0xbb9fe922	-0.0048800865
14	0x3caccde8	0.021094278
15	0xbcc4f18c	-0.02404096
16	0xbc93a811	-0.018024476
17	0x3c36ad42	0.011149706
18	0xbbe68f46	-0.0070361225
19	0x3bb2f9c6	0.005461904
20	0x3caaf6f3	0.020869708
21	0xbcc0b118	-0.023521945
22	0x3d829b71	0.06377304
23	0x3bddae79	0.0067651835
24	0x3d312909	0.043252025
25	0x3bce78ef	0.0063010375
26	0xbcd95257	-0.02652852
27	0xbcde7ff7	-0.027160628
28	0x3cee7102	0.02910662
29	0x3a9c60a9	0.0011930662
30	0xbe3685a4	-0.17824417
31	0xbd216747	-0.039405134
32	0xbc9e88e6	-0.019352388
33	0xbd17351f	-0.036915895
34	0x3c40d962	0.011770578
35	0x3c3403f1	0.010987268
36	0xbc89c296	-0.016816419
37	0x3cc251db	0.023720672
38	0x3c8fae85	0.017539272
39	0x3cafb1b3	0.021447038
40	0x3bbb11d3	0.005708912
41	0xbc0f1d19	-0.008734965
42	0xbcd0c471	-0.025484296
43	0x3c3aed62	0.011409136
44	0xbb08aa39	-0.0020853414
45	0x3b5f8659	0.0034107177
46	0x3c6920ec	0.014229041
47	0x3c612a87	0.013743049
48	0xbc55e4a2	-0.013054999
49	0x3bc1f058	0.005918544
50	0xbbce820a	-0.006302123
51	0x3ccd2ebe	0.025046702
52	0x3ba883b0	0.0051426515
53	0x3c85e7fe	0.016345974
54	0xbbad2276	-0.005283649
55	0xbd25b7ba	-0.04045842

first_layer.norm.running_mean f4 [56]
0	0xbd005f24	-0.031340733
1	0xbeff93e9	-0.49917534
2	0xc0191d1a	-2.3924012
3	0xbfd08b56	-1.6292522
4	0x3fad13b1	1.3521634
5	0xbee84623	-0.4536601
6	0x3fd8e256	1.6944072
7	0xbffcf34f	-1.9761752
8	0xbf9a6e0d	-1.2064835
9	0x3e665eef	0.22497152
10	0x404c17ac	3.1889448
11	0x3f000c4f	0.5001878
12	0xbf80a976	-1.0051715
13	0xc01500ed	-2.3281815
14	0x3e9cb6a2	0.30608088
15	0x3c77a1a3	0.015114221
16	0x3f56f1b0	0.83962536
17	0x3f8b0428	1.0860643
18	0xbc9c59bd	-0.01908576
19	0xbf8be0cc	-1.0927978
20	0x3f626866	0.8844055
21	0x3e0fa098	0.14026105
22	0xc04c38a6	-3.1909575
23	0xc0038512	-2.054997
24	0x3fa8486a	1.3147099
25	0xc0242775	-2.5649083
26	0x3f30bc50	0.6903734
27	0xbf5bff8e	-0.8593682
28	0xbdd7613d	-0.105165936
29	0xbf765cd8	-0.9623542
30	0x4097e668	4.746876
31	0x400439ef	2.066036
32	0x3ea4743e	0.32119936
33	0x3fbdf2cf	1.4839724
34	0x400ec67a	2.230864
35	0xbe4e5a04	-0.20151526
36	0x400ad1d1	2.1690562
37	0x3eb7ef76	0.35924882
38	0xbf00f29b	-0.50370187
39	0xbf8d8505	-1.1056219
40	0xbfabeebd	-1.3432232
41	0xbef4ea78	-0.47835135
42	0xbf2bf82f	-0.67175573
43	0xbf550594	-0.83211637
44	0x3fb2ee07	1.397889
45	0x40251b80	2.5798035
46	0x3f9d6335	1.22959
47	0xbf9b1504	-1.2115788
48	0x3f81bb18	1.0135221
49	0xbf8fff3e	-1.1249769
50	0x3f47c73f	0.780384
51	0xbf3ed88d	-0.7454918
52	0xbdf279dc	-0.11839649
53	0x3f17f439	0.5935703
54	0xbf8731cb	-1.0562071
55	0x3eabf3e5	0.33584514

first_layer.norm.running_var f4 [56]
0	0x3f96b59f	1.1774176
1	0x4018c0db	2.386771
2	0x41042907	8.260016
3	0x40347ace	2.8199954
4	0x40a81884	5.2529926
5	0x4197cf78	18.976303
6	0x403e804d	2.9765809
7	0x40c921bc	6.285368
8	0x40aec422	5.461442
9	0x3f7eb444	0.99493814
10	0x413ef99b	11.935939
11	0x3fcc2218	1.5947905
12	0x400c3450	2.190693
13	0x409189fb	4.5480933
14	0x4017bd7f	2.370941
15	0x3fde92b3	1.7388519
16	0x41163209	9.387216
17	0x41b72b50	22.896149
18	0x4090ef14	4.5291843
19	0x404a5d49	3.1619437
20	0x40841c3c	4.1284466
21	0x400589f2	2.0865445
22	0x4028acdb	2.6355503
23	0x402817e7	2.626459
24	0x41a4f11d	20.617731
25	0x40f964d5	7.7935586
26	0x4120088e	10.002089
27	0x3fa3d186	1.2798316
28	0x402496d0	2.5717049
29	0x3fb5c080	1.4199371
30	0x40db4b04	6.852907
31	0x40733673	3.8001983
32	0x401d140f	2.4543493
33	0x408a9c15	4.331553
34	0x4030c8c9	2.762255
35	0x3fa5728c	1.2925582
36	0x3fedf4a2	1.8590281
37	0x4087acbd	4.239836
38	0x4128cc86	10.5499325
39	0x404179eb	3.0230663
40	0x41068545	8.4075365
41	0x401d2d1f	2.455879
42	0x417a7c28	15.655312
43	0x3ff60d35	1.922278
44	0x3fd06a8b	1.6282514
45	0x41115d65	9.085301
46	0x402b109a	2.6728883
47	0x402d182e	2.7046008
48	0x400e7828	2.2260838
49	0x402d2c49	2.705828
50	0x3fede465	1.8585325
51	0x3feda4bd	1.8565899
52	0x409c4fcc	4.884741
53	0x41257e45	10.3433275
54	0x4205bdee	33.43548
55	0x3fb67895	1.4255549

trunk.0.expand.norm.weight f4 [159]
0	0x3f30510e	0.6887368
1	0x3f48d3b0	0.7844801
2	0x3f49eaf6	0.78874147
3	0x3ebb043a	0.36526662
4	0x3ec856d6	0.3912875
5	0x3f0a17f4	0.539428
6	0x3f2f1387	0.6838917
7	0x3f1577d1	0.5838595
8	0x3f49f6cd	0.78892213
9	0x3ef8b5b2	0.48576123
10	0x3f28ba0f	0.659089
11	0x3ee8692c	0.4539274
12	0x3f3ef105	0.74586517
13	0x3ecc4a97	0.39900658
14	0x3ef6be7e	0.4819221
15	0x3f3bdd5b	0.73384637
16	0x3f2fc7b6	0.6866411
17	0x3efb3c86	0.49069613
18	0x3f37aa96	0.7174467
19	0x3ed8b094	0.42322218
20	0x3f327e40	0.6972389
21	0x3f0a50f6	0.54029787
22	0x3f0b2a94	0.54361844
23	0x3f47dd93	0.7807247
24	0x3efa279d	0.48858348
25	0x3f133595	0.57503635
26	0x3f03ba9d	0.51456624
27	0x3f31270e	0.6920022
28	0x3f15d491	0.58527476
29	0x3ebc0f3c	0.36730373
30	0x3f0044bb	0.50104874
31	0x3f2755c5	0.6536525
32	0x3f26468e	0.6495141
33	0x3f12a7bb	0.57287186
34	0x3f043bc7	0.51653713
35	0x3f26098b	0.6485831
36	0x3f118e00	0.568573
37	0x3eb91bfb	0.3615416
38	0x3f3ecc91	0.74530894
39	0x3f4034fe	0.7508086
40	0x3f4284c8	0.7598386
41	0x3f22b412	0.63556015
42	0x3f1030b8	0.5632434
43	0x3f274841	0.65344626
44	0x3f043c27	0.51654285
45	0x3f2be711	0.67149454
46	0x3f1611af	0.58620733
47	0x3f34a4aa	0.7056376
48	0x3f32f89b	0.6991059
49	0x3f276602	0.65390027
50	0x3f0fc5da	0.5616127
51	0x3f05c1ad	0.5224865
52	0x3e9f7490	0.31143618
53	0x3f304ad8	0.688642
54	0x3ec854f9	0.3912733
55	0x3f009822	0.50232136
56	0x3f1128ff	0.5670318
57	0x3ef72596	0.48270863
58	0x3f0dd2d5	0.5539983
59	0x3ee4d73e	0.44695467
60	0x3f0914dc	0.53547454
61	0x3f03d278	0.51493025
62	0x3f013b6e	0.5048131
63	0x3f0aae33	0.54172057
64	0x3f3c7034	0.7360871
65	0x3ed024f9	0.40653208
66	0x3f12c615	0.573335
67	0x3ed5935d	0.41713992
68	0x3edc86a5	0.43071476
69	0x3e994e64	0.2994262
70	0x3f2199c8	0.63125277
71	0x3f26a396	0.6509336
72	0x3f0f3a78	0.5594859
73	0x3f056060	0.5210018
74	0x3f039ddf	0.5141277
75	0x3f1b1171	0.6057349
76	0x3edb4ef3	0.4283367
77	0x3f0a0fba	0.53930247
78	0x3f0e80bb	0.5566518
79	0x3eaf0696	0.34184712
80	0x3f2856ad	0.65757257
81	0x3f26d42f	0.65167516
82	0x3ed65ed1	0.41869214
83	0x3f182afd	0.59440595
84	0x3f29c405	0.6631473
85	0x3f193906	0.59852636
86	0x3f11ab80	0.56902313
87	0x3f15647c	0.5835645
88	0x3f4bcc80	0.7960892
89	0x3ef4f9b6	0.47846764
90	0x3f3005ad	0.6875866
91	0x3ee47d1f	0.4462671
92	0x3f2855a2	0.65755665
93	0x3ef8cda1	0.48594382
94	0x3f27cfef	0.65551656
95	0x3ea970f5	0.33093992
96	0x3f0174e8	0.5056901
97	0x3f22ed7d	0.6364363
98	0x3f1a4ae1	0.60270506
99	0x3f027017	0.50952286
100	0x3f3a83b1	0.72857195
101	0x3f3253be	0.6965903
102	0x3f3add2c	0.7299373
103	0x3f244d82	0.6418077
104	0x3f1507bd	0.5821493
105	0x3f2e4e1a	0.68087924
106	0x3f068d68	0.5255952
107	0x3f2ceaeb	0.67545956
108	0x3f33d774	0.7025063
109	0x3ede924f	0.43471
110	0x3eb9e609	0.36308315
111	0x3ea39bef	0.31954905
112	0x3f0bc31e	0.545946
113	0x3f11419c	0.56740737
114	0x3ec9fde0	0.39451504
115	0x3ef1c714	0.47222197
116	0x3f098458	0.53717566
117	0x3f187f81	0.59569556
118	0x3f17ea5c	0.5934198
119	0x3f060ccf	0.52363294
120	0x3f0ffb9a	0.5624329
121	0x3f035c3f	0.5131263
122	0x3f110860	0.56653404
123	0x3f3db5e8	0.7410569
124	0x3f39fd3c	0.7265203
125	0x3f41bd96	0.7567991
126	0x3ed6ca18	0.4195106
127	0x3f291e4a	0.6606184
128	0x3ef5b470	0.47989225
129	0x3ef8e47b	0.48611817
130	0x3ef22347	0.4729254
131	0x3f3f6ee6	0.7477859
132	0x3ec23f85	0.37939087
133	0x3ebbd889	0.3668864
134	0x3f68e0bf	0.90967935
135	0x3f36ca71	0.7140265
136	0x3f165232	0.5871917
137	0x3ed7b6ca	0.42131644
138	0x3f03ce98	0.5148711
139	0x3f1b9864	0.60779405
140	0x3f69c8f2	0.91322243
141	0x3f7c1bef	0.98480123
142	0x3f13fce3	0.5780775
143	0x3f055de9	0.5209642
144	0x3eff2f7d	0.49840918
145	0x3f2c5dc4	0.67330575
146	0x3f002e32	0.5007049
147	0x3ef6c12c	0.48194253
148	0x3f1ebf86	0.6201099
149	0x3f156582	0.58358014
150	0x3f3672ff	0.7126922
151	0x3f2a4918	0.6651778
152	0x3f24a2d0	0.6431093
153	0x3f571591	0.8401728
154	0x3f2f7c21	0.6854878
155	0x3f5a7120	0.85328865
156	0x3f2674d8	0.6502204
157	0x3eefcfec	0.4683832
158	0x3f2093a6	0.62725294

trunk.0.expand.norm.bias f4 [159]
0	0xbdad2440	-0.0845418
1	0xbc24d5d2	-0.010060744
2	0x3c321459	0.010869109
3	0xbebcef5d	-0.3690137
4	0xbe903531	-0.28165582
5	0x3e0bfb4d	0.13670082
6	0x3d0e6cc3	0.034771692
7	0xbd8f14a3	-0.06986358
8	0x3cbce394	0.023057736
9	0xbe4b89fd	-0.19876857
10	0xbce0df83	-0.027450329
11	0x3e7384be	0.23781106
12	0x3d801fe9	0.062560864
13	0xbe90d967	-0.28290865
14	0x3e60ffd4	0.2197259
15	0x3c2e6b52	0.010645704
16	0x3db05f83	0.086119674
17	0xbe5ecd34	-0.21757966
18	0xbd560404	-0.052249923
19	0xbe735f8a	-0.23766914
20	0x3bcefffe	0.0063171377
21	0x3e141f15	0.14464982
22	0xbe20a7d5	-0.15689023
23	0xbbcc3d79	-0.006232914
24	0x3e4ac1a5	0.19800432
25	0x3dfa0174	0.122073084
26	0xbe28e894	-0.16494972
27	0xbd610b7c	-0.054942593
28	0x3dd80373	0.10547533
29	0xbe9afce5	-0.30271068
30	0xbe2bc277	-0.16773401
31	0x3d55683c	0.05210136
32	0xbdd6615c	-0.104677886
33	0x3e20263d	0.15639587
34	0xbe11e1b8	-0.14246261
35	0x3dc0e5a5	0.09418801
36	0xbe297176	-0.16547188
37	0xbea423f2	-0.32058674
38	0x3c7abf69	0.015304425
39	0x3c03f7a3	0.008054647
40	0x3c22ad92	0.009929078
41	0xbd5fc8cc	-0.054634854
42	0xbdef6554	-0.11689249
43	0x3d26d304	0.040728584
44	0x3e28ff2a	0.16503587
45	0xbd8aa2fb	-0.06769367
46	0x3dea032f	0.114263885
47	0xbd27dc02	-0.0409813
48	0xbd3f3e15	-0.046690065
49	0x3cb12ce0	0.021627843
50	0xbe197d6e	-0.14989254
51	0xbe2e5449	-0.1702434
52	0xbeb82271	-0.35963777
53	0xbde29b8f	-0.11064827
54	0xbe90950b	-0.2823871
55	0x3e3fbcc8	0.18724358
56	0xbe0ce202	-0.1375809
57	0xbe39a065	-0.18127592
58	0xbe19795e	-0.14987704
59	0xbe8014e1	-0.2501593
60	0xbe1cc1aa	-0.15308252
61	0xbe30eac0	-0.1727705
62	0xbe3653f9	-0.1780547
63	0xbe23c7f7	-0.1599425
64	0x3d35f088	0.04441884
65	0xbe8eeddf	-0.27915856
66	0x3ddb48dd	0.10707257
67	0xbe73a71e	-0.23794219
68	0xbe7c49a9	-0.24637474
69	0xbeb24fcd	-0.34826508
70	0x3db0ed98	0.086390674
71	0xbd2f1b29	-0.04275051
72	0xbdd529c4	-0.10408357
73	0x3e33bd59	0.17552699
74	0xbe327cc8	-0.17430413
75	0xbd9cdabe	-0.07658909
76	0xbe7bb585	-0.24580963
77	0xbe365bd8	-0.17808473
78	0x3e140f15	0.14458878
79	0xbee36728	-0.4441464
80	0x3d9d8b8b	0.07692631
81	0xbcb63062	-0.022239868
82	0x3e82005d	0.25390902
83	0xbdc40306	-0.09570889
84	0x3d950a75	0.07277385
85	0xbde6886e	-0.11256491
86	0xbe167053	-0.14691286
87	0xbde00c20	-0.10939813
88	0x3bc58b8d	0.0060285986
89	0xbe43c2fb	-0.19117348
90	0xbcdc5e09	-0.026900308
91	0xbe88f079	-0.26745966
92	0x3d969e42	0.07354404
93	0xbe45e8b6	-0.19327053
94	0xbe08e10e	-0.13367102
95	0xbeb993ca	-0.36245567
96	0xbe4aad26	-0.19792613
97	0xbe11da17	-0.14243351
98	0xbd9d1b3f	-0.076712124
99	0xbe2b59d1	-0.16733481
100	0xbca9d1e7	-0.020729972
101	0xbd76db60	-0.060267806
102	0xbd15b1c6	-0.03654649
103	0xbdb7e20e	-0.089786634
104	0x3dd03bbc	0.101676434
105	0x3d210570	0.039311826
106	0xbe0aa323	-0.13538794
107	0xbd8724f9	-0.06598849
108	0x3cf1a1e7	0.029496146
109	0xbe602eda	-0.21892872
110	0xbea5f605	-0.3241426
111	0xbea8ee83	-0.3299447
112	0xbe0edac9	-0.13950647
113	0xbe0c538e	-0.13703749
114	0xbe8d240e	-0.2756657
115	0xbe52134b	-0.20515172
116	0xbe3f5031	-0.18682934
117	0xbdc33462	-0.095314756
118	0xbdb3dcaa	-0.08782323
119	0xbe57451c	-0.21022457
120	0xbe33f4d1	-0.17573859
121	0x3e2c0f26	0.16802654
122	0xbe27b55f	-0.16377781
123	0x3cce6ef2	0.025199387
124	0x3e2697a4	0.16268784
125	0x3b86dee9	0.0041159284
126	0xbe8476e7	-0.25871965
127	0xbd4435ab	-0.047902744
128	0xbe614dfd	-0.22002406
129	0xbe5a19f2	-0.2129896
130	0xbe660527	-0.22462903
131	0xbd406048	-0.04696682
132	0xbe9dea82	-0.30842978
133	0xbe87c18a	-0.26514846
134	0x3d8c0a91	0.06837953
135	0x3b120285	0.0022279334
136	0x3dd379ea	0.10325988
137	0xbe83a971	-0.2571521
138	0xbe72d8f2	-0.2371557
139	0xbdcb4662	-0.09925534
140	0xbc568474	-0.013093103
141	0xbb4e48a8	-0.0031476412
142	0xbdb50d40	-0.08840418
143	0xbe2b9067	-0.16754304
144	0xbe4477c2	-0.19186309
145	0x3e2e1abe	0.17002389
146	0xbe35ce31	-0.17754437
147	0xbe4c2a9b	-0.19938128
148	0x3dcdecff	0.10054969
149	0xbe0482cd	-0.12940522
150	0xbe162594	-0.14662772
151	0x3da9b3fc	0.082862824
152	0xbe0a3c5a	-0.13499585
153	0x3c0f9a1f	0.008764773
154	0xbc676da6	-0.014125263
155	0xbcfdc556	-0.030977886
156	0xbdc606ef	-0.09669291
157	0xbe88ce73	-0.26720008
158	0x3e2ed1ff	0.17072295

trunk.0.expand.norm.running_mean f4 [159]
0	0x3c5b371a	0.013379836
1	0xbbf94a4c	-0.007607734
2	0xbc020b00	-0.007937193
3	0xbb26a560	-0.002542816
4	0x3d075799	0.033042524
5	0xbc180d42	-0.009280505
6	0xbc3fdfc6	-0.011711067
7	0xbab09f02	-0.0013475122
8	0x3c424d5b	0.011859263
9	0x3d454100	0.048157692
10	0xbcfe7946	-0.031063687
11	0x3d171718	0.03688726
12	0x3d3fc36b	0.046817224
13	0x3cc25e66	0.023726653
14	0x3d3ed78d	0.046592284
15	0xbd0ffba8	-0.035152107
16	0x3d13584f	0.03597289
17	0x3b2a9243	0.002602712
18	0x3cd8bb49	0.026456492
19	0xbd3e4998	-0.046456903
20	0xbc644b93	-0.013934034
21	0x3bd54da5	0.0065095
22	0xbd77b1a4	-0.060472146
23	0xbc5b6412	-0.013390558
24	0xbbaa9960	-0.005206272
25	0x3b3a9615	0.0028470804
26	0xbcace6cc	-0.021106146
27	0x3cccdb34	0.025006868
28	0xbb2b72e4	-0.002616101
29	0x3b50e850	0.003187675
30	0xbcec313c	-0.02883207
31	0xbb0b6b1c	-0.002127356
32	0x3c96d625	0.018412659
33	0xbce20f1e	-0.027595099
34	0xbcd8d7ac	-0.026470028
35	0x3d3b9213	0.045793604
36	0x3c76a40d	0.015053761
37	0xbc059a78	-0.008154504
38	0x3c244e3c	0.010028418
39	0xbb7ea2aa	-0.003885428
40	0x3d50813f	0.05090451
41	0xbcd5a776	-0.026080828
42	0x3d198f41	0.037490133
43	0xbd2cb4d1	-0.042164627
44	0xbc96766d	-0.018367017
45	0xbd5c8a18	-0.053842634
46	0xbcb54e6e	-0.022132125
47	0xbc226bab	-0.009913365
48	0x3cd9eabd	0.02660119
49	0x3c0be05e	0.00853738
50	0xbd2173bf	-0.039417025
51	0x3ccfa088	0.025345102
52	0xbca5d93c	-0.020245187
53	0xbc808c2a	-0.015691835
54	0xbb00efd9	-0.001967421
55	0xbc1dd033	-0.009632158
56	0xbb0748f6	-0.0020642853
57	0x3bba7821	0.00569059
58	0x3cee2a61	0.029072942
59	0x3b8088d9	0.0039225635
60	0x3cec703d	0.028862113
61	0xbd6752ec	-0.056475565
62	0x3b918289	0.00444061
63	0xbc9cd4b6	-0.019144397
64	0x3bfb610e	0.007671482
65	0xbc9fc79e	-0.019504365
66	0x3c9663b6	0.018358093
67	0xbd4419a7	-0.047876026
68	0xbca657cc	-0.020305537
69	0xbd4c09e2	-0.049814112
70	0xbaf2a8e8	-0.0018513473
71	0x3bebcba0	0.007195905
72	0xbc43c48c	-0.011948716
73	0x3cd651cc	0.02616205
74	0xbc13a532	-0.009011554
75	0xbd6cf3bb	-0.057849627
76	0x3cd92d45	0.026510844
77	0x3cef48ab	0.029209455
78	0x3c84761a	0.016169596
79	0x3b82d8f7	0.0039931494
80	0x3c2cf956	0.010557493
81	0x3d2a9f1e	0.041655652
82	0x3c255a65	0.0100923525
83	0x3c328e6e	0.010898216
84	0x3ba94668	0.005165864
85	0x3ca51b5e	0.020154651
86	0x3cda970a	0.02668335
87	0x3d17cabb	0.037058573
88	0xbc2c12db	-0.010502542
89	0xbce4bd1e	-0.02792221
90	0x3bac25e6	0.0052535413
91	0xbd323ed4	-0.04351695
92	0x3c6b5837	0.014364294
93	0x3d378f39	0.044814322
94	0xbd23b4f2	-0.039967485
95	0x3cfb1808	0.030651107
96	0xbd2d6e7a	-0.042341687
97	0x3d125454	0.035724953
98	0x3d1e0d2e	0.038586788
99	0x3ce8579b	0.028362086
100	0x3d257e77	0.04040381
101	0xbafac360	-0.0019131713
102	0xbcf7b84c	-0.030239247
103	0x3d10c2a2	0.035341866
104	0x3d181313	0.037127566
105	0xbbd50c38	-0.0065017007
106	0xbcbb0dcd	-0.02283373
107	0x3c8cc910	0.017185718
108	0x3bd476b3	0.0064838766
109	0xbcfe9076	-0.031074744
110	0x3c857b6b	0.016294202
111	0xbc68c433	-0.014206934
112	0xbc329732	-0.010900306
113	0x3ca4865d	0.0200836
114	0xbd795735	-0.060874183
115	0xbd26d4f5	-0.040730435
116	0x3cef8e5a	0.029242683
117	0xbb86924b	-0.004106795
118	0x3c94e0cc	0.018173598
119	0x3cd1f42a	0.025629122
120	0xbccd6f36	-0.025077444
121	0xbc83610e	-0.01603749
122	0x3ce2397c	0.027615301
123	0x3c9ee6ab	0.0193971
124	0x3ca8a903	0.020588404
125	0x3c06ba4a	0.008223126
126	0xbb900db8	-0.0043961667
127	0x3b1a2d59	0.0023525564
128	0x3af51022	0.0018696825
129	0xbb3becb7	-0.0028675029
130	0x3d33b1fe	0.04387092
131	0xbc8357ab	-0.016033014
132	0xbd74ddd2	-0.059781857
133	0x3c6be623	0.014398131
134	0x3ca03f02	0.019561294
135	0x3d18b800	0.03728485
136	0xbc89eb39	-0.016835796
137	0x3cf10299	0.029420184
138	0x3c92707c	0.017875902
139	0x39c498cb	0.00037497873
140	0x3bcc873b	0.0062417067
141	0xbb4b0dc8	-0.0030983556
142	0x3c911c7a	0.017713774
143	0xbcd426fb	-0.025897494
144	0xbbc7e1c6	-0.0060999123
145	0x3ab10480	0.001350537
146	0x3d1f1a71	0.038843576
147	0x3ca9fdf4	0.020750977
148	0x3c82985f	0.015941797
149	0xbd2fd134	-0.04292412
150	0x3b84ea99	0.0040562865
151	0x39e69f19	0.00043987556
152	0x3c979e15	0.018507997
153	0x3b740ced	0.003723915
154	0x3b07fcd7	0.002075007
155	0x3b344735	0.0027508263
156	0x3c9a350a	0.01882412
157	0xbcd487b4	-0.025943615
158	0x3cf7746f	0.030206887

trunk.0.expand.norm.running_var f4 [159]
0	0x3e735a08	0.23764813
1	0x3ebb94de	0.36637014
2	0x3ef78a10	0.4834752
3	0x3e79a15b	0.24377958
4	0x3ebd03c2	0.3691693
5	0x3e4ef24c	0.20209616
6	0x3ea02929	0.31281403
7	0x3e0dcab8	0.13846862
8	0x3e604d6a	0.21904531
9	0x3efd5856	0.49481457
10	0x3f0ecf1b	0.5578477
11	0x3e5b331a	0.21406212
12	0x3f297736	0.66197526
13	0x3eeaa884	0.45831692
14	0x3f720eaf	0.94553655
15	0x3f52fcd2	0.82417023
16	0x3efbb737	0.4916322
17	0x3e74c6f4	0.2390402
18	0x3e93b675	0.2885014
19	0x3e853e8e	0.26024288
20	0x3e8694be	0.26285356
21	0x3e0585dc	0.13039345
22	0x3ea83421	0.3285227
23	0x3ed0b9e5	0.40766826
24	0x3e8dd5a1	0.27702048
25	0x3e7147af	0.23562501
26	0x3e2541ce	0.16138384
27	0x3e476e36	0.19475636
28	0x3e9e348b	0.30899462
29	0x3f01a9a7	0.50649494
30	0x3ea01fce	0.31274265
31	0x3e72a227	0.23694669
32	0x3f0bd5c2	0.54623044
33	0x3e4ffc47	0.2031108
34	0x3ec7761e	0.38957304
35	0x3e49438c	0.19654673
36	0x3e8c2611	0.27372792
37	0x3e8da613	0.27665767
38	0x3e2c4ebf	0.16826914
39	0x3ec9548d	0.3932232
40	0x3ebdb926	0.3705532
41	0x3e67716c	0.22601861
42	0x3e981704	0.2970506
43	0x3effe241	0.49977306
44	0x3eb34132	0.35010678
45	0x3ea22e05	0.31675735
46	0x3efb5e9f	0.49095628
47	0x3e86166b	0.2618898
48	0x3e886186	0.26636904
49	0x3e052df7	0.13005815
50	0x3e597ff2	0.21240214
51	0x3e3c9634	0.18416673
52	0x3e06c01d	0.13159223
53	0x3ee97c44	0.4560262
54	0x3eadf4fb	0.33975968
55	0x3e8f5dfb	0.2800139
56	0x3e9e82bb	0.30959114
57	0x3eef32f9	0.46718577
58	0x3e88eb3d	0.26741973
59	0x3e7299eb	0.23691528
60	0x3e9aa67b	0.3020514
61	0x3ea36132	0.31910092
62	0x3e2f59fc	0.1712417
63	0x3ed8f439	0.42373827
64	0x3e127b79	0.14304914
65	0x3e27bc7e	0.16380498
66	0x3e2090b2	0.15680197
67	0x3ead566c	0.33854997
68	0x3e5bdd2a	0.21471086
69	0x3f192a64	0.5983031
70	0x3f06968b	0.5257346
71	0x3ee4c3b4	0.4468056
72	0x3e4a2412	0.19740322
73	0x3e4757c9	0.19467081
74	0x3e5232e9	0.20527233
75	0x3ecea11a	0.40357286
76	0x3eaac3f9	0.3335264
77	0x3e716823	0.23574881
78	0x3e547202	0.20746616
79	0x3e54adfd	0.20769496
80	0x3f15f074	0.5857003
81	0x3e68a469	0.22718967
82	0x3e845235	0.2584397
83	0x3e4d09fb	0.20023338
84	0x3e3f2ab6	0.18668637
85	0x3e790da4	0.2432161
86	0x3ebf2669	0.37333992
87	0x3e30b959	0.17258205
88	0x3e9e15b2	0.30875927
89	0x3e729a37	0.23691641
90	0x3edd3890	0.43207216
91	0x3e957f8e	0.2919888
92	0x3f136649	0.5757795
93	0x3ed76a45	0.42073265
94	0x3eb2c39b	0.3491486
95	0x3e99ddd8	0.30052066
96	0x3e9ee936	0.310373
97	0x3ee5e4de	0.44901174
98	0x3e07dfe8	0.13269007
99	0x3e9d6090	0.30737734
100	0x3e91d860	0.28485394
101	0x3ed3b4a5	0.41348758
102	0x3f0b86d7	0.54502624
103	0x3f055c57	0.52094024
104	0x3e531426	0.20613155
105	0x3e7a97f2	0.24472025
106	0x3dde2abe	0.10847996
107	0x3e876412	0.26443535
108	0x3e44bd28	0.19212782
109	0x3f01a220	0.5063801
110	0x3ee5204b	0.447512
111	0x3e1964df	0.14979886
112	0x3e7e6544	0.24843317
113	0x3e468339	0.19385995
114	0x3edbb161	0.42908767
115	0x3f3bcf12	0.7336284
116	0x3e200583	0.15627103
117	0x3ea6abaa	0.32552844
118	0x3e297326	0.16547832
119	0x3dca2402	0.09870149
120	0x3e197ee6	0.14989814
121	0x3e8d2862	0.27569872
122	0x3ee96110	0.45581865
123	0x3e711dfd	0.23546596
124	0x3ec0f507	0.3768694
125	0x3e2be37a	0.16785994
126	0x3e9a808b	0.30176196
127	0x3ec03388	0.37539315
128	0x3dd3c258	0.103398025
129	0x3e187148	0.14886963
130	0x3e4c78b2	0.19967917
131	0x3e8d1684	0.2755624
132	0x3f6483f0	0.8926382
133	0x3eacf55b	0.3378094
134	0x3ef95a3f	0.48701665
135	0x3e0d2229	0.13782562
136	0x3ea22ed5	0.31676355
137	0x3e7eaf70	0.24871612
138	0x3e9dda1f	0.30830476
139	0x3e89f461	0.2694426
140	0x3e53d64c	0.20687217
141	0x3ea702b1	0.3261924
142	0x3e524f04	0.20537955
143	0x3ea13f04	0.3149339
144	0x3e839045	0.25696006
145	0x3ec4212a	0.38306552
146	0x3ec41fac	0.38305414
147	0x3e02740d	0.12739582
148	0x3f1ca25b	0.61185235
149	0x3ee88ebf	0.45421407
150	0x3dd7c313	0.10535254
151	0x3eb14725	0.3462459
152	0x3e84b4e3	0.25919256
153	0x3edf7c5a	0.4364956
154	0x3e86b0e3	0.2630683
155	0x3e7551f7	0.23957048
156	0x3ec5f022	0.3865977
157	0x3e378d53	0.17925005
158	0x3e8d9aab	0.27657065

trunk.0.depthwise.norm.weight f4 [159]
0	0x3f3b1bba	0.7308918
1	0x3f31136d	0.69170266
2	0x3f270f9b	0.6525819
3	0x3f2d674a	0.6773573
4	0x3f51326e	0.81717575
5	0x3f563d1f	0.83687013
6	0x3f409e8b	0.7524192
7	0x3f2b7d7a	0.6698834
8	0x3f2a9b6d	0.6664341
9	0x3f44ea74	0.7692025
10	0x3f27ca6f	0.65543264
11	0x3f2c5e55	0.6733144
12	0x3f43ab28	0.7643304
13	0x3f6fcb9c	0.9367006
14	0x3f33f113	0.70289725
15	0x3f3b943d	0.7327307
16	0x3f50b7e1	0.81530577
17	0x3f2bb70a	0.6707617
18	0x3f23287b	0.63733643
19	0x3f303c08	0.688416
20	0x3f413c40	0.7548256
21	0x3f29c36e	0.6631383
22	0x3f354bea	0.7081896
23	0x3f3ad0eb	0.72975034
24	0x3f2cd1a0	0.6750736
25	0x3f357a35	0.708896
26	0x3f542515	0.8286908
27	0x3f2f0e1c	0.68380904
28	0x3f3a17f0	0.72692776
29	0x3f4e46b1	0.80576617
30	0x3f3f08c9	0.7462278
31	0x3f360118	0.7109542
32	0x3f4f3696	0.80942667
33	0x3f50415c	0.8134973
34	0x3f2ba50c	0.67048717
35	0x3f2db03b	0.6784703
36	0x3f48f6a4	0.78501344
37	0x3f2fb812	0.68640244
38	0x3f22751c	0.63459945
39	0x3f313fcb	0.69237965
40	0x3f0d94fa	0.55305445
41	0x3f284280	0.6572647
42	0x3f1932a2	0.59842885
43	0x3f2a15ac	0.6643932
44	0x3f52fe2f	0.82419103
45	0x3f2e72f0	0.6814413
46	0x3f3fc14a	0.7490431
47	0x3f2a4bf6	0.6652216
48	0x3f13e7bb	0.5777547
49	0x3f31ffe5	0.6953109
50	0x3f17d399	0.5930725
51	0x3f24e329	0.6440912
52	0x3f36e49b	0.71442574
53	0x3f32500c	0.6965339
54	0x3f315343	0.6926767
55	0x3f3eda83	0.7455217
56	0x3f439405	0.76397735
57	0x3f114efb	0.5676114
58	0x3f2c3137	0.67262596
59	0x3f54f4ec	0.8318622
60	0x3f4336f1	0.7625571
61	0x3f36d1a5	0.7141364
62	0x3f147963	0.5799772
63	0x3f4318f4	0.7620995
64	0x3f40232b	0.7505366
65	0x3f4ea858	0.8072562
66	0x3f42ca39	0.7608982
67	0x3f58aa55	0.84634906
68	0x3f3d9f7f	0.74071497
69	0x3f27c1e2	0.65530217
70	0x3f325bce	0.6967133
71	0x3f4790db	0.77955407
72	0x3f254b48	0.64567995
73	0x3f22b7d5	0.63561755
74	0x3f23441d	0.6377581
75	0x3f2a8b79	0.6661907
76	0x3f1d9df9	0.6156917
77	0x3f37595b	0.7162072
78	0x3f268d2b	0.65059155
79	0x3f38b35c	0.7214868
80	0x3f2c953e	0.67415226
81	0x3f37e189	0.71828514
82	0x3f21ad65	0.63155204
83	0x3f4e6338	0.80620146
84	0x3f3bb474	0.73322225
85	0x3f30e78a	0.691033
86	0x3f57051b	0.83992165
87	0x3f33dadd	0.70255834
88	0x3f30c4ec	0.6905048
89	0x3f544f31	0.82933336
90	0x3f3ffa34	0.74991155
91	0x3f25f6ec	0.648299
92	0x3f46daa0	0.77677345
93	0x3f492ca0	0.7858372
94	0x3f354cab	0.7082011
95	0x3f369454	0.7132008
96	0x3f2879cd	0.65810853
97	0x3f3d429a	0.7392975
98	0x3f269786	0.65074956
99	0x3f64d2be	0.8938407
100	0x3f170726	0.5899528
101	0x3f53a4c2	0.82673275
102	0x3f360cfe	0.71113575
103	0x3f4c30a4	0.7976172
104	0x3f56663d	0.83749753
105	0x3f2bdf8f	0.67138
106	0x3f2d61bf	0.67727274
107	0x3f4b6499	0.79450375
108	0x3f4b23a2	0.79351246
109	0x3f448f5d	0.76781255
110	0x3f385ce8	0.72016764
111	0x3f466ab6	0.7750658
112	0x3f45e47f	0.7730178
113	0x3f59fd9e	0.85152614
114	0x3f31d4e0	0.69465446
115	0x3f512e7a	0.8171154
116	0x3f2e1e70	0.68015194
117	0x3f20899e	0.6270999
118	0x3f2ab15e	0.6667689
119	0x3f2f3df0	0.68453884
120	0x3f1e1805	0.617554
121	0x3f2fb6e1	0.68638426
122	0x3f42a510	0.76033115
123	0x3f30f395	0.69121677
124	0x3f44aab7	0.7682299
125	0x3f2d30b3	0.67652434
126	0x3f1d1b44	0.6136973
127	0x3f342e4c	0.70383143
128	0x3f28a6e2	0.6587964
129	0x3f554b94	0.8331845
130	0x3f4ffa69	0.8124147
131	0x3f37a67c	0.7173841
132	0x3f36f975	0.7147439
133	0x3f174ca9	0.5910135
134	0x3f23d5cd	0.6399811
135	0x3f26a8c8	0.6510129
136	0x3f42cd32	0.76094353
137	0x3f5e2fea	0.8679186
138	0x3f28259b	0.6568238
139	0x3f3e29e9	0.742827
140	0x3f2c31f5	0.6726373
141	0x3f2ea1b3	0.68215483
142	0x3f3e2560	0.7427578
143	0x3f468aeb	0.7755572
144	0x3f543143	0.8288767
145	0x3f375d0a	0.7162634
146	0x3f76f010	0.96460056
147	0x3f1c8b86	0.61150396
148	0x3f3e99ed	0.7445362
149	0x3f3ccdbf	0.73751444
150	0x3f411897	0.75428146
151	0x3f470902	0.7774812
152	0x3f3f2e49	0.7468
153	0x3f340f61	0.70335966
154	0x3f32a40c	0.69781566
155	0x3f4fa26d	0.8110722
156	0x3f3e7da1	0.74410444
157	0x3f3019ee	0.68789566
158	0x3f26b739	0.65123326

trunk.0.depthwise.norm.bias f4 [159]
0	0x3ce7490a	0.02823307
1	0x3da99ddb	0.08282062
2	0xbd15f218	-0.03660783
3	0x3e6a09b7	0.22855268
4	0x3c71d9f8	0.01476144
5	0x3df42ad3	0.119222306
6	0x3c47a996	0.0121864285
7	0x3cabada9	0.020956831
8	0xbd86e6ea	-0.06587012
9	0xbc796406	-0.015221601
10	0xbe5348fb	-0.20633309
11	0xbc7214b5	-0.014775445
12	0x3ea7edd2	0.3279863
13	0x3e16d673	0.14730243
14	0x3ec661e9	0.38746575
15	0x3e358e21	0.17729999
16	0x3e8b62ba	0.2722376
17	0xbdc90bfa	-0.098167375
18	0xbd8a58fb	-0.06755253
19	0x3e4c1eb1	0.19933583
20	0xbea0e794	-0.3142668
21	0xbe1ec39c	-0.15504307
22	0x3e071b55	0.1319402
23	0x3e8c4532	0.27396542
24	0xbe3cfe83	-0.18456464
25	0xbd8fffc9	-0.07031209
26	0x3e329b67	0.17442094
27	0x3d5da35c	0.05411087
28	0x3c07c0df	0.00828573
29	0x3ec5399a	0.3852051
30	0x3ceff919	0.029293584
31	0x3e0d308a	0.13788047
32	0x3d30e2c6	0.043185018
33	0x3d6916a4	0.056906357
34	0xbdf10e87	-0.11770349
35	0x3e98b2ee	0.29824013
36	0x3e1f2c53	0.15544252
37	0x3dede01c	0.11615011
38	0xbd62a7af	-0.055335697
39	0xbdca11a5	-0.09866647
40	0x3f1688b9	0.5880237
41	0x3ce74c21	0.028234543
42	0x3ee61013	0.4493414
43	0xbe062c2d	-0.13102789
44	0xbd3d09bb	-0.046151858
45	0xbdbafcb3	-0.0913023
46	0xbdc866f4	-0.09785262
47	0x3d455c39	0.048183654
48	0x3e68b870	0.22726607
49	0xbe45da65	-0.19321592
50	0x3cd87aa4	0.026425667
51	0xbe086e45	-0.13323314
52	0x3e6d12b5	0.23151667
53	0x3d7ce75a	0.06174407
54	0x3e178cec	0.14799851
55	0xbcd94cf5	-0.026525954
56	0x3d56a9b0	0.05240792
57	0x3e964b6d	0.2935442
58	0x3e1a88b4	0.1509121
59	0x3d41255a	0.04715476
60	0x3e1be06f	0.15222333
61	0xbe53ffa2	-0.20702985
62	0xbe11a523	-0.14223151
63	0x3c7a7068	0.015285589
64	0x3dc275b0	0.09495103
65	0x3e1c1237	0.15241323
66	0xbe44f98f	-0.19235824
67	0x3e5519dd	0.20810647
68	0x3e45ee7b	0.19329254
69	0xbd7ab89c	-0.061211213
70	0x3e2ae782	0.16689876
71	0x3d4fff26	0.050780438
72	0xbd38516b	-0.04499952
73	0xbdf8562c	-0.12125811
74	0xbd763a84	-0.0601144
75	0x3e385b5b	0.180036
76	0xbe50fb89	-0.20408453
77	0x3e3a9e1c	0.18224376
78	0xbd869f4c	-0.06573352
79	0x3e0663b7	0.13123976
80	0x3ddb7bf1	0.10716999
81	0xbb465a34	-0.0030266168
82	0x3e5e74e6	0.2172428
83	0x3d4439dd	0.047906745
84	0x3ca0c6cb	0.019626042
85	0xbda356ad	-0.079755165
86	0x3dc25d20	0.094904184
87	0xbc10f18b	-0.008846651
88	0x3d32fd04	0.043698326
89	0x3d77d6e6	0.060507677
90	0xbd5af54d	-0.053456593
91	0x3ce60c48	0.028082028
92	0x3d7a1734	0.061057284
93	0x3e6fd2bd	0.23420234
94	0xbe00cef0	-0.1257894
95	0x3e8c9a25	0.27461353
96	0xbc27559a	-0.01021328
97	0xbda38099	-0.079835124
98	0x3e813912	0.25238854
99	0x3d338eb4	0.043837264
100	0x3ebf96f4	0.37419856
101	0x3d99e6e3	0.07514741
102	0x3d2e9771	0.042624895
103	0x3dfae08c	0.1224986
104	0x3e9a39e5	0.30122295
105	0xbdd372aa	-0.10324605
106	0x3e76a6a9	0.24087013
107	0x3da8e2ac	0.08246359
108	0x3d594a62	0.053049453
109	0x3d020763	0.031745326
110	0x3e6105ee	0.21974918
111	0x3e1393ec	0.14411896
112	0x3e3a840e	0.18214437
113	0x3e3ccd0c	0.18437594
114	0x3d59402a	0.053039707
115	0x3ecbe248	0.39821076
116	0xbd69e14d	-0.05709963
117	0x3cd5f8ec	0.026119672
118	0x3da0f902	0.078599945
119	0x3e006c17	0.12541233
120	0xbe561fd2	-0.20910576
121	0xbe064f4f	-0.13116191
122	0x3c61e081	0.013786436
123	0x3e362a10	0.17789483
124	0x3d9b4a2a	0.07582505
125	0x3d95f8da	0.07322855
126	0x3e39225c	0.18079513
127	0x3dabd2ed	0.0838984
128	0x3e269fac	0.16271847
129	0x3e3c18c7	0.18368827
130	0x3e0d5667	0.13802491
131	0x3d144717	0.03620061
132	0x3ea47d01	0.3212662
133	0x3d92fc5a	0.071770385
134	0xbde000f3	-0.10937681
135	0x3e931531	0.28727105
136	0xbcf9c982	-0.030491594
137	0x3e50e337	0.20399176
138	0xbdf5ba4b	-0.11998423
139	0x3e84d5b8	0.25944304
140	0xbe1ada7e	-0.1512241
141	0x3d84e9a8	0.06489879
142	0x3d177b7f	0.03698301
143	0x3c0ca47f	0.008584141
144	0xbd1dcf64	-0.03852786
145	0x3e6dce34	0.23223191
146	0x3cfbc6ac	0.030734383
147	0x3e7ea994	0.24869376
148	0x3d9d3c2a	0.07677491
149	0xbccb4bfa	-0.024816502
150	0x3d56cb61	0.05244005
151	0x3dcb8d1f	0.09939026
152	0x3e04015c	0.12891144
153	0xbc95df00	-0.018294811
154	0xbd058681	-0.032598976
155	0x3cf37ede	0.02972358
156	0xbb3d76fb	-0.002891003
157	0x3d5795cb	0.052633088
158	0x3ef84150	0.4848733

trunk.0.depthwise.norm.running_mean f4 [159]
0	0x3de827a1	0.113356836
1	0x3e24f23b	0.16108029
2	0x3d889e2b	0.06670793
3	0x3c57468f	0.013139381
4	0x3c8e3471	0.01735899
5	0x3e0910b7	0.13385282
6	0x3d844e08	0.06460196
7	0x3dccdb5e	0.100027785
8	0x3d9e6d2c	0.07735667
9	0x3d3f5f02	0.046721466
10	0x3e14f154	0.14545184
11	0x3e249789	0.16073431
12	0x3e20cedf	0.15703915
13	0x3ca9e959	0.020741152
14	0x3da73256	0.08163898
15	0x3e3862a2	0.18006375
16	0x3e1b6610	0.15175653
17	0x3d144600	0.03619957
18	0x3dfe6d78	0.12423223
19	0x3cc85105	0.024452696
20	0x3e0a8251	0.13526274
21	0x3e16b101	0.14715959
22	0x3db4d2c3	0.08829262
23	0x3da861c8	0.08221775
24	0x3e101e95	0.14074166
25	0x3d94350d	0.07236681
26	0x3d9b85a6	0.07593851
27	0x3e10f074	0.14154226
28	0x3e232862	0.15933374
29	0x3c8b9ca1	0.01704246
30	0x3d972f6b	0.07382091
31	0x3e180d04	0.14848715
32	0x3ce10b66	0.027471256
33	0x3e244327	0.16041242
34	0x3ca4631c	0.02006679
35	0x3e1e461f	0.15456437
36	0x3d87464f	0.06605207
37	0x3cb15891	0.021648677
38	0x3e357579	0.17720594
39	0x3d658322	0.05603326
40	0x3e2bdea2	0.16784146
41	0x3df106e3	0.11768892
42	0x3d8c17f1	0.06840504
43	0x3e25ac68	0.16179049
44	0x3e201862	0.15634301
45	0x3e065a39	0.13120355
46	0x3e294c91	0.16533114
47	0x3e0dd4ad	0.1385066
48	0x3dbf2f5d	0.09335206
49	0x3df837e3	0.121200345
50	0x3d8d4787	0.068984084
51	0x3d81735f	0.063208334
52	0x3c74ed6e	0.014949186
53	0x3dfa9315	0.12235085
54	0x3cd50a2a	0.026005823
55	0x3de6bd59	0.11266584
56	0x3d952fa3	0.072844766
57	0x3d5d28fb	0.05399416
58	0x3cbe3e14	0.02322296
59	0x3c919814	0.017772712
60	0x3d801cd4	0.062554985
61	0x3d72f09e	0.0593115
62	0x3d8106fc	0.0630016
63	0x3d8946f7	0.067029886
64	0x3dfd25d0	0.12360728
65	0x3d058074	0.032593206
66	0x3e1b4186	0.15161714
67	0x3d22aced	0.039715696
68	0x3d103341	0.03520513
69	0x3b9f3ecc	0.004859781
70	0x3e218de7	0.15776788
71	0x3da93fd0	0.082641244
72	0x3dd940bd	0.10608051
73	0x3e12efd5	0.14349301
74	0x3d321cc3	0.04348446
75	0x3def7466	0.11692123
76	0x3c9e5988	0.019329801
77	0x3da44825	0.08021573
78	0x3dda2e2a	0.10653336
79	0x3c1e74e7	0.009671426
80	0x3e2ecace	0.17069551
81	0x3ded6f97	0.1159355
82	0x3dff64b0	0.124703765
83	0x3dd3e27e	0.10345934
84	0x3e3164b2	0.17323568
85	0x3da2fcc5	0.07958368
86	0x3d8e5a03	0.06950762
87	0x3dd1a4f4	0.102365404
88	0x3e472e2e	0.1945121
89	0x3ccecb3c	0.025243394
90	0x3e09c98a	0.13455787
91	0x3d171a8e	0.03689056
92	0x3e1b13d9	0.1514429
93	0x3d29db18	0.04146871
94	0x3dafae94	0.0857822
95	0x3c1cb4f1	0.009564624
96	0x3d7dfb90	0.062007487
97	0x3da6d10c	0.08145341
98	0x3dcb3079	0.09921355
99	0x3d63b82e	0.05559557
100	0x3dae6c45	0.085167445
101	0x3e01e5f8	0.12685382
102	0x3e1d8b8f	0.15385269
103	0x3d5eaa07	0.05436137
104	0x3e1f8598	0.15578306
105	0x3df67fd6	0.120361015
106	0x3d9a8e8e	0.075467214
107	0x3dd62e46	0.10458045
108	0x3dff912e	0.12478863
109	0x3d27e652	0.040991135
110	0x3c3eea1a	0.011652494
111	0x3c8eb3f7	0.017419798
112	0x3d2264e2	0.03964699
113	0x3dc8a1ca	0.09796484
114	0x3cd2f097	0.025749488
115	0x3d4c0fd6	0.04981979
116	0x3d9ade04	0.07561877
117	0x3dc6bc10	0.09703839
118	0x3d96c278	0.07361311
119	0x3d28922e	0.041155033
120	0x3d675e89	0.05648664
121	0x3dc575dc	0.096416205
122	0x3d41734c	0.047229096
123	0x3e14b081	0.14520456
124	0x3e4496fe	0.19198224
125	0x3e15487f	0.14578436
126	0x3d28eab4	0.041239455
127	0x3deab61b	0.11460515
128	0x3d4efe84	0.050535694
129	0x3d8cbf49	0.06872422
130	0x3d096dcb	0.033551972
131	0x3e016000	0.12634277
132	0x3c6e0a0b	0.014528762
133	0x3c8d49ed	0.017247165
134	0x3dc283a8	0.09497768
135	0x3e1ca06d	0.15295573
136	0x3e146abb	0.1449384
137	0x3ce12608	0.027483955
138	0x3d254f7a	0.040358998
139	0x3df19ac4	0.11797097
140	0x3e55a1ba	0.20862475
141	0x3e4dcab3	0.20096855
142	0x3dd3a27d	0.103337266
143	0x3d597fe2	0.053100474
144	0x3d6674b8	0.056263655
145	0x3e4ae75c	0.19814819
146	0x3d6489cd	0.05579548
147	0x3d4a5e41	0.049406294
148	0x3e1aa437	0.15101705
149	0x3db3d4ef	0.08780848
150	0x3e064926	0.13113841
151	0x3e1bd0eb	0.15216415
152	0x3de1bfc3	0.11022904
153	0x3d571a7c	0.05251549
154	0x3e198513	0.1499217
155	0x3e1ec96a	0.15506521
156	0x3dcc0a65	0.0996292
157	0x3d27c9a9	0.040963802
158	0x3e3aa149	0.18225588

trunk.0.depthwise.norm.running_var f4 [159]
0	0x3d064aef	0.032786306
1	0x3d774da9	0.060376797
2	0x3ca599ac	0.020214878
3	0x3ab87956	0.0014074247
4	0x3ac93871	0.0015351904
5	0x3cc46e04	0.02397824
6	0x3d244405	0.04010393
7	0x3d0a3716	0.03374394
8	0x3d5fdff6	0.054656945
9	0x3c0667dd	0.008203474
10	0x3d50d2aa	0.050982155
11	0x3ca6e6d3	0.020373737
12	0x3d56446e	0.052311353
13	0x3ad70b59	0.001640658
14	0x3beb1983	0.007174672
15	0x3d8d55bd	0.06901119
16	0x3d41ac6d	0.04728358
17	0x3c2986aa	0.010347048
18	0x3c8e8a4c	0.01739993
19	0x3bb99640	0.005663663
20	0x3d8c58f6	0.068529055
21	0x3c9aa9ae	0.018879738
22	0x3cafbd7b	0.021452656
23	0x3cfdcbd7	0.030980987
24	0x3d50a701	0.050940517
25	0x3d0d17e8	0.034446627
26	0x3ca180db	0.019714763
27	0x3d1fe7e5	0.03903951
28	0x3d5ce161	0.053925876
29	0x3aa9986c	0.0012939102
30	0x3c8386ab	0.016055426
31	0x3d1e42a5	0.038637776
32	0x3c9945e5	0.018710086
33	0x3d5e09bf	0.054208513
34	0x3c73873b	0.014863784
35	0x3cc5d13f	0.024147628
36	0x3c728808	0.01480294
37	0x3b3b61ba	0.0028592185
38	0x3d377a68	0.04479447
39	0x3d416e3c	0.04722427
40	0x3d0194d4	0.031636074
41	0x3d210607	0.03931239
42	0x3c76c9d0	0.015062764
43	0x3d7a2f59	0.06108031
44	0x3d544813	0.051826548
45	0x3d2b28f7	0.041787114
46	0x3d779e38	0.060453624
47	0x3d4b68fe	0.049660675
48	0x3c71aaa6	0.014750158
49	0x3c8539ee	0.016262975
50	0x3ca08d64	0.01959867
51	0x3c71ff1a	0.014770294
52	0x3ab9731d	0.0014148686
53	0x3d12a2fa	0.035799958
54	0x3b40ff07	0.0029448883
55	0x3d3d0dfe	0.046155922
56	0x3c83b606	0.016078006
57	0x3c11d0e8	0.008899905
58	0x3c8109b2	0.015751693
59	0x3c01edae	0.007930202
60	0x3c5197a8	0.012792505
61	0x3c5ddde7	0.013541675
62	0x3c24a259	0.010048472
63	0x3c3403b7	0.010987214
64	0x3d1cedd2	0.03831274
65	0x3be1484b	0.006875073
66	0x3d0f96ce	0.035055928
67	0x3c0fc430	0.008774802
68	0x3bb24e96	0.005441497
69	0x39a9285b	0.0003226426
70	0x3d4b70e2	0.0496682
71	0x3c50dca1	0.0127479145
72	0x3cba9efa	0.022780884
73	0x3ca5f772	0.020259593
74	0x3bb615e5	0.0055568093
75	0x3d0c157d	0.03420018
76	0x3ae78d5c	0.001766603
77	0x3c52210d	0.012825263
78	0x3c6105fd	0.013734338
79	0x3ac0284f	0.001466045
80	0x3d80bc55	0.062859215
81	0x3c856c49	0.016286986
82	0x3c21af54	0.009868462
83	0x3cdeec1c	0.027212195
84	0x3d4e5850	0.05037719
85	0x3c8bbdda	0.017058302
86	0x3c794a8e	0.015215529
87	0x3ce112ac	0.027474724
88	0x3dae0ea4	0.08498886
89	0x3c552b3d	0.013010797
90	0x3d2c22f0	0.042025506
91	0x3baf1060	0.005342528
92	0x3d2c7bff	0.04211044
93	0x3b8164be	0.003948777
94	0x3cd6c4f1	0.026216956
95	0x3a0d63de	0.00053936045
96	0x3c46811d	0.012115744
97	0x3c57469a	0.013139391
98	0x3c857ae3	0.016293949
99	0x3c391b03	0.011297944
100	0x3cb2f22a	0.021843988
101	0x3d266b1b	0.040629487
102	0x3d5d660c	0.054052398
103	0x3c1f4581	0.009721161
104	0x3d211923	0.039330613
105	0x3ccb815b	0.024841955
106	0x3ccd9fa0	0.02510053
107	0x3d0fe57a	0.035130955
108	0x3d8113d7	0.06302612
109	0x3baf7039	0.005353954
110	0x3a8f71b4	0.001094392
111	0x3ad97326	0.0016590103
112	0x3c96d199	0.01841049
113	0x3ccd975d	0.02509659
114	0x3b345ca6	0.0027521043
115	0x3bd87432	0.0066056484
116	0x3ca7d1f6	0.02048586
117	0x3cc6414b	0.024201056
118	0x3cdc6931	0.026905628
119	0x3c625e20	0.013816386
120	0x3ca6ecef	0.02037665
121	0x3d21d9b4	0.03951426
122	0x3bae1340	0.0053123534
123	0x3cdc8eaa	0.026923496
124	0x3d4994d8	0.049214214
125	0x3d448c1a	0.047985174
126	0x3bcf02f6	0.0063174916
127	0x3ce88d40	0.028387666
128	0x3c54901d	0.012973812
129	0x3c44e24e	0.012016846
130	0x3bbc5a13	0.0057480424
131	0x3d507930	0.050896823
132	0x3ac1efa2	0.0014796148
133	0x3abee029	0.0014562655
134	0x3cb79e0e	0.022414234
135	0x3cf8d2e1	0.030373992
136	0x3d5a6609	0.053319965
137	0x3b53c1ab	0.003231148
138	0x3bd3ef18	0.006467711
139	0x3d10281b	0.035194498
140	0x3dcf0655	0.101086296
141	0x3da8e554	0.08246866
142	0x3c88eea3	0.016715353
143	0x3c2579eb	0.010099868
144	0x3c50587a	0.012716407
145	0x3d78bfd6	0.060729824
146	0x3c1e336e	0.0096558165
147	0x3c11e13b	0.008903797
148	0x3cdedc06	0.027204525
149	0x3ca46714	0.020068683
150	0x3cd9ee32	0.026602838
151	0x3d749993	0.059716772
152	0x3ca20815	0.019779244
153	0x3d340b92	0.043956347
154	0x3d3a3a26	0.04546561
155	0x3d78711a	0.060654737
156	0x3c8a9076	0.016914587
157	0x3c1ec6c9	0.009690949
158	0x3cefdb3b	0.029279342

trunk.0.se.fc1.bias f4 [40]
0	0x3bb4abce	0.005513645
1	0xbca0176c	-0.019542418
2	0x3d33f32a	0.04393307
3	0xbc8c3a81	-0.01711774
4	0x3d769787	0.0602031
5	0xbd795da6	-0.060880326
6	0x3d5443d8	0.051822513
7	0x3b9b98d6	0.004748444
8	0xbd759b3f	-0.059962507
9	0x3d63026b	0.055422228
10	0xbc2bc2f9	-0.010483497
11	0x3dbb5833	0.09147682
12	0xbb959d6a	-0.0045658844
13	0x3d60d3de	0.054889552
14	0x3d21be8b	0.039488357
15	0xbc813347	-0.015771521
16	0x3cf55000	0.029945374
17	0xbc8c4853	-0.01712433
18	0xbd30372b	-0.043021362
19	0xbd09d9c6	-0.03365495
20	0xbbd6d882	-0.0065565715
21	0xbca35e6c	-0.019942485
22	0xbd74cdcc	-0.059766576
23	0x3b83d302	0.004022957
24	0x3d9afd47	0.0756784
25	0xbc8a9f86	-0.01692177
26	0x3c111c84	0.008856896
27	0xbd0a4aae	-0.033762626
28	0xbc22d3c2	-0.009938182
29	0x3d943537	0.072367124
30	0xbce70754	-0.028201737
31	0x3c1831bf	0.009289204
32	0xbcc9b386	-0.024621736
33	0xbce4548d	-0.027872348
34	0x3ce6e8cc	0.028187178
35	0xbce2e958	-0.027699158
36	0xbcbbdc94	-0.022932328
37	0x3c0a197a	0.008428926
38	0x3c0fdf0f	0.008781209
39	0x3d13c049	0.03607205

trunk.0.se.fc2.bias f4 [159]
0	0xbd2b58d3	-0.041832756
1	0xbdbbd95a	-0.09172316
2	0xbda4b6bc	-0.08042666
3	0xbdcc09b7	-0.099627905
4	0xbc369cec	-0.0111458115
5	0xbe047079	-0.1293353
6	0xbd03657b	-0.0320792
7	0x3cbba318	0.022904918
8	0xbd2bf1a4	-0.041978493
9	0x3db24d45	0.08706144
10	0x3d236f48	0.039901048
11	0xbd3bfc9e	-0.04589521
12	0xbcb8d7e5	-0.022563884
13	0xbd98cc11	-0.074607976
14	0x3cb55560	0.022135437
15	0x3d2b0013	0.041748118
16	0xbd2ac953	-0.041695904
17	0xbd30c636	-0.04315778
18	0xbcd92d77	-0.026510937
19	0xbc8c4df5	-0.017127017
20	0xbcd403b3	-0.02588067
21	0xbd951e11	-0.07281125
22	0x3ba32b75	0.0049795457
23	0xbd0edda5	-0.034879345
24	0x3da2a391	0.07941354
25	0x3d969d93	0.07354274
26	0xbb8a3d0a	-0.004218702
27	0xbdee3250	-0.1163069
28	0xbd505dff	-0.05087089
29	0x3da4f49a	0.080544665
30	0x3ab15d65	0.0013531862
31	0xbd7adeb2	-0.061247535
32	0x3dd5ee47	0.104458384
33	0x3da840bf	0.08215474
34	0xbdd97fa1	-0.106200464
35	0x3d3e8887	0.04651692
36	0xbddb7a0a	-0.107166365
37	0x3d921b86	0.07134156
38	0xbdcb1781	-0.099165924
39	0xbc008664	-0.007844541
40	0x3db6f229	0.08932907
41	0xbd07ec13	-0.033184122
42	0xbda6c2d7	-0.081426315
43	0xbcaedc33	-0.021345234
44	0xbc2351f9	-0.009968274
45	0xbba89f9b	-0.0051459796
46	0x3d806888	0.06269938
47	0xbd839fb5	-0.06426946
48	0xbe0e78a0	-0.13913202
49	0xbd71b41c	-0.059009656
50	0xbdde2099	-0.10846061
51	0xbe1ec0e8	-0.15503275
52	0x3d6a308d	0.057175208
53	0xbd623b61	-0.05523241
54	0xbe00ba70	-0.1257112
55	0xbdaa644b	-0.083199106
56	0xbbac39c6	-0.0052559106
57	0x3e2989e8	0.16556513
58	0x3d23656c	0.039891645
59	0xbe04ebc7	-0.12980567
60	0x3cf59a91	0.02998093
61	0xbd0f0684	-0.034918323
62	0xbd223c09	-0.039608035
63	0xbd83d154	-0.064364105
64	0x3a63dade	0.00086919765
65	0x3cfd61e1	0.030930461
66	0x3bb46ddd	0.005506261
67	0xbd07ea0f	-0.0331822
68	0xbdb3cc91	-0.08779252
69	0xbca817d1	-0.020519169
70	0x3e202e72	0.15642717
71	0xbe1e7048	-0.1547252
72	0xbe27fde9	-0.16405453
73	0x3b1290e8	0.0022364203
74	0xbdda0eba	-0.1064734
75	0x3dd2e21a	0.10297032
76	0x3cc6fe71	0.024291249
77	0xbcd06545	-0.025438914
78	0xbcb8d7ae	-0.022563782
79	0xbd04a7f2	-0.032386728
80	0x3d844a16	0.06459443
81	0xbcc35337	-0.02384339
82	0x3caddb30	0.02122268
83	0xbde1904f	-0.11013853
84	0xbe11ba77	-0.14231287
85	0xbd8bf92b	-0.068346344
86	0x3daf3dc5	0.085567035
87	0xbdc75672	-0.09733285
88	0xbcbe9b38	-0.023267373
89	0xbc7481fe	-0.014923571
90	0xbd96537b	-0.073401414
91	0xbe389ad2	-0.1802781
92	0x3d56c227	0.05243125
93	0x3d8dc4dd	0.06922314
94	0x3d1ae1cb	0.03781299
95	0x3d533e5a	0.051573135
96	0xbc96d41e	-0.018411692
97	0xbd6b236e	-0.057406835
98	0xbcb657b0	-0.02225861
99	0x3e2751d5	0.1633981
100	0xbd83502f	-0.06411778
101	0xbd2d3da8	-0.042295128
102	0x3d1c7e4e	0.03820639
103	0x3d41fa2e	0.04735773
104	0xbe384ec5	-0.17998798
105	0xbd4a8fc4	-0.04945351
106	0xbd8cee2c	-0.06881365
107	0x3ba4a48d	0.005024499
108	0xbd3b3fd2	-0.04571516
109	0x3e13142e	0.14363167
110	0xbe0dc30f	-0.1384394
111	0x3d3cad1f	0.04606354
112	0x3d0d97af	0.034568485
113	0x3d5e9988	0.054345638
114	0x3d65d2da	0.056109287
115	0x3d529403	0.051410686
116	0xbe097ad3	-0.1342576
117	0xbe43e33d	-0.19129653
118	0xbdbc10b6	-0.09182875
119	0xbdf9693a	-0.121782735
120	0xbe27b530	-0.16377711
121	0xbd1197fc	-0.035545334
122	0x3d4e4570	0.05035919
123	0x3d8cdf06	0.06878476
124	0xbcd7b026	-0.026329111
125	0xbcbc2c38	-0.022970304
126	0x3cbd9f1b	0.023147156
127	0xbc2c7500	-0.010525942
128	0xbe44ed05	-0.19231041
129	0xbe119062	-0.14215234
130	0xbdaf44b1	-0.08558024
131	0xbe1533bf	-0.14570521
132	0xbb8bd55d	-0.0042673782
133	0x3e7f8192	0.24951771
134	0xbdf12f83	-0.1177664
135	0xbc165b00	-0.0091769695
136	0x3cc97660	0.024592578
137	0xbe0b44af	-0.1360042
138	0xbe14167e	-0.14461705
139	0xbded5fba	-0.11590524
140	0xbd8214fc	-0.06351659
141	0x3d4363fe	0.04770278
142	0xbcafe5bc	-0.02147185
143	0xbd2b6ac6	-0.041849874
144	0xbd26b561	-0.04070032
145	0xbdd92bef	-0.10604083
146	0x3898c7a6	7.285112e-05
147	0xbd8605da	-0.06544085
148	0x3cfaf52d	0.030634487
149	0xbe019699	-0.12655105
150	0x3c0aa5f0	0.008462414
151	0x3c775084	0.01509488
152	0x3db3e9e7	0.08784848
153	0x3d51a56c	0.05118315
154	0xbd7f1e01	-0.062284473
155	0x3cac728f	0.02105072
156	0xbda67452	-0.08127655
157	0xbd8ce4c1	-0.06879569
158	0xbdf34f3d	-0.11880348

trunk.0.project.norm.weight f4 [56]
0	0x3f1b0f6e	0.6057042
1	0x3f20afec	0.62768435
2	0x3f370255	0.71487933
3	0x3f105258	0.56375647
4	0x3f3cbf34	0.7372925
5	0x3f27f819	0.6561294
6	0x3f1995cc	0.59994197
7	0x3f263880	0.6492996
8	0x3f14bd79	0.5810161
9	0x3f2d9adb	0.67814416
10	0x3f2a976e	0.66637313
11	0x3f38930c	0.72099376
12	0x3f335b2e	0.70061004
13	0x3f2a06f0	0.66416836
14	0x3f1ca2b1	0.6118575
15	0x3f13db4f	0.57756513
16	0x3f31b806	0.6942142
17	0x3f2f544c	0.68488
18	0x3f29898d	0.6622551
19	0x3f28d5f0	0.6595144
20	0x3f3931a0	0.72341347
21	0x3ec0b065	0.37634578
22	0x3ebefa33	0.37300262
23	0x3f336e37	0.7009005
24	0x3f3d1af3	0.73869246
25	0x3f2729b3	0.65298
26	0x3f2943db	0.66119164
27	0x3f1420fd	0.57862836
28	0x3f2c41e1	0.67288023
29	0x3f34cc8c	0.70624614
30	0x3e6681e9	0.22510494
31	0x3f1bc5aa	0.60848486
32	0x3f0d5cbe	0.5521964
33	0x3ec394a7	0.3819935
34	0x3f2e8f2a	0.681872
35	0x3f0142a6	0.5049232
36	0x3f03caa4	0.5148108
37	0x3f2a953c	0.66633964
38	0x3f38c7aa	0.72179663
39	0x3f347208	0.704865
40	0x3f33ce8e	0.7023705
41	0x3f2981bb	0.6621358
42	0x3f3c831a	0.73637545
43	0x3f17dcf8	0.59321547
44	0x3f0b51f8	0.5442195
45	0x3f3a888f	0.7286462
46	0x3f3ad8a6	0.7298683
47	0x3f2351a8	0.6379647
48	0x3f31d5c4	0.69466805
49	0x3f0bb594	0.5457394
50	0x3f20e746	0.62852895
51	0x3f0e79df	0.5565471
52	0x3f3c0433	0.7344391
53	0x3f3069dc	0.6891153
54	0x3f37efed	0.7185047
55	0x3efad110	0.48987627

trunk.0.project.norm.bias f4 [56]
0	0x3bd9b637	0.006644036
1	0xbcda78e7	-0.026668979
2	0xb9dc5c31	-0.00042030358
3	0x3d7f1c34	0.062282756
4	0xbc9d1deb	-0.019179305
5	0x3cc5d39e	0.024148759
6	0x3d2de070	0.04245037
7	0x3ca14e40	0.019690633
8	0x3c4d4a94	0.012529988
9	0xbbe43409	-0.006964211
10	0x3ca4cd71	0.020117493
11	0xbc9421b9	-0.018082486
12	0x3b88927f	0.0041678543
13	0xbb9fe901	-0.004880071
14	0x3caccdca	0.021094222
15	0xbcc4f169	-0.024040895
16	0xbc93a7d6	-0.018024366
17	0x3c36ad00	0.011149645
18	0xbbe68eb2	-0.0070360536
19	0x3bb2fa92	0.005461999
20	0x3caaf754	0.020869888
21	0xbcc0b127	-0.023521973
22	0x3d829b9c	0.063773364
23	0x3bddae99	0.0067651984
24	0x3d312921	0.043252114
25	0x3bce7a3e	0.0063011935
26	0xbcd95250	-0.026528507
27	0xbcde7f7f	-0.027160404
28	0x3cee7112	0.02910665
29	0x3a9c5bd6	0.0011929225
30	0xbe3685a2	-0.17824414
31	0xbd216751	-0.03940517
32	0xbc9e88ba	-0.019352306
33	0xbd1734e7	-0.036915686
34	0x3c40d97f	0.011770605
35	0x3c3403f8	0.010987274
36	0xbc89c340	-0.016816735
37	0x3cc251d7	0.023720665
38	0x3c8fae8e	0.017539289
39	0x3cafb1bb	0.021447053
40	0x3bbb11de	0.005708917
41	0xbc0f1cd3	-0.0087349
42	0xbcd0c47a	-0.025484312
43	0x3c3aed88	0.011409171
44	0xbb08ab15	-0.0020853926
45	0x3b5f878c	0.0034107892
46	0x3c6920de	0.014229028
47	0x3c612a2c	0.013742965
48	0xbc55e454	-0.013054926
49	0x3bc1ef53	0.0059184222
50	0xbbce8139	-0.0063020256
51	0x3ccd2e6c	0.02504655
52	0x3ba88484	0.00514275
53	0x3c85e7c5	0.016345868
54	0xbbad2303	-0.0052837147
55	0xbd25b83d	-0.040458906

trunk.0.project.norm.running_mean f4 [56]
0	0xbc5b5e06	-0.013389116
1	0xbd697f9f	-0.057006475
2	0x3e1daf49	0.15398897
3	0x3c5d6318	0.013512395
4	0xbe43cb94	-0.19120628
5	0x3b4adb89	0.0030953607
6	0xbe1b7db6	-0.15184674
7	0x3e5ca929	0.21548904
8	0x3e1aed31	0.15129544
9	0xbc9d109a	-0.019172955
10	0xbe1ee90c	-0.15518588
11	0x3d3bb904	0.04583074
12	0x3e9110ed	0.28333226
13	0x3e5b58e5	0.2142063
14	0x3ddab6f6	0.10679428
15	0xbdb4b489	-0.08823497
16	0xbe1efd98	-0.15526426
17	0x3e4d76f7	0.20064913
18	0x3d34aa1e	0.04410755
19	0xbda604e4	-0.081064016
20	0xbe2c0c42	-0.16801551
21	0xbe3f0e32	-0.18657759
22	0xbe85b4f4	-0.2611462
23	0x3e80f678	0.2518804
24	0xbe154cea	-0.14580122
25	0x3e45a142	0.19299796
26	0xbe89812a	-0.26856357
27	0x3d7189a0	0.05896914
28	0x3d1a96c8	0.037741452
29	0x3e9b85c8	0.30375504
30	0x3e59d565	0.2127281
31	0xbe7ebd32	-0.2487686
32	0xbe0b1f6e	-0.13586208
33	0xbea79c09	-0.32736233
34	0xbe5c0a87	-0.21488391
35	0xbdb364cf	-0.08759462
36	0xbe3a9106	-0.18219385
37	0x3e187d4c	0.14891547
38	0x3dc20b5e	0.09474824
39	0x3e284367	0.16431962
40	0xbdaf0df1	-0.08547581
41	0x3d5f1940	0.05446744
42	0xbd7edb3f	-0.062220808
43	0x3c02262e	0.007943673
44	0x3e042854	0.12906009
45	0xbe716889	-0.23575033
46	0xbe68cda9	-0.22734703
47	0xbd9177d6	-0.07102935
48	0xbe526f54	-0.20550281
49	0x3e47de44	0.19518381
50	0xbe1c1e40	-0.15245914
51	0x3dba4d07	0.09096723
52	0xbdcf983b	-0.101364575
53	0x3e073f63	0.13207774
54	0xbe489886	-0.19589433
55	0xbd89cba8	-0.067282975

trunk.0.project.norm.running_var f4 [56]
0	0x3d1317da	0.03591142
1	0x3cd89513	0.026438272
2	0x3cafebd1	0.02147475
3	0x3ca8d9aa	0.020611603
4	0x3cc60608	0.024172798
5	0x3cb96911	0.022633107
6	0x3d104a99	0.035227392
7	0x3d05008f	0.032471236
8	0x3cc2afce	0.02376547
9	0x3c82b6fe	0.015956398
10	0x3cc49b95	0.023999969
11	0x3c951530	0.01819858
12	0x3d0baa45	0.03409793
13	0x3cd5593d	0.026043529
14	0x3cd56a77	0.026051743
15	0x3cd6d23f	0.0262233
16	0x3d39f0e8	0.04539576
17	0x3d1e585b	0.03865848
18	0x3cc4cb59	0.024022745
19	0x3d260650	0.040533364
20	0x3cdd1e97	0.026992125
21	0x3ce1e78b	0.027576229
22	0x3d410350	0.0471223
23	0x3cf06f4e	0.02934995
24	0x3d3df047	0.046371724
25	0x3ccc8514	0.0249658
26	0x3d0a3676	0.033743344
27	0x3d298562	0.04138697
28	0x3cbe86e8	0.023257688
29	0x3cec0fc1	0.028816106
30	0x3d59b450	0.053150475
31	0x3d182e4c	0.037153527
32	0x3ced9f8a	0.029006738
33	0x3d330b99	0.043712232
34	0x3cdcf914	0.026974238
35	0x3d3cb918	0.046074957
36	0x3d35d894	0.044395998
37	0x3d0c9b4e	0.034327798
38	0x3cc61bc4	0.024183162
39	0x3ce1ffa6	0.027587723
40	0x3cef082d	0.029178703
41	0x3caac020	0.020843565
42	0x3ca9b8ea	0.020718057
43	0x3d31bd3a	0.04339335
44	0x3cd0745f	0.025446115
45	0x3d01c089	0.031677756
46	0x3cf0d869	0.029400067
47	0x3caf22a1	0.021378817
48	0x3ce90c6f	0.028448312
49	0x3d265178	0.04060504
50	0x3ccde9ab	0.025135836
51	0x3cc30069	0.023803907
52	0x3ccf9636	0.02534018
53	0x3d0269b7	0.0318391
54	0x3d01982d	0.031639267
55	0x3ca9db93	0.020734584
