splendor/model_3pl.onnx (onnx, 914571 bytes, 70 tensors)

first_layer.norm.weight f4 [71]
00000000: 6f0b d63d 21b6 2b3d 2ee6 963d 7e69 a13d
00000010: fe2f 503d dfc8 8c3d 2ac4 de3c d2bc 5a3d
00000020: 7191 093d 5cd6 173d ac24 ca3d 2caa 6f3d
00000030: b9b7 f73c ab1e c03d 1fc0 203e 7f4f 6d3d
00000040: 5549 603d 306e 283d 849d df3d 0e5f 813d
00000050: 7c22 533d f7e0 193d b049 343d 30b4 cc3d
00000060: a740 5b3d 64e5 343d 92ff 063d 716a 1b3e
00000070: 8c8b 873d d65c b03d c629 f53d 0eec 353d
00000080: 2f5b 673d 99bf 753d d92f ab3c 72fb a03d
00000090: 916d 383d 93b8 713d 509c 7e3d 1bfe 8a3d
000000a0: d145 ba3d 85bc a23d 5343 c13d 6516 af3d
000000b0: 4564 9c3d 6f43 7d3d 68c2 433d f69a 293d
000000c0: bee5 893d 2157 d33d a947 693d b1df f63d
000000d0: 760d 893d 595e a63d e2b2 2b3d 49fe d13d
000000e0: f3c8 903d 2bf5 ff3d 0ef8 163e 75af 5c3d
000000f0: 662c 9d3d 66f7 9a3d 1a56 773d a37f a13d
00000100: 3d65 f83c 7002 423d 649e a53d d1e1 1a3d
00000110: 73df 293d 3e4e d23c a772 873d
0.104513995 0.04192174 0.07368122 0.07881449 0.05082702 0.068742506 0.027193148 0.05340273
0.03358597 0.037069663 0.09870276 0.058511898 0.030238973 0.093808495 0.15698288 0.05793714
0.054757435 0.041120708 0.109187156 0.06316958 0.05154656 0.03756806 0.044015586 0.099953055
0.053528454 0.044164076 0.032958575 0.15177323 0.06618413 0.08611457 0.11970858 0.044414572
0.056483444 0.059997175 0.020896839 0.078604594 0.045026366 0.059013914 0.06216079 0.06786748
0.09095348 0.079461135 0.09436669 0.08549193 0.076363124 0.061831888 0.047792822 0.041407548
0.06733273 0.10319353 0.056953106 0.120543845 0.066920206 0.08123464 0.041918643 0.10253579
0.07069578 0.12497934 0.14743063 0.053878266 0.07674484 0.07566719 0.060384847 0.07885673
0.030321712 0.047365606 0.08086851 0.03781301 0.041472863 0.025672074 0.06613665

first_layer.norm.bias f4 [71]
00000000: 4a1f c0bb a0bb 343c b396 26ba c98f 32bb
00000010: 7c36 423b 6089 1e3b e2aa 85bb e6a6 b839
00000020: ff79 c0bb 845c ebbb 6e8d debb d794 163c
00000030: f428 c4bb 9002 8d3a 0de7 b1bb 3622 8db9
00000040: 3a79 5dbb dd43 aabb 8db2 053b b6b3 0a3b
00000050: 268e 35bb fe05 fc3b d185 7dbb 1667 3dbc
00000060: e70e b53b 51a2 013b 83ce 133c 05a7 57bb
00000070: c708 693c 13e2 46bb 7660 13bb 6453 143a
00000080: 3111 90bb b33c c63b da0c 3e3c f380 efba
00000090: e777 1f3c b556 a339 b124 61bb 9005 70ba
000000a0: 0bb4 1f3b 7144 0bbc 5301 a4b9 4a11 8ebb
000000b0: 8c80 9ebb 3b5a 98ba 967d 01bb 5e56 b63b
000000c0: a663 e53b d018 4e3b df18 313b 62ba a1ba
000000d0: 74d9 75ba e37c a4ba d855 38bb 4e5d 223c
000000e0: be98 8abb 29e6 d8bb a3e5 61bb 055d 6e3a
000000f0: 0fab a0bb 4309 d13b 0075 70ba 0b20 acbb
00000100: 80cb 8f3b b6fd c2bb 238f 5ebb d51f 9bbb
00000110: 23d0 6fbb 63f5 ef3b 5351 de3a
-0.005863105 0.011031061 -0.00063548534 -0.0027246347 0.0029634526 0.0024190769 -0.0040792087 0.00035219564
-0.005873918 -0.0071826596 -0.006791762 0.00919076 -0.0059863273 0.001075821 -0.0054291547 -0.00026919105
-0.003379418 -0.005196078 0.0020400614 0.0021164245 -0.0027703135 0.007691144 -0.0038684497 -0.011560222
0.005525458 0.0019780586 0.009021404 -0.0032905948 0.014223284 -0.0030347153 -0.0022487915 0.0005658178
-0.0043965806 0.0060497164 0.011599744 -0.0018272683 0.009733177 0.00031154384 -0.0034354145 -0.00091561023
0.0024368789 -0.008500204 -0.00031281504 -0.004335557 -0.0048371013 -0.001162357 -0.0019758693 0.005564495
0.0070004044 0.0031447895 0.002702288 -0.0012338872 -0.00093784113 -0.0012549426 -0.0028127339 0.009909941
-0.004229634 -0.006619234 -0.003446915 0.00090928405 -0.0049032043 0.006379278 -0.0009172708 -0.0052528433
0.0043882728 -0.005950655 -0.0033959828 -0.0047340193 -0.0036592565 0.0073229535 0.0016961492

first_layer.norm.running_mean f4 [71]
00000000: 63fc fec0 bb3f 6d3f a6f9 cdbe 8bb0 8dbe
00000010: 92fc c6bf 49b4 4f3f e895 543f 770c 733f
00000020: c35f 6c3f 26a9 263e fb05 833f cedc 81bf
00000030: 40fc 6abf 70d6 9f3e 7a9a 8340 1e91 4240
00000040: 0606 7dbe e9d3 6cbf 9cad 3f3f 6536 75be
00000050: c5c7 10be df48 e3bf 4eb1 df3e 4894 babf
00000060: 38ab 26c0 7e90 693f 89de b8bf 385e 133f
00000070: 782b 0f3f 29ed 87bf 88cf de40 815c 273f
00000080: cbd1 433f 7eac 85c0 e86c 0fbf 9d88 053e
00000090: ec95 a1bd a00a efbf 43c4 0840 19e9 a23f
000000a0: 72a7 50c0 0fdd f73f 3e6d be3f 9eca 6ebf
000000b0: aa98 033d 5b44 66bf 2440 2f3f e328 fd3e
000000c0: 4555 9ebe cc45 f2bd 7bb1 f4bf 464e 513f
000000d0: db33 aa3e 00be 543f 7c65 123f 8826 a63f
000000e0: ca92 403e b475 0340 a246 803f e9e9 08bf
000000f0: 9279 1f3f 1113 da3f 3048 6fbf 9eb5 afbf
00000100: 3974 0b3f 36ba 573f 9922 a13d 6a26 aabf
00000110: 2e7b da3f 4d95 0ebe 71e1 4a3f
-7.968309 0.9267537 -0.4022953 -0.27673754 -1.5545828 0.8113447 0.8304124 0.94940895
0.9233362 0.16275463 1.02362 -1.0145509 -0.9179115 0.3121829 4.112607 3.0401073
-0.24709329 -0.9251085 0.7487428 -0.23946531 -0.14138706 -1.7756613 0.4368996 -1.4576502
-2.6042004 0.912361 -1.4442912 0.5756564 0.55925703 -1.061925 6.9628334 0.65375525
0.76491994 -4.177306 -0.5602555 0.13040395 -0.078899235 -1.8675117 2.1369789 1.2727386
-3.26022 1.9364337 1.4877088 -0.9327792 0.032128014 -0.8994805 0.68457246 0.49445257
-0.3092443 -0.11829719 -1.9116663 0.8176006 0.33242688 0.83102417 0.571861 1.2980509
0.18805996 2.054059 1.0021555 -0.5348192 0.62294877 1.7037069 -0.93469524 -1.37273
0.54474217 0.8426851 0.07867927 -1.3292973 1.7068841 -0.13924141 0.79250246

first_layer.norm.running_var f4 [71]
00000000: 5d9d 6741 898a d740 ca5d 1340 e456 0540
00000010: 0809 5840 4e10 bf3f a906 2041 d450 0b40
00000020: e83a 3f40 aefe 4f40 1367 8440 6ce4 d740
00000030: 5017 d140 e75c 3940 5022 8041 4f19 3b41
00000040: 8f73 fb3f 301f 9240 c729 3240 fa44 1240
00000050: 96e7 3140 c986 9e40 b458 1940 bd8d 2f40
00000060: e866 0341 3d50 7840 e92a 3840 fc09 3240
00000070: 8c6e 4a40 8d79 1940 d4cc 7141 79a6 7740
00000080: 3786 4e40 2f8f 2241 5460 1e40 426c 6f40
00000090: 6280 8240 4104 ab40 e9c6 bc40 8b6f 2a40
000000a0: 6c4d 2941 6dc8 6841 295e c93f e32a 1540
000000b0: 6dba 7040 a41e 3340 ce48 1a40 1e3e a640
000000c0: d919 0840 05ce 0640 4e4b 3740 bea6 2240
000000d0: f248 2d40 fd3a 0c40 f8ae 2440 2dfe 5e41
000000e0: 7572 1140 08de 0640 c2da 3640 6bdd 2d40
000000f0: e82a 6f40 4d33 5e40 c4ee 5c40 41e3 5440
00000100: f7e5 2f40 2fd0 8440 4fb1 f33f 1729 3740
00000110: 712f 8940 d2d4 c940 b86b 6140
14.475919 6.735661 2.3025994 2.0834284 3.3755512 1.4926851 10.001626 2.1768084
2.9879704 3.2499194 4.1375823 6.7466335 6.534096 2.8962953 16.016754 11.693679
1.9644641 4.566307 2.7838 2.28546 2.77976 4.9539533 2.396039 2.743026
8.212624 3.8798974 2.877619 2.7818594 3.1629972 2.3980439 15.112507 3.8695357
3.2269418 10.159957 2.4746294 3.7409825 4.0781717 5.3442693 5.899281 2.663058
10.581402 14.548932 1.573186 2.3307426 3.7613785 2.7987452 2.4106936 5.1950827
2.1265776 2.1063244 2.8639712 2.5414271 2.7075772 2.1911004 2.5731792 13.937055
2.272611 2.1073017 2.857102 2.7166393 3.7369938 3.4718812 3.452073 3.3263705
2.748411 4.150413 1.9038485 2.861883 4.287041 6.307229 3.5221996

trunk.0.expand.norm.weight f4 [213]
00000000: cf01 803e 1bcd d03d 5c59 4f3e 48a7 e03d
00000010: ea51 343e e61d db3d 3b8c a23e 1377 833e
00000020: 9987 073e 9431 cc3d 0d95 aa3d 2a02 a73e
00000030: 3339 1a3e 11a0 b33d 28f2 923e 77b2 db3e
00000040: 1777 873e e31c c93d c4f4 e83d 2edb 8b3e
00000050: 33d3 c23d 37e7 213e 4c80 b83d 04ff f53d
00000060: 1344 993e 437f af3e 45b4 443e e139 2c3e
00000070: af76 073e 08fb 043e 5ebd 3e3e a751 f83d
00000080: 4ac7 433e addf 443e 7d94 be3e 1422 0c3f
00000090: 5bbc 953e 0e0c 1c3e b8d6 543e de1e c83e
000000a0: b83d 093e 62e7 6b3e 4f4c 473e ae41 8d3e
000000b0: 5588 2b3e d6b6 863e 29d2 4e3e 88a7 ba3d
000000c0: de8a 3a3e 75df 433e 3de1 3f3e 49c2 e23e
000000d0: 2bef 203e 18b6 bb3e c05a 553e 235d 2b3e
000000e0: 1c78 0a3f 86ab d63e 31b2 013e 4ac6 803e
000000f0: dfff 023e 826a d03d 06c7 393e 2738 8d3e
00000100: 57e4 d03d cede 543e fae4 fb3d c2c3 033e
00000110: f83d c63d 83e3 873e e1a5 903e fd6f c53d
00000120: f410 2e3e c4b1 393e 49f5 683e 1482 163e
00000130: df71 ca3d 4dde 313f fc5e a73e 1f8f 893e
00000140: 517f 253e 41d4 453e 9f90 d33d 60d1 b43d
00000150: c29c c63d 3dac ad3e 8ff5 cc3e 5530 df3d
00000160: 2a06 dd3e 273c a43e 721a f73d 4ce1 8a3e
00000170: 01de ef3d ee8a dc3d 5b60 533e 643b 953e
00000180: b554 253e 8411 0d3e 24e4 1a3e 15f9 223e
00000190: 8b54 5e3e 8c3a 113e d42e 433e fc69 703e
000001a0: 453f f33d feb8 e83d 02cd df3e 3491 7a3e
000001b0: e76e 873e 680b 183e 46a7 d93e 1e9b 863e
000001c0: 817e d03d 378a f73d 5f5a c43e 942f 883e
000001d0: 16e4 a83e cbb5 c93e 7212 213e fac5 343e
000001e0: 2ba1 993e 96de 5d3e b9a1 833e f85d cc3d
000001f0: 0500 e83e fba0 8b3e 4699 903e 993d a63d
00000200: b382 b73d c17b 7f3e 3010 0d3e a51a f73e
00000210: ed4d 313e 25e0 c43d 224a d53e 4d1b 2f3f
00000220: f412 9e3e c481 843e f269 d63d 0da2 513e
00000230: 1a18 763e fc65 ab3e 023e 243e 84b7 963d
00000240: 7a7c ee3d f77f 673e 4c5b 613e 99d4 303e
00000250: 4978 9e3e f978 233e 1664 8d3e 5a16 643e
00000260: 2627 2d3e 7647 0a3e 3925 d03d bcc7 343e
00000270: 7756 e73d 5f40 0b3f 0398 1d3e c43c bd3e
00000280: 412b c43d 264d 053f 87e2 123e 08be 003f
00000290: 6d20 dd3d 2634 193e fc38 303e 3241 4f3e
000002a0: 700e 9c3d fc04 fc3d df77 cf3d 2cfd c13d
000002b0: 30e6 123f 99a5 ce3e a583 df3d bd30 343e
000002c0: 99e3 693e dd92 d23d 4724 d63d 8c56 0c3e
000002d0: d3f0 d23d 8617 f63d 2172 413e 77aa bc3d
000002e0: 7fb2 9e3e 241c ba3d 6bd6 b43e 0a03 6f3e
000002f0: 27e8 ae3d 4f12 0f3e 8764 203e 3754 953e
00000300: 8b3f 913e 5bc2 c83d 2259 a53e dd43 273e
00000310: b7ae 3d3e eec5 953e b4dc 323e b937 543e
00000320: 1333 993d e162 d33d 7758 b43e 8b18 a23e
00000330: ae7f 2f3e fc67 5d3e ff26 c63d 3dea 5d3e
00000340: 4fce 083f b190 3a3e c103 ae3e 7afa fe3e
00000350: 6335 aa3d
0.2500138 0.10195371 0.20248932 0.10969406 0.17609373 0.10699062 0.31747612 0.25676784
0.1323532 0.09970394 0.083292104 0.3261884 0.15060882 0.087707646 0.28700376 0.42909595
0.26458046 0.09819963 0.1137481 0.27315658 0.09512939 0.15810858 0.09008846 0.12011531
0.2993475 0.3427678 0.19209392 0.16818954 0.13228868 0.12986386 0.18626925 0.12124949
0.19118991 0.1922595 0.37222663 0.547395 0.29245266 0.15238973 0.20785034 0.3908605
0.1340245 0.23037484 0.19462703 0.27589172 0.16751225 0.26311368 0.20197357 0.09113985
0.18217036 0.19128211 0.18738265 0.44288853 0.15716235 0.36662364 0.208354 0.16734748
0.5408952 0.41927737 0.12665631 0.25151283 0.1279292 0.10176565 0.18142328 0.27581903
0.10199802 0.20788118 0.12299533 0.12867644 0.09679788 0.26540765 0.28251556 0.09640501
0.16998655 0.18134218 0.22749819 0.14698058 0.098850004 0.6947983 0.32689655 0.26867005
0.16161849 0.1931925 0.10330319 0.088289976 0.09697868 0.3392047 0.40031096 0.108978905
0.43168765 0.32077143 0.12065591 0.27125013 0.11712266 0.10768686 0.20642225 0.29146874
0.16145594 0.13776213 0.15126091 0.1591533 0.21711938 0.1418249 0.19060832 0.2347793
0.11877302 0.113634095 0.43711096 0.24469453 0.264518 0.14848101 0.42510432 0.2629022
0.10180379 0.12086909 0.38350198 0.265988 0.32986516 0.3939651 0.15729693 0.17653647
0.30005774 0.21666941 0.25709322 0.099788606 0.45312515 0.27271256 0.28241938 0.081172176
0.08960476 0.24949552 0.13775706 0.48262516 0.17314883 0.09613065 0.4165812 0.6840103
0.30873835 0.25880253 0.10469426 0.20471974 0.24032632 0.33476245 0.16039279 0.073592216
0.11644836 0.22607408 0.22007483 0.172686 0.30951145 0.15964116 0.27615422 0.22274151
0.16909465 0.13503823 0.1016335 0.17654318 0.11295789 0.543951 0.15390019 0.36960423
0.095785625 0.52070844 0.14344226 0.50289965 0.107972 0.149613 0.17209238 0.20239714
0.07619941 0.12305638 0.101302855 0.09472117 0.5738249 0.40360716 0.10913781 0.17596717
0.22840728 0.10281918 0.10456138 0.1370489 0.1029984 0.120162055 0.18891193 0.09212201
0.30995557 0.09087399 0.35319838 0.23341003 0.08540373 0.13971828 0.15663348 0.29165813
0.28368792 0.09802695 0.32294565 0.16334482 0.1852368 0.2925257 0.17467004 0.20724382
0.07480445 0.10321594 0.35223743 0.3165935 0.1713855 0.21621698 0.09675407 0.21671386
0.534398 0.18219258 0.3398724 0.49800473 0.08310964

trunk.0.expand.norm.bias f4 [213]
00000000: ff55 6e3d d92d b9bd b2aa 20bd 4184 d3bd
00000010: e5aa abbd e7b3 a0bd fabe ad3c 7153 2dbd
00000020: 49bb 0dbe 9b80 a1bd 4e63 9cbd 9c1b 713d
00000030: 19d0 9ebd 6b98 bfbd f2d5 e13c 7890 533c
00000040: e0d6 403d b0b2 dbbd 55e0 a7bd 9d6c da3d
00000050: 7cb3 17be cfe9 b4bd cf80 a4bd 88a7 a3bd
00000060: d399 7abd 8c96 763d 8584 87bd 159e 81bd
00000070: 6b1a d0bd 0de6 053e 1f10 efbd 596f b8bd
00000080: 54ea 9e3d a330 8cbd 20a0 23bc 449f 0ebc
00000090: 5f4e 3a3d c20e 98bd 4b9f 79bd 0c56 73bb
000000a0: fc4e adbd 8fb3 78bd d412 78bd 4fa4 a2bd
000000b0: ea71 c4bd 0406 26bd 0da7 91bd 4088 05be
000000c0: 2c2a 81bd b65e 4dbd a3b7 5bbd 2b9a 273d
000000d0: 02c6 bebd 1b30 853d ae50 a6bd 5112 dbbd
000000e0: 074b 38bc 05d6 5c3d e057 0b3e 933a 22bd
000000f0: d83f aabd 9b40 bbbd e6c9 d7bd 943c a33d
00000100: dc35 d5bd 4ce8 9bbd 5b53 eebd f473 0d3e
00000110: cffd 15be 6c75 92bd c926 afbc 295f a1bd
00000120: bf19 95bd a383 82bd 22b5 76bd 4656 e03d
00000130: c108 afbd 35be 05bc 4843 0c3d 5e58 a63d
00000140: 4fab fbbd 7067 25bd fa27 04be c5e5 97bd
00000150: 39d8 10be 9e04 903d 10d7 35bd 12a2 f63d
00000160: a4a4 f13c 0d9a 03bd 1578 f7bd 6def 56bd
00000170: d9a6 84bd d5c7 13be 1f4c a0bd 0fee 203d
00000180: 2a38 d43d 2069 8cbd 1b40 b8bd 9624 d3bd
00000190: ca7c 3abd ab6f b2bd d4df 43bd 2162 893d
000001a0: 1fa2 d4bd 73b4 aabd 885e a83c 17f0 863d
000001b0: c0d5 ae3c dfb7 5dbd 07cf 08bd 5092 87bd
000001c0: ea8f babd 75b8 91bd b3d6 1ebe 740c 843d
000001d0: f4d9 c3bd a4e9 eabc d431 b5bd 934c b4bd
000001e0: 694e 17bd 9265 ddbd 50d3 b0bd 1fa2 b1bd
000001f0: 36a2 f0bd 139c e23c f38b 363d 545a 18be
00000200: 4c51 ebbd b089 1dbd 8446 ea3d dbde 2c3d
00000210: 1c9c 53bd aff7 abbd 5dc6 e3bc 2ce7 af3b
00000220: 38c3 26bd 5d92 a0bc 0e74 97bd fc48 b03d
00000230: 15f7 c7bd ec38 00bb 9446 193e 2e19 d8bd
00000240: e8b5 d9bd 5bec 88bd 1027 40bd 5ff6 e43d
00000250: 095f ca3d 9543 79bd 01d0 43bd 9c94 ae3d
00000260: 2f21 08be e5fd a5bd d391 f0bd a586 73bd
00000270: 3298 e8bd f3ec edbb ec03 ab3d c23b 033d
00000280: f6cb a9bd c472 9fbb d520 c43d 0141 16bb
00000290: 51f0 d2bd 1801 95bd fc12 0abe f412 b53d
000002a0: ebb3 e4bd 35bb 00be 0997 d5bd 9a09 b7bd
000002b0: 8fac d33a 38d7 94bc 154e 21be bbfe 4dbd
000002c0: 35b9 8fbd b62b 04be 7095 07be d119 cdbd
000002d0: 2f6e a0bd 2bc8 e7bd dc68 ae3d e099 bcbd
000002e0: deb5 a5bd 367c 15be bb5e 42bd 34bb 083d
000002f0: 6dec 99bd b9bd b9bd 0755 df3d 48eb 64bd
00000300: 17aa 85bd 050e c2bd a685 2ebd 3390 69bd
00000310: df8c 3fbd 78e8 7a3d ec8e 8fbd e5a5 86bd
00000320: c6e6 c5bd 1324 b9bd 9935 043d 0b82 ae3d
00000330: c3a5 57bd 5324 843d 3ffb febd 3f7c 003e
00000340: d3c3 a13c d3ee e53d da1a ac3c 7c7f c53c
00000350: f26f cfbd
0.05818748 -0.09041948 -0.039225288 -0.1032796 -0.08382205 -0.07846814 0.021209229 -0.042315904
-0.13840975 -0.07885858 -0.07636128 0.05886422 -0.07754535 -0.09355243 0.027567837 0.012912862
0.04707992 -0.10727441 -0.08197085 0.106652476 -0.14814562 -0.08833658 -0.08032381 -0.079909384
-0.061181854 0.060202166 -0.06617073 -0.0632898 -0.10161289 0.13076039 -0.11672997 -0.09005613
0.07759538 -0.06845214 -0.009986907 -0.008704964 0.045484897 -0.0742469 -0.06094293 -0.0037130145
-0.08462331 -0.060718115 -0.06056483 -0.079414956 -0.0959204 -0.04053308 -0.071119405 -0.13040257
-0.06306872 -0.05013915 -0.053641926 0.04091851 -0.09315111 0.06503316 -0.08120857 -0.10696853
-0.011248357 0.053915042 0.1360774 -0.039606642 -0.083129585 -0.09143182 -0.10536556 0.07970539
-0.104106635 -0.076126665 -0.116369925 0.13813764 -0.14647602 -0.07151303 -0.021380799 -0.078794785
-0.07280301 -0.06372764 -0.060231335 0.10953955 -0.085465916 -0.008163025 0.034243852 0.081223235
-0.12288534 -0.04038185 -0.12905875 -0.07416872 -0.14144982 0.07032131 -0.044394553 0.12042631
0.029497452 -0.032129336 -0.12083451 -0.052474428 -0.06477136 -0.14431699 -0.07827019 0.03928953
0.10362275 -0.068559885 -0.08996602 -0.103097126 -0.045529164 -0.08712705 -0.04782088 0.0670817
-0.10382485 -0.08335199 0.020552889 0.06588762 0.021342158 -0.05413043 -0.03340056 -0.06619704
-0.09109481 -0.071152605 -0.15511589 0.06447688 -0.09563056 -0.028675862 -0.088473946 -0.08803668
-0.036940012 -0.108103886 -0.08634055 -0.086735 -0.11749689 0.027662313 0.04456706 -0.14878207
-0.114901155 -0.038461387 0.11439231 0.04220472 -0.05166255 -0.08396851 -0.027804548 0.005368134
-0.04071352 -0.019601041 -0.073951825 0.08607671 -0.09763924 -0.0019565178 0.1496833 -0.10551678
-0.10630399 -0.06685706 -0.046912253 0.11179804 0.09881408 -0.060855467 -0.04780579 0.08524439
-0.13293909 -0.08105067 -0.11746564 -0.05945458 -0.11357154 -0.0072609126 0.083503574 0.03203941
-0.082908556 -0.004865976 0.09576575 -0.002292693 -0.10299743 -0.07275599 -0.13483804 0.08841506
-0.11167129 -0.12571414 -0.10429198 -0.08937378 0.0016149449 -0.01816903 -0.15752442 -0.050291758
-0.07017747 -0.129073 -0.132406 -0.1001469 -0.07833516 -0.11317476 0.08516094 -0.09209037
-0.08091329 -0.14598164 -0.047453623 0.033381656 -0.07515798 -0.0906939 0.109048896 -0.055888444
-0.06526583 -0.0947533 -0.042607926 -0.057022285 -0.046765205 0.061256856 -0.07009682 -0.065746106
-0.09663157 -0.09040084 0.032277677 0.085208975 -0.052648317 0.06452241 -0.12450265 0.12547396
0.019746697 0.11227193 0.021008898 0.02410864 -0.10128774

trunk.0.expand.norm.running_mean f4 [213]
00000000: ba79 2fbb 4410 abbb bbb5 d83b 8b12 2bba
00000010: 653b 45ba 4e82 e3bb 9fbb 23bb 8f2a 91bb
00000020: 449c 1aba ce75 2ebb ecd5 03bc 0455 77ba
00000030: 20c4 073b 8e17 5abb 2450 2f3c 3f86 e53b
00000040: 8dfb a4bb 707c ad3a cebe abba 5ed2 34ba
00000050: a149 59b8 4ef3 113a 014c 58bb eeda 2739
00000060: a858 8a3b 8e1f caba 61da a23b de13 5abb
00000070: 636b 663a 4353 763a aadf 1bbc 2115 ba3a
00000080: 8c76 9f3b 1a28 d0b9 1617 82b9 f4a9 8ebb
00000090: 19e5 d33a 5961 47bc 8801 2fba 9b93 4fbb
000000a0: 38d4 5cbb 95c3 8b3b 4205 c23b 3714 bfbb
000000b0: 662c ff3b d7f7 123c 40ae 703b be5d 00bc
000000c0: 50ab b0ba e1af 1fbb b83a 94ba a055 28bb
000000d0: 8169 033c 7ac8 09bc f6f4 8ebb dea1 d0b9
000000e0: bf3a b8bb 5199 d53b 0bde a93b 4349 aebb
000000f0: b4e7 4fbb 7f17 35ba 951d 8f3a d48a 6cbb
00000100: be48 64bb db4b 47bc 98fe 7f3b 2d68 ecbb
00000110: f324 30bb 06b2 23bb 3540 d7bb e39c c3bb
00000120: b169 54bb fdcf cebb a1ce 623b 2896 1dbb
00000130: 1365 90b9 d9cf 903b e601 3c39 de8d 573b
00000140: 2f5a 9a3b 4cf6 973a e962 81ba 0ea0 3ebb
00000150: c655 15bc 2621 f4ba 2c24 8b3b a405 16ba
00000160: 7c5c 99bb d41c de3b eaab 463b 68b3 463b
00000170: 813f 92bb 1ba9 3bbb 0163 f53a 16f8 b0ba
00000180: f5d1 0eba 927c d8bb e1f8 663b 0b00 afbb
00000190: e6c9 253b 19bd c8ba b195 34bc c3a7 1239
000001a0: 3e80 743b 3a17 763b 8484 54bb 44f5 13bc
000001b0: c7c3 163b be3f 9f3b d8a6 13bc 1c96 783b
000001c0: 316c 4dbb 8471 94bb 622a 213b 6376 413b
000001d0: f7e0 2a3c 5826 6f3b 2745 e739 8b41 ea3a
000001e0: fe68 c73b d2b2 efbb 81b0 5f3b e253 39bb
000001f0: df16 983b d7db a9bb d717 d73b 91b5 fdbb
00000200: 3f34 97bb 84c5 abbb d5a5 4b3b 1cd6 01bb
00000210: 3baa 4fba fec1 afbb 0ba6 2dbb c602 043a
00000220: d3b5 27ba 330d c5bb c4e8 68ba f1a0 6f3b
00000230: c7f4 693a 9425 35bc 2ea8 7d3a b3cb 063a
00000240: c07a 7e3a 98e1 aa3a 986b 483a dbf2 31bb
00000250: 150f 18bb a64c 03bc e530 dd39 bffe 9738
00000260: 83b8 0d3c c3bd 813a dc2a d93a 237d dfbb
00000270: aab7 4e3a c36d 203b 1c49 ff3b 163f a5ba
00000280: 2b0c 20bc e9ff 57bb 152b 71bb d974 7f3b
00000290: 8540 c0bb 5673 cdbb 6271 173a 8533 a1bb
000002a0: c037 ec3b 1fd5 073b 523e 5a3b cd10 42b9
000002b0: eeb9 aabb 401f d2b9 75b8 48bc 75ee 643b
000002c0: 5218 413c ab02 d73a 3842 d0bb 621f 283b
000002d0: a22e 16bc 7ec6 6a3a abe3 053c 1020 04bc
000002e0: c588 0e3b 04ff 62bb 9677 0cbc 34ac 45ba
000002f0: 9107 0fbc 37e0 983b 8127 163b 6c65 09bc
00000300: 85cc 9d3b 04eb 363b c3f1 81b8 b535 cfbb
00000310: a1f5 bcbb d1e9 a6bb 7d0d f4bb b80f 213c
00000320: 649e 89bb dd89 40bb 2b0e 1ebc 9a00 13bc
00000330: b3f7 b8bb fe0f 7ebb 89b6 15ba bfaa 25bc
00000340: 7d88 1aba d940 29bb 4d98 e5bb 3e5d ecb9
00000350: 49ef a5bb
-0.0026775436 -0.005220445 0.006613461 -0.00065258954 -0.0007523804 -0.0069430238 -0.0024983657 -0.004430122
-0.0005897919 -0.002662051 -0.008046608 -0.00094349706 0.0020716265 -0.00332782 0.010700259 0.007004529
-0.00503487 0.0013235938 -0.0013103129 -0.0006897802 -5.1805404e-05 0.0005567566 -0.0033004286 0.00016007919
0.0042219944 -0.0015420781 0.0049698805 -0.0033276002 0.00087898056 0.0009396562 -0.009513775 0.0014196971
0.004866427 -0.0003970273 -0.00024812733 -0.004353756 0.0016166299 -0.012169206 -0.00066759484 -0.0031673673
-0.0033695828 0.0042652586 0.005921037 -0.005831267 0.007787275 0.008970222 0.0036724955 -0.00783485
-0.001347879 -0.0024366307 -0.0011309003 -0.0025685802 0.00802076 -0.008409614 -0.0043626977 -0.00039793452
-0.0056222375 0.006518521 0.0051839403 -0.005318792 -0.00317238 -0.0006908103 0.001091885 -0.003609349
-0.0034833397 -0.012164081 0.0039061662 -0.007214567 -0.0026877492 -0.0024977936 -0.0065689334 -0.00596963
-0.003241163 -0.006311415 0.0034608024 -0.00240458 -0.00027541126 0.0044193086 0.00017929784 0.0032890956
0.0047104578 0.0011593788 -0.0009871396 -0.00290871 -0.009114688 -0.0018625602 0.0042462554 -0.00057228864
-0.0046802144 0.006778339 0.003031487 0.0030319337 -0.0044631367 -0.002863473 0.0018721522 -0.001350167
-0.0005448156 -0.006606647 0.0035243558 -0.0053405813 0.0025297343 -0.0015315145 -0.011022017 0.00013986141
0.0037307884 0.0037550465 -0.0032427618 -0.009030644 0.0023004876 0.0048598936 -0.009011947 0.003793127
-0.0031345005 -0.0045301337 0.0024591913 0.0029520027 0.010429612 0.003649136 0.00044111276 0.0017872317
0.006085514 -0.007315018 0.0034132304 -0.0028278758 0.0046413983 -0.0051836777 0.006564121 -0.0077425917
-0.0046143825 -0.0052420516 0.0031074185 -0.0019811457 -0.00079217897 -0.005363702 -0.0026496674 0.00050358137
-0.00063976384 -0.0060135364 -0.00088847824 0.0036564434 0.00089247193 -0.011056323 0.0009676245 0.0005142048
0.0009707622 0.0013037203 0.0007645427 -0.002715281 -0.002320235 -0.00801388 0.00042188834 7.247691e-05
0.008649948 0.0009898472 0.0016568559 -0.0068203374 0.00078856444 0.0024479486 0.0077906977 -0.0012607302
-0.009768526 -0.003295893 -0.003679936 0.0038979559 -0.0058670663 -0.0062698526 0.0005777088 -0.0049194717
0.0072087944 0.0020726395 0.0033301306 -0.0001850754 -0.005210153 -0.00040077604 -0.012251009 0.003493217
0.011785584 0.0016403993 -0.00635555 0.0025653471 -0.009166392 0.0008955969 0.008171956 -0.008064285
0.0021749001 -0.0034636864 -0.008573433 -0.0007540614 -0.008729831 0.0046654004 0.002291173 -0.008385997
0.0048156404 0.0027911076 -6.196231e-05 -0.006323541 -0.005766586 -0.005093791 -0.007447897 0.009830408
-0.00419979 -0.0029379048 -0.009646933 -0.008972311 -0.0056447624 -0.0038766856 -0.0005711099 -0.01011151
-0.0005894972 -0.0025826006 -0.007006681 -0.000450829 -0.0050639254

trunk.0.expand.norm.running_var f4 [213]
00000000: 9614 3f3c 084a e83c e5ab 813b 930c e53c
00000010: f571 433c e25d 0f3c 4f7e 253c 4cbb 133c
00000020: be20 8e3c e67c e83c d3ed 5c3c 0d16 443c
00000030: 2242 253c a3c3 063c 5b94 213c c9d1 a93b
00000040: 7a36 103d 505d 143c c908 0c3c a47f fd3b
00000050: e611 043c 64d6 c63c 53b4 713c 93d1 573c
00000060: 3538 f23b 7b7e 023c 39e8 ce3c 3457 0f3c
00000070: 211f be3c d9bf 313c d533 323c 8347 d43b
00000080: 558d 483c f518 6c3c 6925 343c 1824 683c
00000090: 89ed 793c 0d6e 2c3c 5b7d 043c a2cf 413c
000000a0: d1d7 a23c 9c99 d83b 620f 683c e714 353c
000000b0: d1a4 243c 24e1 d33b 955d 5d3c 1eba 0b3c
000000c0: 805c 7c3c 4dc8 6b3c 94e3 ea3c ed09 2a3c
000000d0: 39f2 1c3d 1ca2 2c3c a00c 353c 67b7 113c
000000e0: 5743 3f3c bc86 213c a939 0e3c 05f5 233d
000000f0: 2f60 753c c2d3 b53c 8210 943c 0f44 293c
00000100: 2089 363c 3197 f73b dd9e 513c fba0 ff3b
00000110: 3f98 fe3c eb77 423c 8f72 8f3c 2e4f b03c
00000120: c0cf 0f3c db32 413c 835f 3d3c 50c3 ea3b
00000130: 6996 563c 9990 283c 02c7 013c d9de a33c
00000140: 017c cd3c 9f6a 143c 72da 513c a1f1 dc3c
00000150: 68eb 0a3c 8655 aa3c 8cf5 c83c 7d6e 623c
00000160: cee6 443c 8caa 233c e21e 9a3b f92d 753c
00000170: 23bd 5f3c 877a 7b3c 83a4 313d 5381 023c
00000180: ef53 583c 85c5 9b3c 3656 3e3c 579f 353c
00000190: bfa8 7b3c 3ba1 e13b cba9 523c 33f7 9d3c
000001a0: abe2 013c ff88 863c 5381 a03c 6b10 143c
000001b0: a0f5 1b3c a011 233c d6fa 4f3c 3f52 a13c
000001c0: 595c 8a3c 28dc 7d3c 7ec1 093c 0f27 8b3c
000001d0: 15c2 9d3c 2495 1d3c bbce f83b 6e18 383c
000001e0: 128a 163c 0c5c 5b3c 9884 fb3b 0616 f33c
000001f0: e795 3a3c 0152 423c 48ff 553c 265d 213c
00000200: 5fa1 e63c 5df3 1d3c e825 293c a0f7 4a3c
00000210: 6f03 313c 1532 aa3c 91a4 463c 9d34 0a3c
00000220: 1130 ad3c 85a0 de3b 46e9 373c e1f1 6c3c
00000230: c958 963c 95f5 833c 9520 a13c 6f72 2e3c
00000240: 6d23 103c 9e6f 253c c62b 393c bae1 c83c
00000250: b724 103c 00e1 ad3c a65d 1c3c c5a2 543c
00000260: 48db 3a3c 3470 8c3b 6105 2e3c d5da cc3b
00000270: 7429 bd3b 3a46 8c3c f274 243c 9321 ce3c
00000280: dcb4 8e3c 65cf 1a3c be62 213c aa1b 793c
00000290: 749d 973c 7860 cd3b b3ea 5d3c 1ac7 093c
000002a0: 5c36 503c 1150 713c 7f7f 0a3c b40b b33c
000002b0: 64ff 963c d6cb 0b3c 021d a73c 5090 9a3b
000002c0: 111a 2f3c e29e 2f3c 5d3a 8e3c 946a 583c
000002d0: a113 973c 815d 673c 3f5a 243c 8d23 3f3c
000002e0: f33c 0d3c 8d50 7a3c 9f8b 623c a86b 233c
000002f0: b01b 753c 3e7d 8f3c 9281 243c 6132 1a3c
00000300: 8b36 7e3c c472 103c afef 8a3c 75e1 403c
00000310: d6d2 203c 00b8 333c 4ed4 a53c 4326 793c
00000320: e612 b33b 9393 2d3c 29e8 943c 911c 1d3c
00000330: 0cd9 8e3c bbc2 613c 6c5d 853c 2e04 1a3c
00000340: 99f9 0f3c 90b2 de3c 974b 0f3c 9ddd 4d3c
00000350: 8ffa 1d3c
0.011662623 0.028355613 0.003957259 0.027960097 0.011929025 0.008750411 0.010100915 0.009016823
0.017349597 0.028379869 0.013484436 0.011968148 0.010086568 0.008225354 0.009862031 0.005182479
0.035208203 0.009055451 0.008547016 0.007736163 0.008060908 0.024272151 0.014752465 0.013172525
0.0073919543 0.007964726 0.025257217 0.008748818 0.023208203 0.010848963 0.0108766155 0.0064782514
0.012240727 0.014410247 0.010995247 0.014168762 0.015254387 0.010524285 0.008086528 0.011829289
0.0198783 0.0066101085 0.014163824 0.011052347 0.010049061 0.006466048 0.013511081 0.0085282605
0.015402913 0.014391017 0.02867297 0.010378343 0.03831694 0.010536697 0.011050373 0.008893824
0.01167377 0.009858783 0.008680739 0.04002859 0.014976545 0.0221957 0.018074278 0.010331168
0.011141092 0.007555865 0.012794224 0.007801173 0.031078456 0.011869411 0.01751068 0.02152213
0.008777559 0.01179191 0.011558416 0.0071643963 0.013097384 0.010288381 0.007920982 0.020003723
0.025083544 0.009058624 0.012808429 0.026970686 0.008478977 0.020792734 0.024531148 0.013820288
0.012017919 0.009989392 0.0047033885 0.014964574 0.013655934 0.015349037 0.04336978 0.007965404
0.013203605 0.019015083 0.011617234 0.011085353 0.015360056 0.0068856752 0.012857865 0.019282913
0.007927577 0.016422747 0.019592917 0.0090371175 0.009519011 0.009952933 0.012694081 0.019692538
0.016889738 0.015494384 0.008407949 0.016986398 0.019257585 0.009618077 0.0075930036 0.011236293
0.009188192 0.013388645 0.0076757185 0.029673588 0.011388279 0.011860372 0.013061352 0.0098488685
0.02815312 0.009640542 0.010323979 0.01238814 0.010804041 0.020775834 0.012124197 0.008435396
0.021141084 0.0067940378 0.01122505 0.014461965 0.018352883 0.016108314 0.019668857 0.0106474
0.008797509 0.010097412 0.01130194 0.024521697 0.008797816 0.021225452 0.009543812 0.01297826
0.01140482 0.0042858366 0.0106214 0.0062516727 0.005772764 0.01712333 0.010037648 0.025162494
0.017420225 0.009448861 0.009850202 0.0152043495 0.018507697 0.0062676035 0.013544726 0.008409286
0.012708273 0.014728562 0.008453249 0.021856166 0.018432327 0.008532485 0.020399574 0.0047169104
0.010687367 0.010719033 0.017361814 0.013209004 0.018441977 0.014121414 0.010031282 0.011666191
0.008620488 0.015277994 0.013827234 0.009974398 0.0149602145 0.017515775 0.010040658 0.009411425
0.015515934 0.008816425 0.016959993 0.011772503 0.009815892 0.010969162 0.020242836 0.015206876
0.0054648994 0.0105942665 0.018177109 0.00958933 0.01743748 0.0137793375 0.016279899 0.009400411
0.008787536 0.027184755 0.008746049 0.012565044 0.009642257

trunk.0.depthwise.norm.weight f4 [213]
00000000: 7688 823e 536d c63e 663d 6c3e a7d5 973e
00000010: 255e 1f3f f110 903e a08f a93e 5c6b a23e
00000020: 784b cd3e 7fec c13e 1bcf b23e 4c77 bc3e
00000030: 3afc ae3e 0cc8 a93e de72 b33e a27f cb3e
00000040: 8a3e 153f f1e1 763e b13f 963e e429 a83e
00000050: a481 a63e f0c5 b13e ab4f 6d3e cf4d 9a3e
00000060: 8a42 ac3e f2e1 d93e ccc2 063f 7f92 c83e
00000070: e339 aa3e 3485 693e aabe cb3e e201 b43e
00000080: dc81 d13e ec87 883e 9137 8a3e 8a5a 953e
00000090: 03a6 003f 3285 b03e b317 d43e 4607 dd3e
000000a0: 9dab dc3e 9bc3 933e 3dec b73e 70e0 713e
000000b0: 636b b43e ab25 a13e 5c8b af3e 58f0 d73e
000000c0: 5e3d 663e bb64 b53e a88a 7e3e df5d a83e
000000d0: 8e95 af3e 1b8a b33e 3cf2 943e bb83 ca3e
000000e0: 6582 523e 4e35 883e b462 013f 56b8 323e
000000f0: 54ce b33e 89b9 c83e 624f 673e fca9 a13e
00000100: e197 663e 5fcf c13e f10d 9d3e 3a83 b43e
00000110: a628 663e 93bd f83e 2abe fe3e 3888 953e
00000120: ad23 873e 34a2 a63e a0ea cd3e 623b 813e
00000130: 1e20 af3e 27fb d83e 8e02 c03e 3258 f03e
00000140: a455 d63e 1406 9f3e a860 013f 617e 9c3e
00000150: 03f7 c23e 6eb8 fe3e 4a40 db3e 4ab6 dd3e
00000160: bb12 2c3e 1a50 d63e 8a7b ef3e 4bbe ed3e
00000170: 38dd a93e 5170 103f e42a 8f3e e7c6 be3e
00000180: b7d5 9f3e fd90 d23e c4d1 de3e fa51 ae3e
00000190: 3418 6d3e 9d80 9b3e f595 8d3e 3fb5 623e
000001a0: 9dcc 6b3e f4c0 ae3e 12ca a13e ed85 d13e
000001b0: d760 5f3e 9a63 7e3e 4ca9 853e b302 b13e
000001c0: b088 a93e f925 bd3e a655 ba3e 6bc3 e53e
000001d0: 430f a63e e699 ff3e a9ce cd3e a05d f53e
000001e0: 5aa3 773e 6e35 0e3f 63da 8b3e 51d8 da3e
000001f0: 22d7 fe3e 0e3b be3e 7877 693e a321 9d3e
00000200: da22 ba3e a754 c33e f4d1 a73e 5216 003f
00000210: 5f61 b63e 35ec cf3e bffb 8b3e f545 003f
00000220: 0cd6 353e 57e1 c43e 3aaf be3e 63a9 c83e
00000230: 68ba c63e da02 013f 288f ea3e ed9d 983e
00000240: 1867 dc3e fff1 a63e cc5a d53e b869 133f
00000250: 00f5 e13e 1b9c b23e 798d ea3e a3a2 b43e
00000260: 10e1 bd3e 4556 cd3e 9a0f cd3e 5356 ab3e
00000270: de5e d03e f595 ab3e 4c54 ea3e a852 993e
00000280: 60c3 c83e 5c77 a93e 0b8d c93e a533 bb3e
00000290: d841 e53e 252b da3e b861 be3e beda ff3e
000002a0: 7c57 af3e fecd 1b3f 93bb ba3e e16f af3e
000002b0: dd52 f33e edc9 9b3e b28b 193f 785c a83e
000002c0: bb5c b03e 0659 b83e 1914 e43e 7261 d03e
000002d0: d642 9b3e 0878 003f e7a6 e33e b500 9d3e
000002e0: 25dc c03e 2040 0a3f 3be0 763e 62af 6f3e
000002f0: 568b 9a3e 20c8 b43e 5832 e73e ea15 a73e
00000300: a039 843e f1fd 923e aca6 663e 0aa0 bb3e
00000310: a649 933e ef84 b53e 668c a93e 4454 f83e
00000320: b936 ac3e 99f5 ec3e eb6e c73e 9005 df3e
00000330: 723e c13e 339e d73e 8c40 b43e bf39 ab3e
00000340: 7247 893e 5849 6f3e 10e4 c63e 4ff2 a13e
00000350: 63c5 cb3e
0.25494736 0.38755283 0.23070297 0.2965519 0.6225303 0.28137925 0.3311739 0.31722534
0.4009664 0.37875745 0.34923634 0.36809766 0.3417681 0.33160436 0.35048574 0.39745814
0.5829855 0.24109627 0.29345468 0.3284446 0.32520783 0.34721327 0.23174922 0.30137488
0.33644515 0.42555195 0.52640986 0.39174268 0.3324729 0.22804719 0.39793903 0.35157686
0.40919387 0.266662 0.2699552 0.29170638 0.50253314 0.3447662 0.4142433 0.43169612
0.4309968 0.28860173 0.35922423 0.23620772 0.3523818 0.3147405 0.3428601 0.42175555
0.22484347 0.35428414 0.2485758 0.32884118 0.3429379 0.35066304 0.2909106 0.39553627
0.20557554 0.26603168 0.50541234 0.17453131 0.35118353 0.39204052 0.22588876 0.31575
0.22518875 0.37853524 0.306747 0.35256368 0.22476444 0.48582134 0.4975446 0.2920549
0.26394406 0.32545626 0.40218067 0.25240618 0.3420419 0.42379114 0.3750195 0.46942288
0.41862214 0.31059325 0.5053811 0.3056517 0.3807908 0.49750084 0.42822486 0.43303138
0.1680402 0.41857988 0.4677394 0.46434245 0.3317659 0.5642138 0.2796241 0.37261125
0.3121774 0.41126242 0.43519413 0.34046918 0.23153764 0.30371562 0.2765347 0.22139452
0.23027273 0.34131587 0.3159948 0.4092249 0.21814285 0.24842682 0.26105726 0.34572372
0.33112097 0.36943033 0.3639347 0.44875655 0.3243352 0.49922103 0.40196732 0.47922993
0.24183407 0.5555028 0.27315053 0.4274316 0.49773508 0.3715443 0.2279948 0.30689725
0.36354715 0.38150522 0.3277737 0.5003406 0.35621163 0.406099 0.27340505 0.50106746
0.17757434 0.3845317 0.37243062 0.39191732 0.38814092 0.50394976 0.45812345 0.29807988
0.43047404 0.32606503 0.41670835 0.5758319 0.44132233 0.34884724 0.4581106 0.35280332
0.37085772 0.4010488 0.40050966 0.33464298 0.40697378 0.33512846 0.45767438 0.29945874
0.3921156 0.33098876 0.3936542 0.3656284 0.44776797 0.42611042 0.37183928 0.49971575
0.34246433 0.60861194 0.36471233 0.34265044 0.47524157 0.30427495 0.59978783 0.32883048
0.34445748 0.3600542 0.44546583 0.40699345 0.3032443 0.50183153 0.44463274 0.30664602
0.37667957 0.54004097 0.24108975 0.23406747 0.3018443 0.35308933 0.45155597 0.32633907
0.25825214 0.28709367 0.22524518 0.36645538 0.28767127 0.35452983 0.33114928 0.4850179
0.336355 0.46281126 0.3895181 0.4355893 0.37742954 0.42112884 0.35205495 0.33442494
0.2681232 0.23367822 0.38845873 0.3163018 0.39799032

trunk.0.depthwise.norm.bias f4 [213]
00000000: 970a 463e 5f70 213e 8c05 4e3e 2d4c 163e
00000010: b46e 853e 1075 363e 6583 b73e 549e 9f3e
00000020: 41ff 433d 55f1 593e f84d 3b3e ac07 a13e
00000030: 3fdf 1a3e 1995 c13d 58c9 d73d af7c 843d
00000040: 4c64 973e 3541 123e cb74 95be e1ee 983e
00000050: 3bec c33d 2edb 2a3e 54b1 3a3e 6046 2e3e
00000060: 13f4 b73d ef60 953e c047 373e 75ec 973e
00000070: ae75 b93d aa10 e63e 80b0 013e 4ae4 0c3e
00000080: 6091 923e 3a52 9f3e e23b b33e 13c9 b5bd
00000090: e798 2b3e 450c 323e 36b4 9a3e 3df9 c43e
000000a0: ba23 8e3e 1232 813e a36e b23c 1ab0 283e
000000b0: 988d 583e 1b66 1b3e a27e 5d3e ede9 ea3c
000000c0: eaa7 673e 944f 563e 3bdc ce3e 03cb 323e
000000d0: 51e6 8b3e aec6 ae3d 2fec ff3d 32b3 c33d
000000e0: d6d3 883e 27a6 873d 34dc 623e 74ea 6f3e
000000f0: a84f e83c c5dd 383e 8110 273e 5382 9c3e
00000100: 549e c33d 5434 6e3e 133d 86bd 5065 ab3e
00000110: 985d 273e 73da 803e 72f0 5a3e 737d f43d
00000120: c4de 823e e561 573e c5d3 1e3e 4ac1 163e
00000130: 9cb4 153e a85d 663e 1678 773e a507 513e
00000140: f837 113e 7555 a13e 77e2 c03d fc4d 033e
00000150: 81a6 773b d1c3 c23e f368 193e c19f cb3e
00000160: 7477 943e 29a0 763e 42c8 0e3e 17e5 f5bd
00000170: 01fa 5b3e 5d6a 0a3d 9388 773e 5b2b 983e
00000180: 5006 843e f813 573d 4a2b a63e 7b0e 2f3e
00000190: 4c98 ab3e cd53 373e a728 b93e 242a 853e
000001a0: dc40 aa3d 901e b73d db98 553e e36e 983e
000001b0: 6579 a33e b72b 893e 0a36 a03e 57a2 85bd
000001c0: cf37 283e 8601 9a3d 5812 3d3e 5073 493e
000001d0: 784d 8e3e cc04 133e 78c9 2d3e ffbc 7e3e
000001e0: 19be 473e 1c41 553e 3ad0 733e 09e5 473e
000001f0: c070 a5bd 2541 583e 310e 3a3e 428e a43c
00000200: 5dd7 f13c 2b18 083e a4bf 233e 5c12 5a3e
00000210: e23c 823e 0171 283e 7d40 903e 5f1d eb3d
00000220: 350c 983e 6813 793e c705 433e 3697 063e
00000230: fb03 313e 9ba1 c83e f9ab 893e 671b bd3d
00000240: c86a 1f3e a08f d13d 17ae 8b3e 96fc 833e
00000250: 9b8c c73d aca9 d13d 1d85 4b3e cbdc a93e
00000260: 3981 c2bd 265d fd3d 92c4 be3d 1606 a83d
00000270: b462 463e 366a 4a3e 47a0 293e 8e2f cb3e
00000280: 397b 2f3e fa43 913e 70ea 9b3e 8f59 ac3d
00000290: f7cb 1a3e 0695 163e 8038 d43e ac9e 8e3e
000002a0: d411 c83d 1d0f 493e 32ec f73d 6e7b 303e
000002b0: abde 873e 394e 2c3e 51c4 673d e40f 753d
000002c0: 2097 1a3e 8089 16be 609c 713d a604 443e
000002d0: 3fcf f33d 3a4a 303e 2f52 343e 253f c53d
000002e0: 7fff ab3e 6d2c f93c 5e2e a53e 6e49 7e3e
000002f0: c6d9 083e acf8 e83d 27fa cd3e fb02 ac3e
00000300: 7b01 593e c1db 41bc 406d 903e 5703 273e
00000310: 0c87 983e 3e3b f33d ed10 8a3e 8d5a 073e
00000320: 5c12 b23d 5fce cd3d 535f 6c3e 52f7 a53d
00000330: d2a1 353e 9c8b 9b3d 4422 9b3d 4d97 e03d
00000340: 2c08 5e3e 73b5 9a3e 4724 ee3d f84f 033e
00000350: 629a 923d
0.19339977 0.15765522 0.20119303 0.14677496 0.26061022 0.17818093 0.35842434 0.31175482
0.04785085 0.21283467 0.18291461 0.31451166 0.15124224 0.09452266 0.1053645 0.06469094
0.29568708 0.14282687 -0.29190668 0.2986975 0.09566542 0.16685173 0.18231708 0.17019033
0.089821 0.29175517 0.17898464 0.2967259 0.09055649 0.4493459 0.12664986 0.1375896
0.28626537 0.3111742 0.35006624 -0.088762425 0.16757546 0.17387493 0.30215615 0.38471404
0.27761632 0.25233513 0.021781271 0.16473427 0.21147764 0.15175669 0.21630338 0.028675998
0.22622648 0.20928794 0.40402398 0.17460255 0.27324155 0.08533989 0.1249622 0.09555663
0.26724118 0.06623488 0.22154313 0.2342928 0.028358296 0.18053348 0.1631489 0.3056818
0.09551683 0.23262149 -0.06554618 0.33475733 0.16344297 0.25166664 0.21380785 0.1193799
0.25560582 0.21033438 0.15510471 0.14722171 0.14619678 0.22496665 0.24166903 0.20413072
0.14181507 0.3151051 0.09418195 0.12822717 0.0037788453 0.3804002 0.14981441 0.3977032
0.28997386 0.24084534 0.1394358 -0.12006586 0.21482088 0.033792842 0.24173193 0.29720578
0.25786066 0.052509278 0.32454902 0.17095368 0.3351463 0.17903061 0.36163828 0.26008713
0.08313152 0.08941376 0.20859091 0.297721 0.31928554 0.26791164 0.3129123 -0.065251045
0.1642754 0.07519822 0.18464029 0.19672894 0.2779348 0.14357299 0.16971385 0.24876784
0.1950611 0.20825619 0.23809901 0.19520964 -0.08078146 0.211186 0.18169476 0.020087365
0.029521639 0.1329047 0.15991074 0.21296066 0.25437075 0.16449358 0.281742 0.114802115
0.29696813 0.24323809 0.19045173 0.1314362 0.17286675 0.39185795 0.26889017 0.09233742
0.15568078 0.102324724 0.27281258 0.25778645 0.09743615 0.102374405 0.19874997 0.33176264
-0.094973035 0.12371282 0.093148366 0.08204286 0.1937359 0.19767079 0.16565047 0.3968472
0.1713685 0.28372175 0.304523 0.084155194 0.15116869 0.14705285 0.41449356 0.27855432
0.097690254 0.19634672 0.121055976 0.17234585 0.2653707 0.16826715 0.056583706 0.059829608
0.15096712 -0.1470089 0.05898702 0.19142398 0.119047634 0.17215815 0.17609476 0.096311845
0.33593366 0.030416692 0.32261938 0.24832699 0.13364324 0.113755554 0.40229914 0.33596024
0.21191971 -0.011832179 0.2820835 0.16309868 0.29790533 0.11876534 0.26966038 0.13218136
0.08694908 0.10049128 0.23083238 0.08103813 0.17737511 0.07594988 0.07574895 0.10966358
0.21682805 0.3021656 0.11628013 0.12823474 0.071583524

trunk.0.depthwise.norm.running_mean f4 [213]
00000000: b760 493d 433c 033b d825 963c 9127 e43a
00000010: 9e1d 083c 7e32 b43b 1568 4c3d a396 fd3c
00000020: 0283 5f3a c7bf 633b abeb 293b 168a 7e3d
00000030: 1f88 da3b c979 ae3a 50ed 443d 25a0 8e3d
00000040: b497 383d b3dc f03a 80fe b33b 8c54 863d
00000050: eee2 8d3a b3ac 0c3c d3a0 443b 9947 923b
00000060: 5f06 083d 4789 843d ea04 813c b4ab 563c
00000070: c894 4f3b 1d55 683d 005c 043c 8e12 8f3b
00000080: 4234 423d 1a69 743c 367f 603d 2ceb 9f3d
00000090: f311 103d a61b 013c b32a 9b3c da19 5c3d
000000a0: 6884 8e3b 1ae5 ab3c 8192 593c c201 db3c
000000b0: 2053 293c ed66 f63c 0709 673c 7d03 683a
000000c0: 2751 353c 6c36 a53c d4ba 973c 626e 953d
000000d0: 84b6 373c 9fc2 8f3d 82d0 893c 5792 223c
000000e0: 3328 8b3d 80a7 b03d becb 723d 9b35 fd3c
000000f0: be8a 953b 2733 2e3b 9564 283c 9ee7 343d
00000100: 9dc8 063b 124b 883c 4cff 653b 465e 543d
00000110: db56 b238 19ca ba3c 89d9 153d c978 453b
00000120: 741c 653c 260f 893c 015d ae3c 34ab 4a3d
00000130: 6c98 bc3a e45f b93d 5a3b 573d 24f0 423d
00000140: 8cb3 073c 5ede a43c fcec a13a 5627 e23a
00000150: f0a3 643a dfe1 8a3d bbdd 273d 28f3 473d
00000160: 0850 8d3d ee31 103d 14cd 423b a1fb ea3c
00000170: fb61 9d3b 4a2c f439 5b7c 953c 6a79 403d
00000180: 07b4 3f3d e6a7 033c 53d0 fc3b c72d b63b
00000190: 732d b43c 9a99 f33b e05a 913c 0333 5a3d
000001a0: 54be 8d3b bb50 5e3b 9efb 643d 6b37 563d
000001b0: a2d5 413d 6e4e 1b3c ff82 6a3d 31b4 e93c
000001c0: 4a77 073b f4f6 9c3b a3e9 e63c 2312 583d
000001d0: ba98 fe3c 27be 503d 3c19 f23b 4fb9 0a3c
000001e0: 4b5c 113d 4222 153c fa7d a43c 98e8 193b
000001f0: d2b4 5c3d 89ee 2f3d d3bf 223d 3899 db39
00000200: 31dc ba39 66fc bb3c ce39 3a3d 5767 9a3d
00000210: 9a1c 6a3c 7bda dd3a da2d 5c3d 0e3f 9f3d
00000220: 0bb0 333d 038f d93c 222a 993b b14d 523d
00000230: 615f a93c 34cc 343d 5517 593d 5412 d73a
00000240: dcef 213b 1e74 bd3c 70cb a43c 7f94 5c3d
00000250: 5490 7d3d 61e1 413c 05c1 fa3c e6d3 3b3d
00000260: 6ad4 423c e887 da3b eb8a f63a 1ed6 703c
00000270: 52be 6b3b bf91 683d e740 083d 8004 843d
00000280: a855 ed3a 9dd2 9b3d ae7a 383d 52c2 7d3d
00000290: f100 153b dc2b 2f3c 298d 073c 4993 433d
000002a0: 1397 8b3a 2cc3 583b ab88 0a3b 4a4b ee3a
000002b0: 78d7 b43d 7434 3e3d 6ac8 083a 1b94 7c3c
000002c0: 4048 ce3c 9fb7 3e3a 8af8 4e3a a5e0 e23b
000002d0: e6ef 463b a4a9 5a3b 114b 173d e492 a43a
000002e0: 833d e13c 3289 9839 b033 3b3d 5812 2c3d
000002f0: 0490 103b acc6 d73b 70ed 573d 64a6 083d
00000300: 02af e23c 9211 443b cb95 123d 8679 3d3c
00000310: 1c5b 893c 6bbb 3d3d a155 223c b76c 9c3c
00000320: 8389 9f3a fd72 ec3a 05a4 5d3d cdcd 843d
00000330: 478a 883c e25d 183d f0d0 853a 345e 863d
00000340: 733c a93d 283e 693d 9bcc 4e3d 2670 a83d
00000350: 0593 da3a
0.0491645 0.0020024932 0.018328592 0.0017406811 0.008307843 0.005499183 0.049903948 0.030955618
0.00085262966 0.003475176 0.0025927823 0.062143408 0.006669059 0.0013311441 0.04807788 0.06964139
0.04506655 0.001837632 0.0054929852 0.06559095 0.0010825077 0.008586097 0.0030003085 0.0044641015
0.0332092 0.06471496 0.015749414 0.013102461 0.0031674374 0.056721795 0.008078575 0.0043662256
0.04741312 0.014917636 0.054808818 0.07808527 0.035173368 0.007880127 0.018941259 0.05373559
0.00434928 0.020983268 0.013279558 0.026734237 0.01033476 0.030078376 0.014101273 0.00088506175
0.0110667115 0.020167552 0.018521704 0.072964445 0.011212949 0.07019543 0.016823057 0.009922585
0.06794777 0.08625698 0.059276335 0.03090935 0.0045636585 0.0026580782 0.010277887 0.0441662
0.0020566352 0.016637359 0.0035094796 0.05184772 8.5038795e-05 0.022801446 0.03658441 0.0030131808
0.013983835 0.016730856 0.021284582 0.04947968 0.0014388687 0.09051493 0.052546836 0.047592297
0.008282553 0.020125564 0.0012353952 0.0017254155 0.00087219384 0.06781363 0.040982943 0.048815876
0.069000304 0.035203867 0.0029724287 0.02868444 0.00480294 0.00046572305 0.018247774 0.04699079
0.046802547 0.008035636 0.007715264 0.0055596563 0.021994328 0.007434082 0.017743528 0.053271305
0.0043256674 0.003392263 0.055904023 0.052298944 0.047322877 0.009479148 0.057253834 0.028528305
0.0020670467 0.0047901813 0.028187579 0.05275167 0.031078685 0.050962593 0.007388262 0.008467033
0.035488408 0.009102406 0.020079602 0.0023484584 0.05388338 0.042952094 0.03973372 0.00041885092
0.0003564074 0.022947501 0.045465283 0.07539242 0.014289046 0.0016926074 0.053754665 0.077756986
0.04386906 0.026557451 0.004674212 0.051343624 0.020675363 0.044140056 0.053000767 0.001640866
0.0024709618 0.023126658 0.020116538 0.053852554 0.06190522 0.01183352 0.030609617 0.04585638
0.011891464 0.0066690333 0.0018809711 0.014699487 0.0035971594 0.05677962 0.03326502 0.06446171
0.0018107193 0.07608531 0.04503887 0.061952896 0.0022736157 0.010691609 0.008273401 0.047747884
0.0010649882 0.0033075316 0.002113859 0.0018180397 0.0883016 0.046436742 0.00052178523 0.0154161705
0.025180936 0.00072752865 0.00078953116 0.0069237524 0.0030355393 0.0033365274 0.036936823 0.0012555984
0.027495151 0.00029093918 0.04570359 0.04200968 0.0022058496 0.006584963 0.052716672 0.033361807
0.02767134 0.00299177 0.035787385 0.011564618 0.016767077 0.046321314 0.009908111 0.019094808
0.0012171719 0.001803964 0.0541115 0.06484566 0.016667498 0.03719891 0.0010209363 0.065609366
0.08263483 0.056944042 0.050488096 0.082245156 0.0016675895

trunk.0.depthwise.norm.running_var f4 [213]
00000000: 1007 ac3a 8eeb 2637 9781 e939 4a90 2537
00000010: 4c75 9839 d1ce 5c38 ac03 013b d11b 273a
00000020: 3695 8d36 bbc3 df37 a678 5437 5b9e d73a
00000030: 8e0a 0f39 7d81 0a37 218f 513a ed81 393b
00000040: 4fb7 e239 398d 4337 dd81 9f38 2550 123b
00000050: 5f38 4e37 999e 8738 5398 c837 4b5e 0038
00000060: 6cf2 4a3a e0af cf3a adb8 2139 4cf2 3339
00000070: 9698 a437 e054 453a 7552 f438 2353 c038
00000080: b4ef 323a 532d 5839 cee8 d73a a44b 043b
00000090: 3652 833a aa73 8f38 4b31 1e3a 8b2f c43a
000000a0: 7c45 e037 3181 f139 d56c 1f39 403b 023a
000000b0: 70a6 5639 e681 4b3a 0381 ad39 37aa 0237
000000c0: f3b8 d538 d61a 8439 f674 5539 3bb0 fe3a
000000d0: 290b ce38 3ad0 d13a 75e2 c239 f9b1 2f39
000000e0: 3c1e f43a b2ff ec3b 46f9 fa39 7410 9739
000000f0: 5c5d f137 ff52 9137 10bb 4639 6bc2 a03a
00000100: ffb5 a437 e883 a639 6526 1738 e966 3f3a
00000110: edc4 fc34 10d9 d639 653f 4f3a 68fe 9137
00000120: c94e 6039 e17d 8539 2a8d f139 9177 193a
00000130: 96c4 1137 a6b0 143c eefd fe3a 640a 423a
00000140: 6d9f e038 789c ba39 f610 5c37 d525 0c37
00000150: 1e35 ec36 eabc d03a 2abd 913a bde4 d939
00000160: 2699 143b 3cc3 cc3a 10e7 8a38 43a5 133a
00000170: cd0b 2238 c492 8236 9609 5039 5e92 ae3a
00000180: f669 8c3a 8bfc 8338 b91d b938 7442 0939
00000190: 13c4 a239 04a7 f038 ca52 7739 5f2e 563a
000001a0: 1941 8738 6d2b af37 caff 0a3b f213 093b
000001b0: 3678 a03a a11d bc38 50a4 fb3a be52 2c3a
000001c0: 697e 4437 b2ba fb37 2ad3 903a a48b 223a
000001d0: a121 3f3a 2312 ed3a 4c96 ec38 9cc4 c838
000001e0: b9fe 843a bb1b e839 2665 ed39 e80f 7537
000001f0: 060c 663b e7b0 843a 8749 6d3a 3b7a 2936
00000200: 23e4 e335 b640 e839 33ef 113a 0217 423b
00000210: ef05 3539 a14c 3937 fac1 d33a a08e 0b3c
00000220: 315f 843a 3bbc 053a 2927 2538 7dc3 d339
00000230: b489 c339 3a1c 853a 26bf 203a f9b5 6137
00000240: 5ce2 ba37 d683 dc39 37bc 9139 7bbb 6e3a
00000250: 8217 c13a 670d a838 ba0e 1e3a 88a2 5e3a
00000260: 03b1 9039 23ef d238 df2f 1438 245b 8a39
00000270: 804a 1f38 2514 343b fc5f 153a edb3 963a
00000280: c1e1 1e37 d795 283b 123c 123a 95b2 263b
00000290: ea02 8937 bad2 2a39 1c0c 8d38 ca8a 8f3a
000002a0: 8e35 f736 2c8a 4438 c142 b937 85af 4837
000002b0: f32b 573b 7309 da3a d541 6a36 0541 c439
000002c0: b189 433a 634f 3637 12b2 b036 0adf c838
000002d0: 107a 9c37 cc5c 9238 ec93 913a 1079 e936
000002e0: 6747 183a b251 f035 8553 af3a d452 3d3a
000002f0: e21f 4b37 19df 8d38 952e 0f3a 8566 353a
00000300: f7dc f939 0696 be37 d1ef 413a 42f4 2a39
00000310: 5339 8d39 a286 a03a d6bf 9838 7794 aa39
00000320: 7d97 4f37 da85 5b37 fcc5 663a 4618 ea3a
00000330: 7764 1c39 7a51 3c3a e35d cb36 2b51 453a
00000340: 293d 823b 9a29 fe39 2066 f23a 7064 593b
00000350: e8ce 4337
0.0013124663 9.949215e-06 0.00044537775 9.868361e-06 0.00029079092 5.26447e-05 0.0019686026 0.00063746894
4.219498e-06 2.6674816e-05 1.2664275e-05 0.0016450392 0.00013641475 8.25559e-06 0.0007994045 0.0028306202
0.00043242655 1.1655787e-05 7.6059e-05 0.0022325602 1.2291682e-05 6.466843e-05 2.391279e-05 3.0605395e-05
0.0007741812 0.0015845262 0.00015422954 0.00017161033 1.9621377e-05 0.0007527601 0.000116501855 9.170759e-05
0.00068258797 0.0002061625 0.001647258 0.0020186687 0.0010019008 6.8403155e-05 0.0006034567 0.0014967782
2.6735237e-05 0.00046063357 0.00015203965 0.00049679354 0.00020470633 0.0007763192 0.00033093253 7.788235e-06
0.00010191081 0.00025196996 0.00020356834 0.0019431183 9.824924e-05 0.0016007491 0.00037171287 0.000167556
0.0018624733 0.0072326297 0.0004786944 0.00028813223 2.8772913e-05 1.7323995e-05 0.00018952438 0.0012264972
1.9635072e-05 0.00031760265 3.6036963e-05 0.00073014066 4.708194e-07 0.00040978985 0.000790587 1.7403814e-05
0.00021391654 0.00025461524 0.00046072277 0.00058543036 8.688445e-06 0.009075319 0.0019454339 0.0007402061
0.00010710848 0.00035593263 1.3116971e-05 8.353459e-06 7.0395317e-06 0.0015925441 0.0011118997 0.0004155989
0.0022674291 0.0015622149 6.6233915e-05 0.0005632231 3.86348e-05 3.8913877e-06 0.00019839997 0.0013318767
0.0010712731 6.2936066e-05 8.827024e-05 0.00013090094 0.00031045135 0.00011475201 0.00023586597 0.0008170362
6.449427e-05 2.0881847e-05 0.002120959 0.002091643 0.0012242857 8.9700574e-05 0.0019198749 0.0006573609
1.17119425e-05 3.0008468e-05 0.001104926 0.00062006176 0.0007291083 0.001808707 0.00011281352 9.5733645e-05
0.0010146714 0.0004427115 0.00045279524 1.4606841e-05 0.0035102381 0.0010123522 0.0009051789 2.525411e-06
1.6979214e-06 0.00044298702 0.00055669545 0.0029615765 0.00017263716 1.1044701e-05 0.0016155832 0.008517891
0.001009917 0.0005101596 3.9375536e-05 0.00040390706 0.00037295895 0.0010155507 0.0006131999 1.3453414e-05
2.2278335e-05 0.00042059895 0.00027796786 0.0009106916 0.0014731737 8.013361e-05 0.0006029416 0.0008492847
0.00027597704 0.00010058123 3.5330533e-05 0.00026389316 3.7977938e-05 0.0027477827 0.0005698202 0.0011497714
9.470096e-06 0.0025724077 0.0005578409 0.0025436033 1.633303e-05 0.00016290965 6.7256595e-05 0.0010951397
7.367408e-06 4.6858724e-05 2.2084803e-05 1.1961795e-05 0.0032832592 0.0016634896 3.4907036e-06 0.00037432477
0.0007459177 1.0866529e-05 5.265939e-06 9.5782874e-05 1.8653489e-05 6.979107e-05 0.0011106706 6.9580346e-06
0.00058089796 1.790517e-06 0.0013376331 0.000722212 1.2107166e-05 6.764959e-05 0.00054619584 0.00069198787
0.00047657613 2.2719625e-05 0.0007398101 0.00016303457 0.00026936326 0.0012247155 7.283657e-05 0.00032535542
1.2373433e-05 1.3084582e-05 0.00088033057 0.0017860017 0.00014914745 0.0007183772 6.0608013e-06 0.00075270486
0.003974576 0.0004847765 0.001849357 0.0033171438 1.167108e-05

trunk.0.se.fc1.bias f4 [56]
00000000: 4ba3 7b3c febd 1fbc d881 a43c 9637 ee3c
00000010: d25f d33c 9782 873d 87f2 ba3c 644e 8c3d
00000020: 04fc 053e 157a 3dbc 554f 643d 0f1b 0f3b
00000030: b09f 903b bdc4 1dbc e478 103c 0739 963d
00000040: 6c5a b23d 785a ea3d 2f99 783d db6e 593e
00000050: c41f bc3d 16bd b3bc c016 e43d f0ef bc3d
00000060: 290c 00ba b5a5 7e3b 65d3 0f3e f25f 183e
00000070: cd38 053c d777 6f3d fb66 57bc aa1f 993e
00000080: d69e 5f3e 80df b43b b2bc a73d 1d71 913d
00000090: 47a3 18bc 46b8 b73d 2ad3 4abc 032c 9c3d
000000a0: a48c 503d 812b 0c3e 83c0 12ba 5cae f03c
000000b0: ad08 5e3d 2223 f63d 5158 9c3d 099e 093d
000000c0: 5f0f cdbc 84e0 0c3e 6ee3 9f3e 2913 013e
000000d0: 5794 663e 8ab2 ecbc cba1 d13d 3ef9 223e
0.015358756 -0.0097498875 0.020081446 0.02907924 0.025802527 0.06616705 0.022820724 0.06850889
0.13084418 -0.011564751 0.05573972 0.0021836197 0.0044135675 -0.009629426 0.008817885 0.07335096
0.08708653 0.11443037 0.060692962 0.21233694 0.09185746 -0.02194075 0.11137152 0.09225452
-0.00048846245 0.0038856093 0.14045484 0.1488035 0.008131218 0.058463898 -0.013147111 0.2990697
0.21837935 0.0055198073 0.08190288 0.07101653 -0.009316272 0.08970694 -0.012379447 0.07625582
0.050915375 0.1368847 -0.00055981445 0.029380016 0.054207493 0.1201842 0.076340325 0.03359798
-0.025031744 0.13757521 0.31228203 0.12604965 0.22517525 -0.028893728 0.10235938 0.15915391
